KINN/non_homo/famous_paintings/models/model_mlp.pth (torch, 166620 bytes, 5 tensors)

layer1.weight f4 [200, 2]
00000000: d428 503e 3598 babd 3d15 0ebf 1e0f 0f3f
00000010: e01f 113f 233a e43c 3148 26bf f2b2 f0be
00000020: 9c34 2a3e e760 f63d ac5c a63e 76a3 b7be
00000030: d6d9 2abf 064a 8dbe 0a47 313f cef1 34bf
00000040: 6499 21bf 84c3 40bf 3405 a73e 309d babe
00000050: 9cb2 db3e 279a 213f 12cf d9be 8fc3 13bf
00000060: 99e4 483f 9f00 25be b754 40be 34c7 17bf
00000070: fad5 fa3e 4a44 55be e79d 2abf d1dc 153d
00000080: 87c8 653e df45 19bd f4a5 3c3f a196 933e
00000090: 7965 e03d 4646 593e eafc 313f ee61 86bd
000000a0: 672d 29bf b39e e93e 4bdf f03e 6ce0 03bf
000000b0: c9f2 39bc 6dea 3e3f 7c89 f4bd 8804 d0be
000000c0: 41b8 4ebe c45d 4dbf 024a debe 11aa eebc
000000d0: c6be 283f 540e 1e3f 5286 07bf f06b 003f
000000e0: 73ad f73e dcab e83e 2dbc d5be c26f 0dbf
000000f0: aa74 a5be 5756 a63e a781 dc3e 25f5 e3be
00000100: ae8d 9dbe e35f e5be 3882 3a3f 1173 e8bc
00000110: 45fb 0ebe 23d8 34bd 13de 193f afc0 2f3f
00000120: df80 b23e f06a d03e 517f 533f 47de 2cbf
00000130: 9973 d3be 84fd fa3e 16c0 533f ab44 e33e
00000140: 48e7 11bf c769 053f 1a54 05be 1e31 0c3f
00000150: ba64 b03e 6e00 1abf 744a 1ebf 85c3 6b3e
00000160: 34b7 9bbe 0d7b dfbe c53d 433f fa45 203e
00000170: 8cbe 0fbf 9071 673e 154d 113f 7053 0d3e
00000180: 8e1e 2e3f bce0 813e d1f3 e8bd 3925 cabe
00000190: 867f b7be 434d 5bbe b634 ca3d 7a75 1bbf
000001a0: 4abc 0d3d 314b 3ebe d52b 38bf 040b 1abe
000001b0: 8c1d 4f3e 42d3 31bf 987b d53e b78f 9e3d
000001c0: f239 ae3d b43d 1d3d 9ee8 3a3d 26eb f43e
000001d0: 25fc 943e f447 34bf f786 0f3e c995 313f
000001e0: 6725 dcbd d6de 013f 0ffd 553d 23d5 10bf
000001f0: 62c3 0fbf 3f60 48bf 003b 6dbe 8469 0b3f
00000200: 8e31 d0be 8701 3bbf 406c c5be 7b04 a63e
00000210: cc2b 4abf c43d 37bc 560c f83e ba1f a4be
00000220: 5212 6cbe 9019 afbe 0eed 27be 2d24 183e
00000230: b33e 00be 54c5 543e b449 37bf 827b 583b
00000240: 7429 c0bc 9fdd e83e a230 9dbe 362e 5abe
00000250: 9f46 25bf 1dc4 2fbf 2bc2 38bf 47e2 04bd
00000260: d423 173e 6b8a d53e b1a9 923e 1165 74be
00000270: 32e3 4cbd f87c 903e a12f c9bd 8e77 4cbe
00000280: da4c 3a3f dab4 8dbd 20fa 95be bec1 2ebf
00000290: d261 2ebe b80e 0f3e 091c 033f 8077 643b
000002a0: 5689 dc3d 5174 c53e 14b6 3dbf 435f b0be
000002b0: b17e 96bd f436 0abe c7f8 5cbe 5ff7 e13e
000002c0: f217 333f 26b1 2d3f 399c 81be 26b2 a63e
000002d0: e4c0 d83e 2839 a63e 726f 0dbe 0751 a8b7
000002e0: e911 58be 4476 61be 6709 1a3f f8d0 d73e
000002f0: 2e9d f63e 3dd9 a83e cbb9 06bf 4d74 f7be
00000300: f1f3 3d3e 3a85 8e3e 8708 f63e a5ac 423f
00000310: fbcd 0bbf 4ebb 453f 9618 1fbf 4dd3 2c3f
00000320: 0056 34be 3106 78be d0f5 903e 06d5 373e
00000330: 657b 08bf b8f5 5abe b0e6 c3bd 714e 1c3f
00000340: 298b 07bf 066f 2a3f b69f 853d 1152 1d3b
00000350: 0fb2 5bbe 89f2 43be 5d24 0fbf 0c98 edbe
00000360: 0ea7 ef3e b0cc 03bf 76ba 3dbf 009b 19be
00000370: c29b 953e e807 1bbf 686b f83e bd59 133e
00000380: 2d6f 153f 0f8d 9ebd 06ef d73e 7b96 26bf
00000390: 98fa 00bf 1eeb 7c3e 3032 e3be 5438 173f
000003a0: 37b5 e73e 6cc5 213f 4f01 0ebf 024c 803d
000003b0: 3f99 91be 57ed 443e 5733 da3e 7992 6e3e
000003c0: 033d c63e 0e4c f03d fd6c e5be 491b 6bbe
000003d0: fa51 273e d10d 0bbf 1742 09bf fde3 2d3f
000003e0: 6c87 efbe 2901 3abf 075e 7bbe 24e2 c03b
000003f0: 93ed d63e 9db3 c73d cc23 be3e 1f18 013f
0.20328075 -0.091110624 -0.5550116 0.5588244 0.5668926 0.027859753 -0.64953905 -0.47011524
0.16621631 0.120302014 0.32492578 -0.35866898 -0.6673864 -0.27595538 0.6924902 -0.70681465
-0.6312468 -0.75298333 0.32621157 -0.3644805 0.42909706 0.6312584 -0.42540795 -0.57720274
0.7847381 -0.16113518 -0.18782316 -0.59288335 0.48991376 -0.20826831 -0.6664719 0.03658754
0.22439776 -0.03742015 0.73690724 0.28825858 0.109568544 0.21218213 0.6952654 -0.06561647
-0.66084903 0.4562889 0.4704536 -0.51514316 -0.011349388 0.74576455 -0.119402856 -0.40628457
-0.20187475 -0.802212 -0.43415838 -0.029133828 0.659161 0.61740613 -0.5293933 0.501647
0.4837452 0.45443618 -0.4174513 -0.55248654 -0.3231557 0.32487747 0.43067667 -0.44522968
-0.30772156 -0.44799718 0.7285495 -0.02837518 -0.13963039 -0.044151437 0.60104483 0.68653387
0.34863946 0.40706587 0.82616144 -0.6752667 -0.41299132 0.49021542 0.82714975 0.44388327
-0.5699353 0.5211453 -0.13020363 0.54762447 0.34451848 -0.60156906 -0.61832356 0.23023804
-0.3041321 -0.43648568 0.7626613 0.15651694 -0.56150126 0.22601914 0.5675824 0.1380136
0.6801537 0.2536677 -0.11374629 -0.39481524 -0.3583948 -0.21416192 0.09873335 -0.6072613
0.034603395 -0.18583371 -0.7194188 -0.15043265 0.20226115 -0.6946298 0.41695857 0.07742255
0.08507146 0.038388923 0.045631997 0.47835654 0.2909862 -0.7042229 0.14016329 0.6936918
-0.107493214 0.50730646 0.05224329 -0.5657522 -0.56157506 -0.7827186 -0.23167038 0.5445788
-0.40662807 -0.73049206 -0.3855915 0.32425293 -0.7897308 -0.01118416 0.48446912 -0.32055455
-0.23053864 -0.3419919 -0.16399023 0.1485755 -0.12523918 0.207784 -0.7159684 0.00330326
-0.023457266 0.45481583 -0.30701166 -0.2130669 -0.64560884 -0.6865862 -0.72171277 -0.032442357
0.14759761 0.41707167 0.2864509 -0.23866679 -0.050021358 0.28220344 -0.098235376 -0.19967481
0.72773516 -0.0691926 -0.29292393 -0.6826438 -0.17029503 0.13970459 0.51214653 0.0034861267
0.10768382 0.38565305 -0.74105954 -0.3444768 -0.07348383 -0.13497525 -0.21579276 0.44134042
0.6995841 0.6784843 -0.253145 0.3255779 0.42334664 0.32465482 -0.13812044 -2.0064892e-05
-0.21100582 -0.22017771 0.60170597 0.42151618 0.48166794 0.3297824 -0.5262725 -0.48330918
0.18550088 0.2783602 0.4805338 0.76044685 -0.54611176 0.7723893 -0.6214689 0.6750992
-0.17610931 -0.24221112 0.2831254 0.17952356 -0.53313285 -0.21382797 -0.095654845 0.6105719
-0.52946717 0.6657566 0.06524603 0.0024005214 -0.21454643 -0.19135489 -0.5591486 -0.46405065
0.4680714 -0.51484203 -0.7411264 -0.15000534 0.29220396 -0.6055894 0.48519444 0.14389701
0.58372766 -0.077417485 0.42174548 -0.65073365 -0.50382376 0.24699065 -0.44374228 0.59070325
0.45255443 0.63191867 -0.55470747 0.06264497 -0.2843723 0.19231163 0.42617294 0.23298062
0.38718423 0.11733256 -0.44809714 -0.22959627 0.16339865 -0.5431796 -0.5361647 0.6792601
-0.46783006 -0.7265802 -0.24547587 0.005886333 0.4197813 0.097510554 0.37136686 0.5042743

layer1.bias f4 [200]
00000000: b777 0bbf 60f9 a33c c9ec 103f e10d a43d
00000010: e17a f53e e600 11bf de70 80be d7d9 853e
00000020: 0de1 853e 51be fc3d 6350 e13e ebeb b6be
00000030: 2681 fbbe 7ddf cf3d 3996 e13e d037 223f
00000040: f47b 813e b9c4 c4be bc0e cfbe b9bb a53e
00000050: 5d68 28bf fa40 0a3d 9808 a5be 7481 383e
00000060: 9a65 dd3e 242a 583e 9992 b53a 6d19 ebbe
00000070: c97c a3bd ebc9 f7be e746 d8be 482f 96be
00000080: 52b0 a43e cc84 a8be 91d8 ffbe 83ab 743d
00000090: 7f58 9bbe f042 143d 707b 123f 693f a33c
000000a0: 5e69 20be 8d37 dc3c 2f9a bcbe 1fe9 c73e
000000b0: 31a6 f23e 0109 6abe 8fdc d43d d23d 8e3e
000000c0: 590b 23bf bf21 86bd ef4d 45bd 71de 243f
000000d0: 0da6 97be b147 a8be 42a4 ef3e a2fa aebe
000000e0: 8450 00bf 6ff1 243f 46b8 2d3f 9854 913e
000000f0: 61e0 ecbe a1f8 a7be 43b1 743e 429e 2fbf
00000100: 35e0 a5bd 563e 163f 3911 7ebe fa84 77be
00000110: fe2b bc3e 758b ed3e cf71 bcbe a26c 103f
00000120: 03da bb3e 0db0 b5be 7856 ac3e dbd4 363d
00000130: 1325 8c3e adfb 053f e071 b23e 6dc8 9cbe
00000140: cdfa 5a3d 38fe 0cbf 2a04 28bf 008a 723e
00000150: fcf6 eabd 6aa3 453e 81bf 2c3f 8cab 19bf
00000160: 6ce1 bdbe 1b47 1c3f c4cb 97be cd80 303e
00000170: f1da 61be 6115 8bbe 3a04 50bc cb34 c13e
00000180: a8e3 58be 154d 03bf bddc 0cbe 148d b03e
00000190: 440b 97be 5c2d 27bf 7881 14bf adb5 55be
000001a0: 8193 10be 3768 1bbf 08fa c83d 7357 1cbd
000001b0: f69f e73d 0613 263f 1e3a 14bf c6b6 edbe
000001c0: 34b9 5d3e 5901 aebd ae9b 8ebe 8050 043f
000001d0: b0ef 973d e3dc 16bf 5d88 8ebe 59b4 b0be
000001e0: 8471 9cbd 5d40 a7be 2132 88be 7846 82be
000001f0: c6fb e63e 156a 133f 037a 503e a40f 85be
00000200: a4cf 863d 0480 01bf e3ee 24bc 3af8 1abe
00000210: ce08 e13e e170 353d c37e 17bf afad 0ebe
00000220: ad77 293f 23da 20be 4d3c 26bf 6dbe 283f
00000230: 0539 2e3f b900 01bf 59bb be3e d676 343d
00000240: 873f 6fbe e75d d53e f4d8 2fbe dd60 a2be
00000250: 3e3a 0f3f 89d5 02be a28d 72be 1134 c0be
00000260: d3bd 8dbe 09ae 0abf ce74 dfbd 2307 103f
00000270: 4cee 033f 8486 d93d 1a45 073f 4272 8dbe
00000280: fda4 d63e fb06 c0be 4b08 033f f245 223f
00000290: 9b28 0e3f f042 0b3f fa54 aebc 1ec6 b4be
000002a0: fc8a 1cbf 1ad0 eabb 8d5e 393e 4f06 fabe
000002b0: b99b 033f 74a8 09bf 8138 0cbf fa37 1ebf
000002c0: 0844 073f 3caf 02bf e453 7ebe 94f1 46be
000002d0: 284d 07bf c748 9ebe dd87 a9be 5434 67be
000002e0: b181 963e ab5c 07be 9e2e 183f 6892 c53e
000002f0: 07ed 1cbf 3731 623d b1d9 d6be 1d2c 15bf
00000300: 146f 5e3e 2aa6 123f 7077 56bd 809e fcbe
00000310: 55a7 d3be 976f 1f3f 7f74 a9be e4c0 0d3f
-0.54479545 0.020016372 0.56611305 0.0801046 0.47945312 -0.56641996 -0.2508611 0.2614276
0.26148263 0.123409875 0.44006643 -0.35726866 -0.4912197 0.10150049 0.44059923 0.63366413
0.2528988 -0.38431337 -0.4044093 0.32369784 -0.65784246 0.033753373 -0.3223312 0.18018132
0.43241578 0.21109825 0.0013852894 -0.45917836 -0.07982785 -0.4839624 -0.42241594 -0.29332948
0.32165772 -0.32913816 -0.49969915 0.05973388 -0.30340955 0.03619665 0.572196 0.019927697
-0.15665194 0.026881957 -0.36836383 0.39045045 0.4739242 -0.22854997 0.10393631 0.2778154
-0.6368919 -0.06549405 -0.048170026 0.6440192 -0.29618874 -0.32867196 0.46805006 -0.34175593
-0.5012286 0.644309 0.67859304 0.28384852 -0.46264938 -0.32806876 0.23895745 -0.6860086
-0.08099405 0.5868887 -0.24811257 -0.2417182 0.36752313 0.4639546 -0.3680558 0.5641576
0.36689767 -0.3548588 0.3365972 0.04463659 0.27372035 0.5233715 0.34852505 -0.30621663
0.05346184 -0.5507541 -0.65631354 0.23685455 -0.1147289 0.19300619 0.6747971 -0.60027385
-0.37086046 0.61046 -0.29647648 0.17236634 -0.22056176 -0.27164748 -0.01269632 0.3773559
-0.21180594 -0.5128949 -0.1375608 0.34482634 -0.29500782 -0.6530359 -0.58010054 -0.20870085
-0.14118768 -0.60705894 0.09813315 -0.038169336 0.11309807 0.6487278 -0.5790118 -0.46428508
0.2165268 -0.08496351 -0.2785315 0.51685333 0.07418764 -0.58930796 -0.27838412 -0.34512594
-0.07638839 -0.32666293 -0.26600745 -0.25444388 0.45113963 0.57583743 0.20359044 -0.25988495
0.06582573 -0.5058596 -0.010066721 -0.15133753 0.4395203 0.044297103 -0.591778 -0.13933443
0.66198236 -0.15708213 -0.6493576 0.65915567 0.68055755 -0.5039173 0.3725231 0.044058643
-0.23364078 0.41673204 -0.17172605 -0.31714526 0.55948246 -0.1277677 -0.23686841 -0.37539724
-0.27683887 -0.54171807 -0.109109506 0.5626089 0.5153549 0.1062136 0.52839816 -0.27626234
0.4192275 -0.37505326 0.5118453 0.6338798 0.5553071 0.54399014 -0.021280754 -0.353074
-0.61149573 -0.007165921 0.18102475 -0.48832938 0.5140949 -0.53772664 -0.5477372 -0.61804163
0.5283818 -0.51048636 -0.24836689 -0.19428092 -0.52852106 -0.309149 -0.33111468 -0.22578555
0.29395822 -0.13218944 0.5944613 0.38588262 -0.61299175 0.055222716 -0.4196296 -0.58270437
0.2172206 0.57284796 -0.05236 -0.49339676 -0.41338602 0.6227965 -0.33096692 0.5537245

layer2.weight f4 [200, 200]
00000000: ed5e b93c f994 0d3e 9c49 34bd 57c0 25bd
00000010: e84e 623c b9a3 1e3b ed89 0ebd 3e47 cdbd
00000020: 3075 26bd 3441 133d 1563 b7bc 5239 4d3d
00000030: 4171 c139 5d74 0a3a 6c36 7fbd 683c b13c
00000040: 7c09 67bd 7e4a 8f3d 2546 733d 98c5 a73b
00000050: ae05 373d 27a4 46be 47f1 f73d 331c 0ebc
00000060: 1185 1dbe 151f 643d d200 5d3d b78c 8e3d
00000070: 3406 813d a77e 34bb 0882 febc dcc2 13bd
00000080: d266 b5bc cfd8 2cbd 4d3c 5a3d e371 1b3d
00000090: 6616 8c3d 97d7 5cbe a60b b03c 858a 4a3c
000000a0: 9efd a83d f76e 08bc 630a 7e3b 94e4 a93d
000000b0: eddc a4bd 17ec 00bd bd63 b33d 05a0 02bd
000000c0: fa37 1dbd 8aa4 69bd 3ac0 59bd cad3 b53c
000000d0: 1b2d 56bc ca35 a4bc 8cdd cd3c 0411 cf3c
000000e0: 7b47 213d 04b2 9fbc 578c e7bc c47d 803c
000000f0: 6fc6 9e3d aed2 c13c 302c a73c 0312 183d
00000100: c988 2cbb bbf6 95bc fa29 d73b 72e4 82bd
00000110: 8195 8b3c 6f44 7a3d 5fc3 a93c b7e7 98b9
00000120: cbd2 763d 96e2 233d 8f3c 34bd e447 57bd
00000130: 128d 9c3c 14aa eebc 70ae 043d e4c1 413d
00000140: 5816 84bd 1a9d 793d 8899 99bb 9c5a 293c
00000150: d08e 893d f1cc 94bd 4938 0ebc 1716 d5bc
00000160: 2644 72bd ea0e d2bc 125e d13c e62f 72bd
00000170: 4de4 863d 3926 183d 449c 32bb f300 d73c
00000180: bad9 7d3d bfc8 c63d aa3d 333e 1f85 0ebc
00000190: dbe5 693d 8dae 61bc 1d54 513d 0589 fa3d
000001a0: bd72 213e 2903 7ebb 98a6 553d cbbe 083d
000001b0: 325a 03be 5cd5 f33c bc5d 833c 3ebf 23bd
000001c0: cd24 a3bc aea2 a9bd 80ad a13c 2257 e0bc
000001d0: d44e 903d 1172 863d d76b 953d 1403 b73c
000001e0: 68e5 87bd 6d85 833d 6f01 90bc 1cd3 323c
000001f0: f119 96bd 99df 1abd 2921 203c 42ba e93c
00000200: 37d8 efbd 17be 833c fb41 053d 01dd 433e
00000210: 3a1c 533d 7861 d0bd b34c eebc d0ab eb3c
00000220: 2656 14bd a7cb 76bc 99ef 36bc 4d33 80bd
00000230: 26ee 3a3d 123c 483a b03c 1cbd 187b 6c3e
00000240: 4157 2e3d b730 04bd 4b2a 8b3d 4676 dbbc
00000250: 9408 2bbb c435 c33c b7c5 003d 2bcf 19bc
00000260: 68a7 a03c 40a7 2f3b 0c0d 58bb a119 15bd
00000270: 51f0 30bc 8465 83bc fad9 c9bc 875c f93c
00000280: 2595 99bd cbaa 89bb a58b 41bd 9956 48bd
00000290: d19b 2abd f5ae 80bd 4f2e 14be 6262 bebc
000002a0: 1b51 79bc 989d 0d3d 41e6 053d 3c3e 22bd
000002b0: b6d6 08bc 02a1 4c3d 2a99 d5bc 800e 83bd
000002c0: e40c 283c fa48 04bd eb16 d93c 55c9 f13c
000002d0: 19c5 b93c e2de f83c 8ac1 58bd 12cb 47bd
000002e0: 1ae4 63bd cbc0 07be ac91 8d3b fdbe 7f39
000002f0: af8d de3c e118 023e 0f96 333d d985 693d
00000300: 6b19 f83c 85cc 55bd acf3 143c 37aa 5d3c
00000310: 16ec d93c 213b 0fbb 3e76 5dbc 2f6d 4cbc
00000320: b1e2 a33b e745 ba3c 3176 783d e057 3dbc
00000330: 212f 773b c4fe f9bc a0c8 4ebd 2601 2b3d
00000340: c38b 913d 2fb6 6f3d 19f8 5e3c 6bb1 643d
00000350: 86ed 99bc c596 10bb d078 8f3d e0b5 573d
00000360: dca7 9a3b 3a5c 8dbd ec93 3abc b155 ad3c
00000370: ca3d 1bbd 5e9a 71bc b33a b3bc f3ca 6c3d
00000380: d2a6 253c c3a0 a83c 3bf5 78bd cead 3b3d
00000390: 2bd4 1c3d bd6b 703d 50d8 203c a203 99bc
000003a0: c435 8fbb 9b46 05bd e048 6d3d a016 f0bc
000003b0: 0f8c 13bd ecee 99bd 4831 b33c 2eb3 223c
000003c0: 19f2 4b3c 0a25 6cbd 1aff 8c3d b80e 33bd
000003d0: 78c8 80bd 9bd4 be3c 8cc7 373d 4ba9 f73c
000003e0: 1b9f f53b 7e39 71bd 4fcd 67bd edcf 92bc
000003f0: bcb2 4f3d 270a d7bb 0966 07bd 2726 d2bc
0.022628272 0.1382636 -0.044015512 -0.040466633 0.013812758 0.0024206473 -0.034799505 -0.10023354
-0.040639102 0.035950854 -0.022386113 0.050103493 0.0003689621 0.00052816217 -0.06230776 0.02163525
-0.05640553 0.0699663 0.059393067 0.0051199906 0.04468315 -0.19398557 0.12106567 -0.008673715
-0.15382792 0.055693705 0.05395586 0.06960433 0.06300011 -0.002754131 -0.031067863 -0.036074504
-0.022143755 -0.042198952 0.053280164 0.037950408 0.0684021 -0.21566616 0.02148993 0.012362127
0.08251499 -0.008327237 0.0038763515 0.08295551 -0.08049951 -0.031475153 0.08759258 -0.031890888
-0.03838346 -0.057041682 -0.053161837 0.022195715 -0.013072277 -0.02004518 0.025130056 0.025276668
0.03937481 -0.019494064 -0.028265161 0.01568497 0.07752692 0.02366003 0.020406812 0.037126552
-0.0026326647 -0.018306127 0.0065662833 -0.06391229 0.017039062 0.06110042 0.020723043 -0.0002916434
0.06025962 0.04001101 -0.044003066 -0.052558795 0.019110236 -0.029133834 0.03239292 0.04730405
-0.06449574 0.06094084 -0.004687492 0.010336544 0.067166924 -0.07265652 -0.008680412 -0.02601151
-0.059147023 -0.025641877 0.025557552 -0.05912771 0.06586514 0.037145827 -0.0027253786 0.02624557
0.06197522 0.09706258 0.17503992 -0.008698731 0.057103973 -0.013774526 0.051105607 0.12233166
0.15766425 -0.0038759208 0.05216083 0.03338508 -0.12827376 0.029764824 0.016035907 -0.039977305
-0.019915009 -0.08282982 0.019736052 -0.027385298 0.07046285 0.06564725 0.072959594 0.022340335
-0.06635553 0.06421933 -0.017578809 0.01091459 -0.07329167 -0.037810896 0.009773531 0.028531197
-0.117111616 0.016081853 0.032533627 0.19127275 0.05154059 -0.10174841 -0.029089307 0.02876845
-0.03621497 -0.015063203 -0.011165523 -0.06259785 0.045637272 0.00076383457 -0.038143814 0.23093832
0.04256368 -0.03227302 0.06795176 -0.026789796 -0.0026097642 0.023829348 0.031438556 -0.009387772
0.019611076 0.002680257 -0.003296676 -0.036401395 -0.010799483 -0.016039617 -0.024640072 0.030439628
-0.0749915 -0.0042012683 -0.047252316 -0.04891071 -0.041652504 -0.062833704 -0.1447079 -0.023240272
-0.015217091 0.03457412 0.03269029 -0.039610133 -0.008351972 0.049958237 -0.02607401 -0.0639925
0.01025698 -0.03229616 0.026500186 0.029514948 0.022676991 0.030379716 -0.05291895 -0.048777647
-0.055637456 -0.13257138 0.004320344 0.00024389844 0.02716717 0.12704803 0.04384428 0.057012413
0.030285558 -0.052197 0.009091299 0.013529352 0.026601832 -0.0021855312 -0.013516961 -0.012477203
0.005001389 0.02273841 0.06065959 -0.011556596 0.00377173 -0.03051699 -0.0504843 0.041749142
0.071067356 0.058523353 0.013608956 0.05583326 -0.018790018 -0.0022062522 0.07005465 0.052663684
0.0047197174 -0.069023564 -0.011387806 0.021159025 -0.037900724 -0.014746277 -0.021878576 0.057810735
0.010110574 0.02058447 -0.060780745 0.04582005 0.038288277 0.058696497 0.009817198 -0.01867849
-0.004370423 -0.032538038 0.057930827 -0.029307663 -0.036022242 -0.07516274 0.021874085 0.009930415
0.012447857 -0.05765251 0.06884594 -0.04371521 -0.062882364 0.023294738 0.044868037 0.030232092
0.0074957735 -0.05889272 -0.056592282 -0.017921412 0.050707564 -0.0065624896 -0.033056293 -0.025652958

layer2.bias f4 [200]
00000000: 802e 593d c128 a9bc 8c3c 633d b62f 56bd
00000010: d82e 72bd bb6b 56bb c831 b63c 86a4 993c
00000020: 40f5 be3c 9235 253d 0eeb cebc 3b0e 233d
00000030: 4278 3b3d ee73 0f3c d1ce 6cbd 60b0 093d
00000040: c080 bbbb 86f4 e2bc 77db 67bd 18ac 53bd
00000050: 56c2 85bd c11c 363d 447b 1bbc 6388 aa3c
00000060: 1044 5e3d 76e8 203d 4ca0 bebc 8b9b d53c
00000070: 94c0 67bd c40f 613d b8fc 91bc 1435 f53c
00000080: f6b7 5bbd 994e 87bc e85b 7abd 1ebe b6bc
00000090: 0526 05bd a092 b4bc 83d6 67bc 22be 47bd
000000a0: d3a6 40bd 565f 3dbd 4e92 db3b 3861 fa3b
000000b0: d071 803a 1a3c c73c 067c ccbb ec39 2cbd
000000c0: 655a 16bd 0a25 0fbd 59b1 bd3c 7660 433d
000000d0: 120a bf3c f81f 843d da86 6c3d 50ef 6e3b
000000e0: ad3e 89bc 1f12 123d d514 22bd b58d 383d
000000f0: fdef 8a3d ecf2 44bd ad35 3e3d dc0f 8b3d
00000100: 7486 b43c 5305 28bd 97bd b8bc 190b db3c
00000110: 428d 1a3c 1530 63bd 6b5c 54bd 28a8 963d
00000120: a856 0b3d 8f82 53bc f635 6d3d a4d7 53bc
00000130: e326 2b3d e2da 0d3c 986b 433d 63b6 00bc
00000140: 0dfd b93c 00c1 0b3d fa04 823d bc07 4dbd
00000150: 2144 b5bc 0479 38bd d3f0 813d 3d08 a0bc
00000160: 5190 753c 82a7 34bd d836 883d 21af 843d
00000170: d1d5 2e3d b36a dd3c 09c0 3f3d 7812 a13d
00000180: 60de 19bd fd0e 6bbd ec80 7c3b 4c3b 64bc
00000190: e6c1 52b8 9822 413d 1ff8 ab3c fc85 c9bb
000001a0: 499e 92bc fc38 5ebd 7627 363d c2a2 103c
000001b0: b7d6 893b 54d3 bebb c860 8bbd b511 37bc
000001c0: 61f7 093d 18cc ccbc 6cb3 e7bc 92fe 303d
000001d0: 162a 7c3c 1612 0e3d 70c0 30bb 8703 0b3d
000001e0: 9d7e d93c 6510 003d eb04 a5bc e79c 89bd
000001f0: 5333 703d 9f53 633d 7151 833c 7667 7cbc
00000200: 14c4 49bc ea1c 6e3d 51d6 e93c cf76 8a3d
00000210: 3ad7 3abd 33b5 5ebd 4e4f fcba 46d2 c83c
00000220: 17c0 cf3c 9307 013d 2247 083c 0bcb c4bb
00000230: ca61 733d 8dcc 4d3d 8daa a93b 3b44 c93b
00000240: 65f3 773d dc5d 6cbd 7fcb 2b3d c4c5 0b3d
00000250: 65e8 4c3d bf17 f3bc 7e5f edbc 78e9 363c
00000260: f050 22bd 510b cd3c f33c 8abd a78d 133d
00000270: 03ee b3bc 651b b7bc 006a 843d a0c7 263c
00000280: 8674 08bd 8cf8 1fbd 6587 423d 74d6 613d
00000290: 9df4 7bba 4447 f6bc f13f aabc 4022 823d
000002a0: dc92 7ebd 59e8 023d 9186 003d 10bf 49bd
000002b0: 6af2 72bb 79f1 f73c 28f0 d2bc 0c5a 843d
000002c0: 5cf3 57bc 7982 22bd da19 51bc 004a 4dbd
000002d0: 6021 753d c196 3dbd 6b4b c63c 8135 3abc
000002e0: d355 2abd 0d0c 8abd 6917 363d 3581 48bd
000002f0: 2d4d 50bd 494e 89bd e275 e43c b92c 7f3c
00000300: fc47 7fbd 0966 ca3c 4185 7dbd 29c9 78bc
00000310: 5ca3 403d 651c afbc 7764 623d c878 8cbd
0.05302286 -0.020649316 0.055477664 -0.052291594 -0.059126705 -0.003271802 0.022240534 0.018755209
0.023310304 0.04033429 -0.025258567 0.039808493 0.045768984 0.008755667 -0.057814423 0.03361547
-0.0057221353 -0.027704488 -0.056605782 -0.051677793 -0.06531207 0.044461016 -0.009489838 0.020816987
0.05426413 0.039284192 -0.023269795 0.026075145 -0.05658014 0.054946676 -0.017820701 0.029932536
-0.053642236 -0.01651697 -0.061122805 -0.022307452 -0.03250696 -0.022042572 -0.014150265 -0.04876531
-0.047034096 -0.046233498 0.0067007905 0.007640984 0.0009799544 0.02432065 -0.0062403707 -0.042047426
-0.0367073 -0.034947433 0.023155855 0.047699414 0.023320232 0.0645141 0.057745792 0.003645856
-0.016753519 0.035661813 -0.03957065 0.045057017 0.067840554 -0.04808323 0.046437908 0.06790134
0.022036768 -0.041020703 -0.022551341 0.02673869 0.009433093 -0.055465776 -0.05184595 0.07356292
0.03401819 -0.012909546 0.05791279 -0.012929831 0.041785132 0.008658143 0.04771003 -0.007855984
0.022703672 0.034119606 0.063486055 -0.050056204 -0.022127213 -0.045037284 0.06344762 -0.019535178
0.014988021 -0.04410506 0.066510856 0.06478716 0.04268438 0.027028417 0.046814 0.07864851
-0.03756559 -0.05738734 0.0038528992 -0.013930153 -5.0248484e-05 0.04715213 0.020992337 -0.0061500054
-0.017897742 -0.054253563 0.044471227 0.008827867 0.004206504 -0.005823532 -0.06805569 -0.011173655
0.033683185 -0.024999663 -0.028283797 0.043211527 0.015390893 0.034685217 -0.002697017 0.03393891
0.026549632 0.031265635 -0.020143947 -0.0671938 0.058642697 0.05549967 0.016030045 -0.015405526
-0.012314815 0.058133043 0.028544577 0.06760942 -0.045615412 -0.054372024 -0.0019249709 0.024514329
0.02536015 0.031501364 0.008317741 -0.00600565 0.05941943 0.050243903 0.005177802 0.006142167
0.060534853 -0.0577067 0.041942116 0.03412415 0.050026316 -0.029674409 -0.028976198 0.011164062
-0.03962797 0.02502981 -0.067499064 0.036023762 -0.021964079 -0.02235193 0.064655304 0.01017943
-0.03331425 -0.039055392 0.047492404 0.05513616 -0.00096113404 -0.030063279 -0.020782443 0.06354189
-0.062151775 0.031959865 0.031378333 -0.049254477 -0.003707076 0.03026651 -0.025749281 0.064624876
-0.01318058 -0.03967521 -0.012762511 -0.0501194 0.059846282 -0.04628635 0.024205884 -0.011365295
-0.041585755 -0.0674058 0.04445592 -0.048951346 -0.05085485 -0.06704385 0.027888242 0.015574628
-0.06232451 0.024706857 -0.06189466 -0.015184679 0.04703079 -0.021375844 0.055271592 -0.06858975

layer3.weight f4 [1, 200]
00000000: 1cc9 83bd 710e a3bc 2a66 dfbc 4f08 c0bc
00000010: c4ac 6f3a 7743 05bd d97b ac3c 988b c2b9
00000020: 61e6 82bc 183a 5abd 5408 863d 8cb9 16bd
00000030: c63b 3b3d 7289 35bb 4e25 0bbd ccb2 1c3d
00000040: 3481 f4bc 1ccf 4abd f955 f0bc bcd7 8c3d
00000050: b91e 90bb f115 2bbd 90ed 20bd 6fc1 17bd
00000060: fb98 3e3d 5a9d 9fbd 35e5 06bc 3525 0dbd
00000070: cb55 613a 69ea f83c f99c 9bbb 81ba 97bc
00000080: 49e9 973d b654 cabc 9cd1 973c aee5 403d
00000090: c871 e6bc 3520 4fbd 43c6 2b3d 695c 21b9
000000a0: 2c89 f83b 1ab6 493c 95ae 03bd 3a59 72ba
000000b0: ad2b 353c ece6 4b3c 95a7 c0bc aa25 1fbc
000000c0: c957 153d bfa6 6bbd abc6 4fbd 4e33 993b
000000d0: 09e1 74bd 28e8 a93c 244d e0bc 617c 903b
000000e0: 1457 0a3d 4418 37bc 8774 f03a 3190 73bd
000000f0: c2b9 74bb b62b 493d 4051 573d 142c 3f3d
00000100: 5ef5 7a3d 2080 38bd 3f7a 343d d486 363d
00000110: 595c 52bd 56a1 c5bc 3543 8cbc f6ad 83bd
00000120: 5e49 61bd 5c9d 6f3d 9bf0 6f3d feed cb3d
00000130: a3f9 cebc 7de4 5cbc e364 90bc 8a78 683d
00000140: 5807 bcbc 1065 1fbd 8b96 703d 27af 57bd
00000150: 8db7 1b3c 78bb 20bb 9515 d53c 5746 f1bc
00000160: dbab 273d dda5 8f3d bbcb 4abd 628d 883d
00000170: 5929 edbc 2462 03bd 0ab4 3dbc 40ba 263c
00000180: 74aa d13c cee9 8b3c 738a 9e3d 60fd b7bc
00000190: 4013 86bc ed55 39bc 8390 463d 5da8 013d
000001a0: 8142 81bd 1189 c53c 95c2 823d 4cf5 d13d
000001b0: 155d 873d 55f5 153d 3180 3e3d b9e2 653d
000001c0: c38d 503d d0b3 e33c 215e 3e3d 8519 213d
000001d0: bd13 dc3b fbf0 c13b c82e 4b3d cd6a 79bd
000001e0: 02ae 73bc 380a d6bd 0b3e 96bd 81d8 243d
000001f0: c1db fdbc 16eb 5dbd a033 233d bc1e 223c
00000200: f427 4ebd abb4 9d3b 0f4c 5dbd db5d e13c
00000210: 1115 073d 07b8 90bd 9e41 0f3d 9745 b6bc
00000220: 7f56 1f3c dc90 9a3b 073b 463d 8eb5 643d
00000230: e8fe 55be 7b59 82bc 6dc3 76bd 3fce d33c
00000240: 1337 6a3d 17a1 72bd 0126 c23c 9981 c4bc
00000250: d1ad a2bc 72c2 1b3d dab5 8e3c d810 86bc
00000260: d8ca de3c 231c e73c dd24 8e3d 2827 153d
00000270: 7901 92bc e9d6 62bb 3589 763c b804 253d
00000280: 018e 773d 2bd9 64bb 7f0c 323d 8325 18bd
00000290: ce2a 333d e4a5 643d e1e4 8cbd 887f d03d
000002a0: 1623 8fbc 6c19 eb3a 2d04 69bd fccd 38bd
000002b0: 4a68 643c 57b4 12bd 38be 76bd cfd7 20bd
000002c0: d9da 1dbb cddd 803c 2bd5 e63c 5c66 0b3b
000002d0: 4023 37bd a609 1b3d bc3d 83bd 1168 2ebd
000002e0: 48e8 303d 67b2 5d3d ebd8 623d 2a67 86bd
000002f0: cc62 823d 8a57 bdbc bfe1 09bd 7b15 dc3c
00000300: 7a46 a6bb 3958 ad3b bfe9 2cbd 5a52 5f3d
00000310: 34c9 30be 816c f13a b3f5 233d 6ea3 063d
-0.06434843 -0.019904347 -0.027270395 -0.023441462 0.00091428705 -0.032535043 0.021055149 -0.0003710657
-0.015978994 -0.05327806 0.06544557 -0.036798045 0.0457113 -0.0027700332 -0.033971123 0.03825645
-0.029846765 -0.04951392 -0.02933787 0.068770856 -0.0043981937 -0.04176897 -0.039289057 -0.037049707
0.046532612 -0.07793684 -0.008233358 -0.03445931 0.0008595853 0.030385213 -0.004748937 -0.01852155
0.074175425 -0.024698596 0.018532567 0.04709404 -0.028130427 -0.050567824 0.041937124 -0.00015388582
0.0075847115 0.012311483 -0.032148916 -0.0009244863 0.011057776 0.012445193 -0.02351741 -0.00971357
0.03646067 -0.05753207 -0.050726574 0.0046753054 -0.059784923 0.020740584 -0.027380534 0.0044093584
0.03377445 -0.011175219 0.0018345275 -0.059463684 -0.0037342166 0.04911395 0.05256772 0.046672896
0.061269157 -0.045044065 0.044061895 0.044562176 -0.0513576 -0.024124783 -0.01712189 -0.06429665
-0.05500161 0.05849968 0.05857907 0.09957503 -0.02526552 -0.01348221 -0.017626232 0.05675558
-0.02295272 -0.03891474 0.05873732 -0.052657273 0.009504211 -0.0024525803 0.026011268 -0.029452486
0.04093538 0.07014058 -0.0495107 0.06667592 -0.02895038 -0.032076016 -0.011578569 0.010176241
0.025593974 0.01707926 0.07741251 -0.022459686 -0.016366601 -0.01131199 0.04847766 0.031654704
-0.06311513 0.02411321 0.0638477 0.10251865 0.06609551 0.03661092 0.04650897 0.056124423
0.050916445 0.027795702 0.046476487 0.039330978 0.00671622 0.0059186197 0.04960516 -0.06089287
-0.01487303 -0.10451168 -0.073360525 0.040245537 -0.030988576 -0.054179274 0.039844155 0.009895023
-0.05033107 0.004812797 -0.054027613 0.027510574 0.032979075 -0.070663504 0.034974687 -0.02224998
0.009725212 0.0047169756 0.048396137 0.055837207 -0.2089802 -0.015911808 -0.060244966 0.025855182
0.05718143 -0.05923566 0.023699762 -0.023987578 -0.019858273 0.038027234 0.017420698 -0.016365454
0.027196333 0.028211659 0.06940625 0.036414295 -0.017822968 -0.003461296 0.015047361 0.040287703
0.06043816 -0.0034919481 0.04346895 -0.03714515 0.043741994 0.055822268 -0.06879593 0.10180575
-0.017472785 0.0017936653 -0.056888748 -0.045118317 0.01394088 -0.035816517 -0.06024 -0.03926831
-0.0024086742 0.015730763 0.028177818 0.0021270728 -0.04471135 0.037851 -0.06408259 -0.042579714
0.04319027 0.054125216 0.05538265 -0.06562646 0.063665 -0.023113031 -0.033662554 0.026865711
-0.0050743194 0.005290058 -0.042215105 0.054521896 -0.17264253 0.0018419178 0.04002924 0.032870702
