KINN/non_homo/famous_paintings/models/model_kan.pth (torch, 131346 bytes, 12 tensors)

layers.0.base_weight f4 [15, 2]
0	0xbf1fcaa6	-0.6241859
1	0x3e0c4286	0.13697252
2	0xbee2b0ca	-0.44275504
3	0xbce6f12f	-0.028191177
4	0xbe94db1a	-0.2907341
5	0x3ed6786e	0.41888756
6	0x3ec29159	0.38001516
7	0xbc7f4b48	-0.015581913
8	0x3f0fbe16	0.56149423
9	0xbeb5337b	-0.3539084
10	0x3e08754f	0.13326
11	0x3ea907ab	0.33013663
12	0x3f1fcac7	0.6241879
13	0x3ee25e29	0.44212463
14	0x3d20add5	0.03922828
15	0xbef0f2e2	-0.47060305
16	0x3d664194	0.056214884
17	0x3e6fcb2d	0.23417349
18	0x3f0f41a9	0.55959564
19	0x3f163bac	0.586848
20	0x3ec19138	0.37806106
21	0x3f12a9cc	0.5729034
22	0xbef8dce7	-0.48606035
23	0xbf3271a5	-0.6970466
24	0xbf2754ae	-0.65363586
25	0xbf216fe8	-0.6306138
26	0xbf20eccf	-0.6286134
27	0x3efdbb34	0.49556887
28	0x3f2a4ab0	0.66520214
29	0x3ea84145	0.32862297

layers.0.spline_weight f4 [15, 2, 103]
0	0xbd0a4ed6	-0.03376659
1	0xbd76b397	-0.060229864
2	0xbd7a12f0	-0.061053216
3	0xbd83929f	-0.0642445
4	0xbd3270ab	-0.04356448
5	0xbd14f7ac	-0.03636901
6	0xbd1de4ec	-0.038548395
7	0xbd3444e3	-0.044011008
8	0xbd121d21	-0.03567231
9	0xbd1f5c33	-0.038906287
10	0xbd33e2c7	-0.043917444
11	0xbd41c68e	-0.047308497
12	0xbd2a9c14	-0.041652754
13	0xbd0ff6bb	-0.03514741
14	0xbd6853ea	-0.05672065
15	0xbd135145	-0.035966177
16	0xbd012f88	-0.03153947
17	0x3d333047	0.043747213
18	0xbc7aac3f	-0.015299856
19	0x3c735602	0.014852049
20	0x3cadd173	0.021218037
21	0x3d501aff	0.050806995
22	0x3dc71b18	0.097219646
23	0x3d1479f0	0.0362491
24	0x3c9d020b	0.019166013
25	0xbbb90872	-0.0056467587
26	0xbd26b647	-0.040701177
27	0xbd4612fb	-0.048357945
28	0xbd2e35e7	-0.042531874
29	0xbd43f1cf	-0.04783803
30	0xbd440db2	-0.047864623
31	0xbd63ad37	-0.055585112
32	0xbd3b51cd	-0.04573231
33	0x38e8d3bd	0.000111020614
34	0xbcf22dea	-0.02956291
35	0xbce110fd	-0.027473921
36	0xbcb5498d	-0.022129798
37	0xbbe40bd3	-0.0069594174
38	0xbd72c7fa	-0.059272744
39	0xbd609ef2	-0.054839082
40	0xbc16ebaa	-0.00921146
41	0xbd9ec3c4	-0.07752183
42	0xbda8a38f	-0.08234321
43	0xbda67834	-0.08128396
44	0xbd9d8124	-0.07690647
45	0xbd5ce958	-0.05393347
46	0xbdad3008	-0.08456427
47	0x3c8cbb47	0.017179145
48	0x3c8381aa	0.01605304
49	0x3d6f6f10	0.058455527
50	0x3cf85155	0.03031222
51	0xbde55fba	-0.11199899
52	0xbe11f64d	-0.14254113
53	0x3df76a06	0.12080769
54	0x3e042c20	0.12907457
55	0xbce6e720	-0.02818638
56	0xbde1d198	-0.11026305
57	0xbe08d531	-0.13362576
58	0xbd70bb51	-0.05877239
59	0xbcecd90e	-0.028912093
60	0xbe296c5a	-0.16545239
61	0xbd266f11	-0.040633265
62	0xbd7e6fe8	-0.06211844
63	0xbc38473c	-0.011247452
64	0xbd488233	-0.048952293
65	0xbe2c9d5e	-0.16856906
66	0xbdbd51dd	-0.0924413
67	0xbdc8dffe	-0.09808348
68	0xbc2d45b3	-0.0105757
69	0xbc1fdd68	-0.009757377
70	0x3dfb94c1	0.12284232
71	0x3d9f2aa4	0.07771805
72	0x3d9e6839	0.07734723
73	0xbd64b46b	-0.055836122
74	0xbd7aae30	-0.061201274
75	0xbb7ec736	-0.0038876063
76	0xbb846022	-0.0040397802
77	0xbe786066	-0.24255523
78	0xbca0e6ef	-0.019641368
79	0xbd098391	-0.033572737
80	0xbce96749	-0.028491633
81	0xbd3076ba	-0.043081976
82	0xbc9d6128	-0.019211367
83	0xbdf74f05	-0.12075619
84	0x3de22426	0.11042051
85	0x3df885bb	0.12134882
86	0xbe5007db	-0.20315497
87	0x3cd74bed	0.026281321
88	0x3cc3304a	0.023826737
89	0x3d91a2ec	0.07111153
90	0xbdfd2613	-0.12360778
91	0xbe0a744a	-0.13520923
92	0xbe281443	-0.16413979
93	0xbe2d3cdc	-0.16917747
94	0xbdbd1ae4	-0.092336446
95	0xbd2250fa	-0.039628007
96	0xbd041c44	-0.03225352
97	0xbdae4b4a	-0.08510454
98	0xbd3d67d8	-0.04624161
99	0xbd9ebbea	-0.077506855
100	0xbc853c9d	-0.016264254
101	0x3cb01345	0.021493563
102	0x3ca0a31a	0.019609023
103	0xbe216e6d	-0.1576478
104	0xbc3fce30	-0.011706874
105	0xbdf12489	-0.11774547
106	0x3cf626aa	0.030047733
107	0xbd683a08	-0.056695968
108	0x3c9f1e89	0.01942374
109	0x3c7a1227	0.015263117
110	0xbd59cf83	-0.053176414
111	0xbd8e5dd8	-0.06951493
112	0x3dae221b	0.08502599
113	0xbc97d9cd	-0.018536473
114	0xbc726115	-0.014793654
115	0xbc93951c	-0.018015437
116	0x3d463b42	0.048396356
117	0xbc46af26	-0.01212672
118	0x3bf5926a	0.0074942606
119	0xbc85fb20	-0.016355097
120	0x3b50fc1e	0.0031888555
121	0xbd92bb74	-0.0716466
122	0x3d73bed3	0.059508156
123	0x3ccba0a5	0.024856875
124	0x3da13be9	0.07872755
125	0xb97d1deb	-0.00024139106
126	0x3dac66ef	0.084180705
127	0xbbe4cafb	-0.006982205
128	0xbe4c0d03	-0.19926839
129	0xbd84feac	-0.06493887
130	0xbe376cce	-0.179126
131	0x3d703e67	0.05865326
132	0xbd9add30	-0.075617194
133	0xbd47b659	-0.048757885
134	0xbded4cae	-0.11586891
135	0xbc8120e0	-0.015762746
136	0xbd875512	-0.06608023
137	0x3ab79893	0.0014007263
138	0xbd29d9a9	-0.041467343
139	0x3d022423	0.031772744
140	0xbd3625db	-0.044469696
141	0x3aaf9b60	0.0013397746
142	0xbce60287	-0.028077377
143	0x3d0fc344	0.03509833
144	0x3cfcf670	0.03087923
145	0x3df2088e	0.11818038
146	0xba6bce54	-0.0008995284
147	0x3c5e792f	0.013578697
148	0x3d5dbb5d	0.05413376
149	0xbd359ed2	-0.044340916
150	0x3e093e7c	0.13402742
151	0xbb773bae	-0.003772478
152	0xbe1f1667	-0.1553589
153	0xbdaf94eb	-0.08573326
154	0xbddbac95	-0.10726277
155	0xbdc16ae6	-0.094442174
156	0xbd7d46dc	-0.061835155
157	0x3af05edd	0.0018338818
158	0x3d0b5cb4	0.034023955
159	0x3ddac4b6	0.10682051
160	0x3e0e93eb	0.13923614
161	0x3dafbba0	0.085807085
162	0x3d276109	0.040864024
163	0xbc444252	-0.011978703
164	0xbd6b83ab	-0.057498615
165	0xbd12657b	-0.03574131
166	0xbd7b74f5	-0.061390836
167	0xbda8e12a	-0.08246072
168	0xbde8f774	-0.11375323
169	0xbdffb913	-0.12486472
170	0xbcdabb61	-0.026700677
171	0xbcf5ef51	-0.030021342
172	0xbd50d903	-0.05098821
173	0xbde94885	-0.11390785
174	0xbdc49b3b	-0.0959992
175	0xbdb3066c	-0.08741459
176	0xbdde06b2	-0.10841121
177	0xbe039447	-0.12849532
178	0xbdc21a3d	-0.09477661
179	0xbdd2701a	-0.10275288
180	0xbc8ac9d2	-0.016941939
181	0xbc01bde0	-0.007918805
182	0xbc60946a	-0.01370726
183	0xbc3e15cb	-0.011601876
184	0xbda7c62b	-0.081920944
185	0xbd65e7d1	-0.05612928
186	0xbdca12b7	-0.09866851
187	0xbddcdeaa	-0.10784657
188	0xbdad8464	-0.08472517
189	0xbda7c7de	-0.081924185
190	0xbcb403df	-0.021974502
191	0xbd513748	-0.05107811
192	0x3d1f6615	0.038915712
193	0xbbe8db72	-0.007106238
194	0x3d6e3899	0.058159444
195	0xbca6f875	-0.020382145
196	0xbd1c1ef1	-0.038115446
197	0xbbcba50a	-0.0062147425
198	0xbdb9de0e	-0.09075557
199	0xbd90c290	-0.0706836
200	0x3cbb1321	0.02283627
201	0xbd4fae8a	-0.050703563
202	0xbccd28b8	-0.02504383
203	0xbd2a110f	-0.041520175
204	0xbcf57622	-0.029963557
205	0xbe08713c	-0.13324445
206	0x3ba080af	0.004898153
207	0x3d023b7e	0.031795017
208	0x3ce72205	0.028214464
209	0x3ce1fff9	0.027587878
210	0x3d2a6ecb	0.041609567
211	0x3cfc3e23	0.030791348
212	0x3ca3d34b	0.019998213
213	0x3cbd126e	0.023080077
214	0x3cf3a3fb	0.029741278
215	0x3d1ee412	0.038791724
216	0x3d0b277b	0.0339732
217	0x3d1e97b9	0.038718913
218	0x3d177ade	0.03698241
219	0x3d694cf5	0.056958158
220	0x3d92bf92	0.071654454
221	0x3d9c054a	0.07618196
222	0x3d336d2f	0.043805297
223	0x3cf55cb3	0.029951429
224	0xbbf79eb0	-0.007556759
225	0x3d29b687	0.041433837
226	0xbc784061	-0.015152068
227	0xbcdbb3d0	-0.02681914
228	0x3bb9c9fd	0.005669831
229	0xbe2e5edb	-0.17028372
230	0xbeb26546	-0.3484289
231	0xbe2b72b9	-0.16742982
232	0x3d54b92d	0.05193441
233	0xbda9cefa	-0.08291431
234	0xbe12e260	-0.14344168
235	0xbe48ea70	-0.19620681
236	0xbdb0a4bf	-0.08625173
237	0xbd8e3346	-0.069433734
238	0x3d9ae478	0.07563108
239	0x3d27f019	0.04100046
240	0x3d3cff02	0.046141632
241	0x3d8d2cc9	0.06893308
242	0x3d1be93b	0.038064223
243	0x3d81b037	0.063324384
244	0x3d99d7b9	0.07511849
245	0xbd2af471	-0.041737024
246	0x3dca4da5	0.09878091
247	0x3d965409	0.07340247
248	0x3d9ce535	0.07660905
249	0xbc80040b	-0.015626928
250	0xbd85333d	-0.065039136
251	0xbd0d633f	-0.034518477
252	0xbde0a322	-0.10968615
253	0x3cc32ddd	0.02382558
254	0xbc8822af	-0.0166181
255	0x3e1f402d	0.15551825

layers.0.spline_scaler f4 [15, 2]
0	0xbef8813c	-0.48536098
1	0xbe842840	-0.25811958
2	0x3ed8dfbf	0.42358205
3	0x3ee72887	0.45148107
4	0xbf3720fc	-0.71534705
5	0xbeefb2d6	-0.46816128
6	0x3ef3d1ea	0.4762109
7	0x3f00fc5c	0.5038507
8	0xbf0436ee	-0.51646316
9	0xbf04a905	-0.51820403
10	0x3f1fba68	0.6239381
11	0xbeee44d7	-0.46536896
12	0xbe7ce03a	-0.2469491
13	0xbeac9250	-0.33705378
14	0x3ecb21c8	0.3967421
15	0xbf12bc75	-0.5731881
16	0x3e2cbd95	0.16869195
17	0xbe9be691	-0.30449346
18	0x3ec1ca47	0.37849638
19	0x3e8836ac	0.2660421
20	0xbf219411	-0.63116556
21	0xbec1cc8f	-0.37851378
22	0x3ebfce75	0.37462202
23	0x3ee7919c	0.4522828
24	0xbf3f76a1	-0.7479039
25	0xbf4e0a7f	-0.80484766
26	0x3f1124de	0.5669688
27	0xbf427d20	-0.75972176
28	0xbf3aad12	-0.72920334
29	0x3e5e7db1	0.21727635

layers.0.grid f4 [2, 107]
0	0xbcf5c28f	-0.03
1	0xbca3d70a	-0.02
2	0xbc23d70a	-0.01
3	0x00000000	0.0
4	0x3c23d70a	0.01
5	0x3ca3d70a	0.02
6	0x3cf5c28f	0.03
7	0x3d23d70a	0.04
8	0x3d4ccccc	0.049999997
9	0x3d75c28f	0.06
10	0x3d8f5c29	0.07
11	0x3da3d70a	0.08
12	0x3db851eb	0.089999996
13	0x3dcccccc	0.099999994
14	0x3de147ae	0.11
15	0x3df5c28f	0.12
16	0x3e051eb8	0.13
17	0x3e0f5c29	0.14
18	0x3e199999	0.14999999
19	0x3e23d70a	0.16
20	0x3e2e147b	0.17
21	0x3e3851eb	0.17999999
22	0x3e428f5c	0.19
23	0x3e4ccccc	0.19999999
24	0x3e570a3d	0.21
25	0x3e6147ae	0.22
26	0x3e6b851e	0.22999999
27	0x3e75c28f	0.24
28	0x3e800000	0.25
29	0x3e851eb8	0.26
30	0x3e8a3d70	0.26999998
31	0x3e8f5c29	0.28
32	0x3e947ae1	0.29
33	0x3e999999	0.29999998
34	0x3e9eb852	0.31
35	0x3ea3d70a	0.32
36	0x3ea8f5c2	0.32999998
37	0x3eae147b	0.34
38	0x3eb33333	0.35
39	0x3eb851eb	0.35999998
40	0x3ebd70a4	0.37
41	0x3ec28f5c	0.38
42	0x3ec7ae14	0.39
43	0x3ecccccc	0.39999998
44	0x3ed1eb85	0.41
45	0x3ed70a3d	0.42
46	0x3edc28f5	0.42999998
47	0x3ee147ae	0.44
48	0x3ee66666	0.45
49	0x3eeb851e	0.45999998
50	0x3ef0a3d7	0.47
51	0x3ef5c28f	0.48
52	0x3efae147	0.48999998
53	0x3f000000	0.5
54	0x3f028f5c	0.51
55	0x3f051eb8	0.52
56	0x3f07ae14	0.53
57	0x3f0a3d70	0.53999996
58	0x3f0ccccd	0.55
59	0x3f0f5c29	0.56
60	0x3f11eb85	0.57
61	0x3f147ae1	0.58
62	0x3f170a3d	0.59
63	0x3f199999	0.59999996
64	0x3f1c28f6	0.61
65	0x3f1eb852	0.62
66	0x3f2147ae	0.63
67	0x3f23d70a	0.64
68	0x3f266666	0.65
69	0x3f28f5c2	0.65999997
70	0x3f2b851e	0.66999996
71	0x3f2e147b	0.68
72	0x3f30a3d7	0.69
73	0x3f333333	0.7
74	0x3f35c28f	0.71
75	0x3f3851eb	0.71999997
76	0x3f3ae147	0.72999996
77	0x3f3d70a4	0.74
78	0x3f400000	0.75
79	0x3f428f5c	0.76
80	0x3f451eb8	0.77
81	0x3f47ae14	0.78
82	0x3f4a3d70	0.78999996
83	0x3f4ccccc	0.79999995
84	0x3f4f5c29	0.81
85	0x3f51eb85	0.82
86	0x3f547ae1	0.83
87	0x3f570a3d	0.84
88	0x3f599999	0.84999996
89	0x3f5c28f5	0.85999995
90	0x3f5eb852	0.87
91	0x3f6147ae	0.88
92	0x3f63d70a	0.89
93	0x3f666666	0.9
94	0x3f68f5c2	0.90999997
95	0x3f6b851e	0.91999996
96	0x3f6e147b	0.93
97	0x3f70a3d7	0.94
98	0x3f733333	0.95
99	0x3f75c28f	0.96
100	0x3f7851eb	0.96999997
101	0x3f7ae147	0.97999996
102	0x3f7d70a3	0.98999995
103	0x3f800000	1.0
104	0x3f8147ae	1.01
105	0x3f828f5c	1.02
106	0x3f83d70a	1.03
107	0xbcf5c28f	-0.03
108	0xbca3d70a	-0.02
109	0xbc23d70a	-0.01
110	0x00000000	0.0
111	0x3c23d70a	0.01
112	0x3ca3d70a	0.02
113	0x3cf5c28f	0.03
114	0x3d23d70a	0.04
115	0x3d4ccccc	0.049999997
116	0x3d75c28f	0.06
117	0x3d8f5c29	0.07
118	0x3da3d70a	0.08
119	0x3db851eb	0.089999996
120	0x3dcccccc	0.099999994
121	0x3de147ae	0.11
122	0x3df5c28f	0.12
123	0x3e051eb8	0.13
124	0x3e0f5c29	0.14
125	0x3e199999	0.14999999
126	0x3e23d70a	0.16
127	0x3e2e147b	0.17
128	0x3e3851eb	0.17999999
129	0x3e428f5c	0.19
130	0x3e4ccccc	0.19999999
131	0x3e570a3d	0.21
132	0x3e6147ae	0.22
133	0x3e6b851e	0.22999999
134	0x3e75c28f	0.24
135	0x3e800000	0.25
136	0x3e851eb8	0.26
137	0x3e8a3d70	0.26999998
138	0x3e8f5c29	0.28
139	0x3e947ae1	0.29
140	0x3e999999	0.29999998
141	0x3e9eb852	0.31
142	0x3ea3d70a	0.32
143	0x3ea8f5c2	0.32999998
144	0x3eae147b	0.34
145	0x3eb33333	0.35
146	0x3eb851eb	0.35999998
147	0x3ebd70a4	0.37
148	0x3ec28f5c	0.38
149	0x3ec7ae14	0.39
150	0x3ecccccc	0.39999998
151	0x3ed1eb85	0.41
152	0x3ed70a3d	0.42
153	0x3edc28f5	0.42999998
154	0x3ee147ae	0.44
155	0x3ee66666	0.45
156	0x3eeb851e	0.45999998
157	0x3ef0a3d7	0.47
158	0x3ef5c28f	0.48
159	0x3efae147	0.48999998
160	0x3f000000	0.5
161	0x3f028f5c	0.51
162	0x3f051eb8	0.52
163	0x3f07ae14	0.53
164	0x3f0a3d70	0.53999996
165	0x3f0ccccd	0.55
166	0x3f0f5c29	0.56
167	0x3f11eb85	0.57
168	0x3f147ae1	0.58
169	0x3f170a3d	0.59
170	0x3f199999	0.59999996
171	0x3f1c28f6	0.61
172	0x3f1eb852	0.62
173	0x3f2147ae	0.63
174	0x3f23d70a	0.64
175	0x3f266666	0.65
176	0x3f28f5c2	0.65999997
177	0x3f2b851e	0.66999996
178	0x3f2e147b	0.68
179	0x3f30a3d7	0.69
180	0x3f333333	0.7
181	0x3f35c28f	0.71
182	0x3f3851eb	0.71999997
183	0x3f3ae147	0.72999996
184	0x3f3d70a4	0.74
185	0x3f400000	0.75
186	0x3f428f5c	0.76
187	0x3f451eb8	0.77
188	0x3f47ae14	0.78
189	0x3f4a3d70	0.78999996
190	0x3f4ccccc	0.79999995
191	0x3f4f5c29	0.81
192	0x3f51eb85	0.82
193	0x3f547ae1	0.83
194	0x3f570a3d	0.84
195	0x3f599999	0.84999996
196	0x3f5c28f5	0.85999995
197	0x3f5eb852	0.87
198	0x3f6147ae	0.88
199	0x3f63d70a	0.89
200	0x3f666666	0.9
201	0x3f68f5c2	0.90999997
202	0x3f6b851e	0.91999996
203	0x3f6e147b	0.93
204	0x3f70a3d7	0.94
205	0x3f733333	0.95
206	0x3f75c28f	0.96
207	0x3f7851eb	0.96999997
208	0x3f7ae147	0.97999996
209	0x3f7d70a3	0.98999995
210	0x3f800000	1.0
211	0x3f8147ae	1.01
212	0x3f828f5c	1.02
213	0x3f83d70a	1.03

layers.1.base_weight f4 [15, 15]
0	0xbdd42981	-0.10359479
1	0x3d21f8c3	0.03954388
2	0xbc3c96ae	-0.011510534
3	0xbde7a398	-0.113105
4	0x3e0134d0	0.12617803
5	0xbda2d6d6	-0.07951133
6	0xbe32a0b1	-0.17444111
7	0x3c4a747e	0.012356875
8	0x3db9713e	0.09054802
9	0xbd854c9d	-0.065087534
10	0x3ca8e2b2	0.02061591
11	0xbd2fe0fb	-0.042939167
12	0x3e9b47cc	0.30328214
13	0xbe81523e	-0.25258058
14	0xbe5d4d9c	-0.21611637
15	0xbe18a33a	-0.14906016
16	0x3e688c9c	0.22709888
17	0x3d4fa56e	0.050694875
18	0x3e6c92dc	0.23102897
19	0x3d17640e	0.036960654
20	0x3e88c43e	0.2671222
21	0x3dbe67d4	0.092971474
22	0xbce357ef	-0.027751891
23	0x3d5de2f3	0.054171514
24	0x3e6024eb	0.21889083
25	0x3dfd8c34	0.12380257
26	0xbdfc8a08	-0.12331015
27	0xbe4944b6	-0.19655117
28	0x3e8f9ba1	0.28048423
29	0xbd87b066	-0.06625442
30	0xbd711393	-0.058856558
31	0xbcecee8e	-0.028922345
32	0xbea6b335	-0.325586
33	0xbe0f012d	-0.13965292
34	0x3e399d02	0.181263
35	0x3d948f03	0.0725384
36	0xbda184e1	-0.07886673
37	0xbc3916dd	-0.011296955
38	0xbe2ad679	-0.16683377
39	0xbe5e44d0	-0.21705937
40	0xbd86d402	-0.06583406
41	0x3dd38f04	0.103300124
42	0x3e47dafe	0.19517133
43	0x3e701605	0.234459
44	0xbe320c96	-0.17387614
45	0x3e49325c	0.19648117
46	0xbe62c097	-0.2214378
47	0x3ea90f82	0.33019644
48	0x3bc6ff74	0.006072933
49	0x3e632182	0.22180751
50	0x3e476ada	0.19474354
51	0x3d86f161	0.06589008
52	0xbe59ecbb	-0.21281712
53	0xbe005783	-0.12533383
54	0xbdea0115	-0.11425988
55	0x3ddfed4f	0.10933935
56	0xbd3295fc	-0.043600067
57	0xbe445d1b	-0.19176142
58	0xbe8b8d4f	-0.27256247
59	0x3da1a81c	0.078933924
60	0x3e598f67	0.2124611
61	0x3e18b1f4	0.14911634
62	0xba8f6d3b	-0.0010942587
63	0xbd15ad51	-0.03654224
64	0x3e32b38a	0.17451301
65	0x3e00b68f	0.1256964
66	0xbe2fa040	-0.17150974
67	0xbc97bef8	-0.018523678
68	0x3e081141	0.13287832
69	0xbe3551a0	-0.17706919
70	0x3dbeafab	0.0931085
71	0xbdb072d9	-0.086156555
72	0xbe8ab68c	-0.27092397
73	0xbe924fc9	-0.28576496
74	0xbe02a3d0	-0.12757802
75	0x3e32f47a	0.17476073
76	0x3deed56d	0.116618015
77	0x3de78eba	0.1130652
78	0x3e1bc4d9	0.1521181
79	0x3e8e428d	0.2778515
80	0xbe4180ed	-0.18896838
81	0xbd82461a	-0.06361027
82	0x3dbf170e	0.09330569
83	0x3a6bb9fe	0.00089922536
84	0x3d11f5a7	0.035634663
85	0x3e621707	0.22079097
86	0xbdf98b8e	-0.12184821
87	0x3de70576	0.112803385
88	0xbbd64d72	-0.006539994
89	0x3ddf5f44	0.10906842
90	0x3d3d990b	0.04628853
91	0x3e0e662a	0.1390616
92	0x3dab832f	0.08374631
93	0x3da6bfda	0.081420615
94	0xbe93f3e0	-0.28897
95	0xbe222c15	-0.15837128
96	0xbe559efb	-0.20861427
97	0x3dc5d65a	0.09660025
98	0xbe717e5a	-0.23583356
99	0xbd9f8156	-0.07788341
100	0xbd78a09b	-0.06070004
101	0xbd8802d1	-0.06641162
102	0x3e073375	0.13203223
103	0x3e82d3a1	0.25552085
104	0xbe56ff2b	-0.20995776
105	0x3e4c98fc	0.19980234
106	0xbe53a7ac	-0.2066943
107	0x3d528096	0.05139216
108	0x3dfbf61f	0.12302803
109	0xbc387f52	-0.011260824
110	0x3e31c11c	0.17358822
111	0xbdf2932c	-0.11844477
112	0x3b38cb0f	0.0028197204
113	0xbe27f92f	-0.1640365
114	0xbe577eda	-0.21044484
115	0xbcdfc752	-0.027316723
116	0x3e581fda	0.211059
117	0x3da893ae	0.08231293
118	0x3e233425	0.1593786
119	0xbdd7e639	-0.10541958
120	0xbe283a58	-0.16428506
121	0xbdae8c01	-0.085227974
122	0xbe909db1	-0.2824531
123	0xbc576319	-0.013146185
124	0xbc46367c	-0.012097951
125	0x3e18f430	0.149369
126	0xbdcefa13	-0.101062916
127	0xbe0fab96	-0.14030299
128	0xbd26a5c3	-0.040685426
129	0xbe625197	-0.22101437
130	0xbdd21047	-0.10257011
131	0x3e6ae73f	0.22939776
132	0x3e4274da	0.18989888
133	0xbdfc1e6b	-0.12310489
134	0xbe6d905e	-0.23199603
135	0xbc723b53	-0.014784652
136	0xbe6e2343	-0.23255639
137	0x3e21be53	0.15795259
138	0x3b81b5b0	0.0039584264
139	0xbdb321ab	-0.08746656
140	0x3e0cb899	0.13742293
141	0xbd9f0e46	-0.07766394
142	0xbe9ab3ed	-0.30215397
143	0x3e87c6f1	0.26518968
144	0x3b5d8af4	0.0033804746
145	0x3de5c596	0.11219327
146	0xbd181a46	-0.03713443
147	0xbe745d97	-0.23863827
148	0xbe212b17	-0.15739094
149	0xbd2c1e69	-0.04202119
150	0xbe459c60	-0.19297934
151	0x3538365d	6.862445e-07
152	0xbca37b6e	-0.019956317
153	0x3dcf540a	0.10123451
154	0x3e486d61	0.19572975
155	0x3e28a8f7	0.16470705
156	0xbe129a73	-0.1431673
157	0xbdfdce40	-0.12392855
158	0x3e605ab9	0.21909608
159	0x3c3b8494	0.011445183
160	0xbdc5d1b0	-0.09659135
161	0xbdbd3349	-0.092382975
162	0x3e859984	0.26093686
163	0xbd2a1c94	-0.04153116
164	0x3e100c09	0.14067091
165	0xbd663f14	-0.0562125
166	0x3e26466c	0.16237801
167	0xbdd71eb3	-0.10503902
168	0xbe2608fc	-0.16214365
169	0xbe233b2e	-0.15940544
170	0x3deef889	0.11668498
171	0xbda73de0	-0.081660986
172	0x3d33ae6e	0.04386752
173	0x3e99f517	0.300698
174	0xbd167f04	-0.036742225
175	0x3e0914e0	0.1338687
176	0x3e546c13	0.20744352
177	0x3e17ea00	0.14835358
178	0x3e7c1dac	0.24620694
179	0x3e9b59ce	0.30341953
180	0xbe6a69d3	-0.22891931
181	0x3e882077	0.2658727
182	0x3e47b239	0.1950158
183	0x3e56f85a	0.20993176
184	0xbe31846d	-0.17335673
185	0x3dc0534d	0.09390888
186	0x3e0090ce	0.12555239
187	0x3c73d38e	0.014881982
188	0xbe0844fb	-0.13307564
189	0xbd88db57	-0.06682461
190	0x3d9a6995	0.075396694
191	0xbd1475b6	-0.03624507
192	0xbdee1e2e	-0.1162685
193	0xbc9cdaa1	-0.01914722
194	0x3d1eb517	0.03874692
195	0xbdc51455	-0.09623019
196	0xbe7a1a05	-0.24423988
197	0xbdcddcc0	-0.1005187
198	0xbe2904cc	-0.16505736
199	0x3e791f91	0.24328448
200	0x3dcf9b9e	0.101371035
201	0x3e857b21	0.26070502
202	0xbe8b5603	-0.2721406
203	0xbd68b727	-0.056815293
204	0xbd46e2ca	-0.048556127
205	0x3dcf9bd4	0.10137144
206	0x3dc7a85d	0.097489096
207	0x3c34650a	0.011010418
208	0xbe5a0d57	-0.21294151
209	0x3dafa15e	0.085757
210	0xbd984aa2	-0.0743611
211	0xbe51443d	-0.20436187
212	0xbe8bc106	-0.27295703
213	0xbdac41c5	-0.08410982
214	0xbd6f47aa	-0.058417954
215	0x3e0f4da9	0.13994469
216	0x3d9ce8fc	0.07661626
217	0x3e4052d4	0.18781596
218	0x3c26396b	0.010145525
219	0xbded9d5b	-0.11602279
220	0xbd81498f	-0.06312858
221	0xbb4144d3	-0.0029490485
222	0xbe12b13c	-0.14325422
223	0x3ccec1d7	0.025238914
224	0x3db5b1db	0.08871814

layers.1.spline_weight f4 [15, 15, 103]
0	0xbe192aa8	-0.14957678
1	0xbe1ba686	-0.15200242
2	0xbd1dd9bc	-0.038537726
3	0x3e2e63a8	0.17030203
4	0x3e25b853	0.16183595
5	0x3dfb350d	0.12265978
6	0x3e0c4373	0.13697605
7	0x3e22454f	0.15846752
8	0x3e1d393a	0.15353861
9	0x3e1a149b	0.15046923
10	0x3de414d6	0.11136787
11	0x3dcd8f72	0.10037126
12	0x3e0591ed	0.13043948
13	0x3e0b7d88	0.13622105
14	0xbd4fcd3a	-0.05073283
15	0xbea1dc75	-0.31613508
16	0xbebdede1	-0.3709555
17	0xba969d02	-0.0011490884
18	0x3a84ce05	0.0010132199
19	0xba70d9a4	-0.00091877044
20	0x3a0c9878	0.0005363296
21	0xb99aae96	-0.00029503246
22	0xba0173f4	-0.0004938238
23	0x39c49fba	0.0003750304
24	0x397a5ee9	0.00023877215
25	0x388a2fa5	6.589227e-05
26	0xba01780a	-0.00049388467
27	0x3943fb98	0.00018690375
28	0xba3f6e88	-0.0007302542
29	0x3a65b49b	0.0008762569
30	0xb9a2a104	-0.00031019014
31	0x3a39b78c	0.00070845406
32	0xb93522fa	-0.00017274535
33	0xb9f71407	-0.00047126433
34	0xba1aba53	-0.0005902398
35	0x39cf22e1	0.00039508104
36	0xb991fb7d	-0.0002784393
37	0xba2006de	-0.0006104539
38	0x3a34d460	0.00068981014
39	0xb9ae37d1	-0.00033229453
40	0xba41ed70	-0.00073977467
41	0x39e8d03f	0.00044405644
42	0x39549627	0.00020273832
43	0x3866b991	5.5009095e-05
44	0xb9f9eab7	-0.00047667857
45	0xb9615045	-0.00021487575
46	0x38b767dd	8.745466e-05
47	0x3a16a558	0.0005746684
48	0xba1d199a	-0.00059928896
49	0xb969bcf6	-0.00022291005
50	0xba46ad2e	-0.00075789064
51	0x3a7cc1a1	0.000964189
52	0xb8ec5de2	-0.00011270844
53	0x392af164	0.00016302388
54	0xb7859391	-1.5923551e-05
55	0xb9992973	-0.00029213316
56	0x3a0ec3e1	0.00054460583
57	0xb8ec4651	-0.000112664544
58	0x39943f18	0.00028275768
59	0x38d1dd1e	0.00010007083
60	0xb944445d	-0.00018717484
61	0x39bd5eb3	0.00036119446
62	0xba0328ac	-0.0005003314
63	0xb899a062	-7.325482e-05
64	0x3a6e3614	0.0009087038
65	0xba850b48	-0.0010150457
66	0x3a3f0388	0.0007286598
67	0xb82b9298	-4.0906103e-05
68	0xba102ede	-0.0005500148
69	0x398870a5	0.00026023868
70	0x3a0778b2	0.00051678263
71	0xb9e79f2e	-0.00044178352
72	0x386d1f89	5.6534573e-05
73	0x3962c8e7	0.00021627882
74	0xba13e02a	-0.0005641008
75	0xb9f577d7	-0.0004681933
76	0xb990d5a2	-0.0002762499
77	0xba172b8b	-0.0005766681
78	0x381cc8dd	3.7380367e-05
79	0xb91e1631	-0.00015076321
80	0x39a11104	0.0003072099
81	0xb9401373	-0.00018317792
82	0xb96d3324	-0.00022621133
83	0x393fee26	0.00018303897
84	0x396947f3	0.00022247415
85	0x3986d82e	0.00025719538
86	0xb9e66071	-0.00043940873
87	0x39b4ff49	0.00034522478
88	0xba2fc2b3	-0.00067047327
89	0xb9b94088	-0.0003533403
90	0xba397bb0	-0.0007075621
91	0x3a64a599	0.0008722186
92	0xb903c2cd	-0.00012565702
93	0x39c56744	0.00037651707
94	0xb9359db0	-0.00017320248
95	0xb9cac3cc	-0.00038674322
96	0xb9f6de75	-0.0004708652
97	0x399ebbbb	0.00030275978
98	0x37b97587	2.2108447e-05
99	0x3800335a	3.0565403e-05
100	0x39a1b217	0.00030841
101	0xb8b1f0c3	-8.484863e-05
102	0xb837e2f1	-4.3841956e-05
103	0xbe1b4f73	-0.15167026
104	0xbe16b7e0	-0.1471858
105	0xbdfe48d2	-0.12416233
106	0xbd5f9014	-0.054580763
107	0x3cb2e308	0.021836773
108	0x3decfc80	0.11571598
109	0x3e285b5e	0.16441104
110	0xbd7d2949	-0.06180695
111	0xbe1918a9	-0.14950813
112	0x3950b525	0.00019903907
113	0x00000000	0.0
114	0x00000000	0.0
115	0x00000000	0.0
116	0x00000000	0.0
117	0x00000000	0.0
118	0x00000000	0.0
119	0x00000000	0.0
120	0x00000000	0.0
121	0x00000000	0.0
122	0x00000000	0.0
123	0x00000000	0.0
124	0x00000000	0.0
125	0x00000000	0.0
126	0x00000000	0.0
127	0x00000000	0.0
128	0x00000000	0.0
129	0x00000000	0.0
130	0x00000000	0.0
131	0x00000000	0.0
132	0x00000000	0.0
133	0x00000000	0.0
134	0x00000000	0.0
135	0x00000000	0.0
136	0x00000000	0.0
137	0x00000000	0.0
138	0x00000000	0.0
139	0x00000000	0.0
140	0x00000000	0.0
141	0x00000000	0.0
142	0x00000000	0.0
143	0x00000000	0.0
144	0x00000000	0.0
145	0x00000000	0.0
146	0x00000000	0.0
147	0x00000000	0.0
148	0x00000000	0.0
149	0x00000000	0.0
150	0x00000000	0.0
151	0x00000000	0.0
152	0x00000000	0.0
153	0x00000000	0.0
154	0x00000000	0.0
155	0x00000000	0.0
156	0x00000000	0.0
157	0x00000000	0.0
158	0x00000000	0.0
159	0x00000000	0.0
160	0x00000000	0.0
161	0x00000000	0.0
162	0x00000000	0.0
163	0x00000000	0.0
164	0x00000000	0.0
165	0x00000000	0.0
166	0x00000000	0.0
167	0x00000000	0.0
168	0x00000000	0.0
169	0x00000000	0.0
170	0x00000000	0.0
171	0x00000000	0.0
172	0x00000000	0.0
173	0x00000000	0.0
174	0x00000000	0.0
175	0x00000000	0.0
176	0x00000000	0.0
177	0x00000000	0.0
178	0x00000000	0.0
179	0x00000000	0.0
180	0x00000000	0.0
181	0x00000000	0.0
182	0x00000000	0.0
183	0x00000000	0.0
184	0x00000000	0.0
185	0x00000000	0.0
186	0x00000000	0.0
187	0x00000000	0.0
188	0x00000000	0.0
189	0x00000000	0.0
190	0x00000000	0.0
191	0x00000000	0.0
192	0x00000000	0.0
193	0x00000000	0.0
194	0x00000000	0.0
195	0x00000000	0.0
196	0x00000000	0.0
197	0x00000000	0.0
198	0x00000000	0.0
199	0x00000000	0.0
200	0x00000000	0.0
201	0x00000000	0.0
202	0x00000000	0.0
203	0x00000000	0.0
204	0x00000000	0.0
205	0x00000000	0.0
206	0xbcd71f1d	-0.026259953
207	0x3d1f0297	0.03882083
208	0xbd7bea1b	-0.061502557
209	0x3de2d16a	0.11075099
210	0x3cd2e502	0.025743965
211	0x3dd2cc54	0.10292879
212	0x3dea38a7	0.11436587
213	0x3dc5fee1	0.09667755
214	0x3e1c0710	0.15237069
215	0x3e0246c4	0.12722307
216	0x3d6ead23	0.058270585
217	0x3dbff223	0.09372356
218	0x3dfd2823	0.12361171
219	0x3e110083	0.14160351
220	0x3ddb23bc	0.10700175
221	0x3d898259	0.06714315
222	0x3c6ed5a2	0.014577301
223	0xbcca0053	-0.024658358
224	0x3bd9b937	0.006644394
225	0x3d883446	0.06650595
226	0x3e081a16	0.13291201
227	0x3e135cd2	0.14390877
228	0x3d394a1d	0.045236696
229	0x3c443713	0.011976021
230	0x3d702dd4	0.058637455
231	0x3e0e305d	0.13885637
232	0x3e1e1547	0.15437804
233	0x3db56469	0.08857042
234	0xbc8e20b2	-0.017349575
235	0x3d41f322	0.04735101
236	0x3da0a294	0.07843509
237	0x3d8d0524	0.06885746
238	0x3d893afc	0.067007035
239	0x3d8a419b	0.067507945
240	0x3de7bea0	0.11315656
241	0x3e14a521	0.14516117
242	0xbe80cc94	-0.2515608
243	0xbe8228f0	-0.25421858
244	0xbe8ed8e5	-0.27899852
245	0xbcc17fe3	-0.023620551
246	0x00000000	0.0
247	0x00000000	0.0
248	0x00000000	0.0
249	0x00000000	0.0
250	0x00000000	0.0
251	0x00000000	0.0
252	0x00000000	0.0
253	0x00000000	0.0
254	0x00000000	0.0
255	0x00000000	0.0

layers.1.spline_scaler f4 [15, 15]
0	0xbe86cdc9	-0.26328877
1	0x3ea48310	0.32131243
2	0xbe8ee102	-0.27906042
3	0x3e4500cf	0.1923859
4	0xbe714b97	-0.23563991
5	0xbe5e45c6	-0.21706304
6	0xbeb41bdf	-0.35177514
7	0x3ea3d747	0.3200018
8	0x3e936002	0.28784186
9	0x3e23f7af	0.16012453
10	0x3e10c545	0.14137752
11	0x3ea1c085	0.31592193
12	0xbdf34832	-0.118790045
13	0x3e808bf2	0.2510677
14	0x3e8081f4	0.25099146
15	0xbe8933e4	-0.26797402
16	0x3e03cdc1	0.12871458
17	0xbe9e98d6	-0.3097598
18	0x3ea60079	0.32422236
19	0xbe52f9b7	-0.20603071
20	0x3e3610fb	0.17779915
21	0xbe47cbc0	-0.19511318
22	0xbe5efe74	-0.21776754
23	0xbe82eaa9	-0.25569656
24	0xbe7a07f1	-0.24417092
25	0xbeaeff68	-0.34179235
26	0xbed2c6f2	-0.41167408
27	0x3e8966db	0.26836285
28	0x3ea32830	0.31866598
29	0x3e6b078b	0.22952096
30	0xbe33a805	-0.17544563
31	0xbea946a7	-0.33061716
32	0xbe43a30f	-0.1910517
33	0xbeae2681	-0.3401375
34	0xbe415b4f	-0.18882488
35	0xbe7ba5f4	-0.24575025
36	0xbea7fdbb	-0.32810768
37	0x3e187de2	0.1489177
38	0xbdb94207	-0.09045797
39	0xbe9f9045	-0.31164756
40	0xbe1cf449	-0.15327562
41	0xbe9e6185	-0.30933776
42	0x3e80e2d7	0.25173065
43	0xbe77218e	-0.24133894
44	0xbe99a693	-0.300099
45	0x3e63311a	0.221867
46	0x3ebda358	0.37038684
47	0xbe69099b	-0.2275757
48	0x3eab7ccf	0.3349366
49	0x3eab4900	0.33454132
50	0xbe8a5d4f	-0.27024314
51	0x3e9e1cab	0.30881247
52	0xbe5a3f1d	-0.21313138
53	0x3e3e9241	0.18610479
54	0xbe190617	-0.1494373
55	0x3e7cbf79	0.24682416
56	0xbec3f195	-0.3827025
57	0xbebaeaa0	-0.3650713
58	0xbe709578	-0.23494518
59	0xbe1576b5	-0.14596064
60	0x3eae0c4c	0.33993757
61	0x3e379c09	0.17930616
62	0x3e9b28cd	0.30304566
63	0xbe999fc7	-0.30004713
64	0xbe6138f6	-0.21994385
65	0xbe22a3de	-0.15882823
66	0xbe954178	-0.2915151
67	0x3ed68f7a	0.4190634
68	0x3e77b0a7	0.24188481
69	0xbe2d39ae	-0.16916534
70	0x3e12fbb7	0.14353834
71	0x3edb7694	0.42863905
72	0x3efd3fa1	0.49462608
73	0x3e513aea	0.2043263
74	0xbdf05d6a	-0.11736567
75	0xbeaa7245	-0.33290306
76	0x3ec045ce	0.37553257
77	0xbe4d4eec	-0.20049638
78	0x3e13c800	0.14431763
79	0x3e83ba49	0.25728062
80	0xbe9e587d	-0.30926886
81	0x3e2a7503	0.16646199
82	0xbe926656	-0.285937
83	0x3ea0b814	0.3139044
84	0x3e8cdb8d	0.27511254
85	0xbe9a6c73	-0.30160865
86	0x3f0084fc	0.5020292
87	0xbea31c32	-0.3185745
88	0xbe68cd09	-0.22734465
89	0xbeb115a2	-0.34586817
90	0xbe4cc78d	-0.19997998
91	0x3e76bfe8	0.24096644
92	0xbe86f7e2	-0.26360995
93	0x3e561d8d	0.2090971
94	0xbecb2940	-0.3967991
95	0xbe66eecf	-0.22552036
96	0xbe47c009	-0.1950685
97	0x3ed33fdf	0.41259667
98	0xbe23fa34	-0.16013414
99	0xbe8e521b	-0.27797017
100	0x3e6ee619	0.23329963
101	0xbeb92dc1	-0.3616772
102	0xbeb418d6	-0.35175198
103	0xbe7895d6	-0.24275908
104	0x3eaa6133	0.33277282
105	0xbeb07b3d	-0.34469023
106	0x3e8c9a11	0.27461293
107	0x3e2d9d15	0.16954453
108	0x3e380c8c	0.17973536
109	0xbe69b947	-0.22824584
110	0xbe82692a	-0.2547086
111	0x3e6cf110	0.23138833
112	0xbe610316	-0.21973833
113	0x3e3cca8a	0.18436638
114	0xbe137563	-0.14400248
115	0xbe955acb	-0.29170832
116	0xbea051dc	-0.31312454
117	0xbea47ebf	-0.3212795
118	0xbe575211	-0.210274
119	0x3e699374	0.22810155
120	0x3ea3f554	0.32023108
121	0xbe3e55aa	-0.18587366
122	0xbe9c54a6	-0.30533332
123	0xbeadd84c	-0.33954084
124	0x3eb1845f	0.34671304
125	0x3e7ac493	0.2448905
126	0x3db34282	0.0875292
127	0xbe209294	-0.15680915
128	0xbe7f1c12	-0.24913052
129	0xbe8a98fd	-0.27069846
130	0xbe0228e0	-0.12710905
131	0x3eaee59c	0.34159553
132	0xbeacc88f	-0.33746764
133	0x3e3feb31	0.18742062
134	0x3dd86b13	0.10567298
135	0x3e8ed989	0.2790034
136	0xbed1d7eb	-0.40985045
137	0xbebc32ae	-0.36757416
138	0xbe30a0d2	-0.17248848
139	0x3e4fce8b	0.20293634
140	0xbea3568c	-0.31901968
141	0x3e8db646	0.27678126
142	0x3e61f419	0.22065772
143	0xbeb2cf38	-0.3492372
144	0x3e809bc7	0.2511885
145	0x3ea2c21c	0.3178872
146	0xbead2985	-0.3382074
147	0x3e947f2a	0.29003268
148	0xbe245bc3	-0.1605063
149	0x3e947df9	0.2900236
150	0x3e7036d5	0.23458417
151	0x3e95b4b7	0.29239437
152	0x3e8c8b18	0.2744987
153	0xbed5b7a6	-0.41741675
154	0xbe99aba4	-0.30013764
155	0xbe95383d	-0.2914447
156	0xbed5c1b2	-0.4174934
157	0xbe6a7f45	-0.22900112
158	0x3e2c46cc	0.16823882
159	0xbeb89666	-0.36052245
160	0xbe99e6cc	-0.30058897
161	0x3eaf0b30	0.34188223
162	0xbe047b5e	-0.12937686
163	0xbeca470b	-0.39507326
164	0xbe7e7dc1	-0.24852659
165	0x3eaa3f4f	0.33251426
166	0xbe18a3b9	-0.14906205
167	0x3e860430	0.2617507
168	0xbe805fb4	-0.25073016
169	0xbeb1da22	-0.34736735
170	0x3e6631c1	0.22479917
171	0xbe89cb7b	-0.26913056
172	0xbe7a44dc	-0.2444033
173	0xbea149c4	-0.3150159
174	0x3e1d965c	0.15389389
175	0x3e5a2a6e	0.21305248
176	0x3ea40d8e	0.3204159
177	0xbf0e628f	-0.5561914
178	0x3e8df31a	0.27724534
179	0x3e9a77ac	0.30169427
180	0x3e2db1e8	0.16962397
181	0x3e8c28c7	0.2737486
182	0x3e650301	0.22364427
183	0xbdd7f75b	-0.10545226
184	0x3e2fcf3c	0.17168897
185	0xbea14078	-0.31494498
186	0xbe0bf9a8	-0.13669455
187	0xbe87561b	-0.2643288
188	0xbe838521	-0.25687507
189	0x3e938415	0.28811708
190	0x3e6dfb65	0.2324043
191	0xbeb196d3	-0.34685382
192	0x3ebc14a0	0.36734486
193	0x3e7f778a	0.24947944
194	0xbea035cf	-0.31291053
195	0x3e804e59	0.25059775
196	0x3ed746e1	0.42046264
197	0x3e22aedb	0.15887015
198	0xbe9cafe8	-0.30602956
199	0x3e6869f7	0.22696672
200	0x3ea741c5	0.32667366
201	0xbeaa64fb	-0.33280167
202	0x3e8e8ee7	0.278434
203	0x3e3574a0	0.1772027
204	0x3e6dcc12	0.23222378
205	0xbe9e52ba	-0.3092249
206	0xbf0dc8a6	-0.5538429
207	0x3e956d0e	0.29184765
208	0x3e2e28e2	0.17007783
209	0xbeac31ee	-0.33631843
210	0xbe3ce876	-0.18448052
211	0xbe7c2c8a	-0.24626365
212	0xbe28763a	-0.1645135
213	0xbeb2e93f	-0.34943578
214	0x3e8bf069	0.27331856
215	0xbdbdf632	-0.09275474
216	0x3ea360d1	0.31909803
217	0x3e048931	0.1294296
218	0x3de52e76	0.11190502
219	0xbe0d5307	-0.13801204
220	0xbe549264	-0.20758969
221	0x3e9b17e6	0.3029167
222	0xbe831319	-0.25600508
223	0x3e12adf8	0.14324176
224	0x3ea455b3	0.32096633

layers.1.grid f4 [15, 107]
0	0xbcf5c28f	-0.03
1	0xbca3d70a	-0.02
2	0xbc23d70a	-0.01
3	0x00000000	0.0
4	0x3c23d70a	0.01
5	0x3ca3d70a	0.02
6	0x3cf5c28f	0.03
7	0x3d23d70a	0.04
8	0x3d4ccccc	0.049999997
9	0x3d75c28f	0.06
10	0x3d8f5c29	0.07
11	0x3da3d70a	0.08
12	0x3db851eb	0.089999996
13	0x3dcccccc	0.099999994
14	0x3de147ae	0.11
15	0x3df5c28f	0.12
16	0x3e051eb8	0.13
17	0x3e0f5c29	0.14
18	0x3e199999	0.14999999
19	0x3e23d70a	0.16
20	0x3e2e147b	0.17
21	0x3e3851eb	0.17999999
22	0x3e428f5c	0.19
23	0x3e4ccccc	0.19999999
24	0x3e570a3d	0.21
25	0x3e6147ae	0.22
26	0x3e6b851e	0.22999999
27	0x3e75c28f	0.24
28	0x3e800000	0.25
29	0x3e851eb8	0.26
30	0x3e8a3d70	0.26999998
31	0x3e8f5c29	0.28
32	0x3e947ae1	0.29
33	0x3e999999	0.29999998
34	0x3e9eb852	0.31
35	0x3ea3d70a	0.32
36	0x3ea8f5c2	0.32999998
37	0x3eae147b	0.34
38	0x3eb33333	0.35
39	0x3eb851eb	0.35999998
40	0x3ebd70a4	0.37
41	0x3ec28f5c	0.38
42	0x3ec7ae14	0.39
43	0x3ecccccc	0.39999998
44	0x3ed1eb85	0.41
45	0x3ed70a3d	0.42
46	0x3edc28f5	0.42999998
47	0x3ee147ae	0.44
48	0x3ee66666	0.45
49	0x3eeb851e	0.45999998
50	0x3ef0a3d7	0.47
51	0x3ef5c28f	0.48
52	0x3efae147	0.48999998
53	0x3f000000	0.5
54	0x3f028f5c	0.51
55	0x3f051eb8	0.52
56	0x3f07ae14	0.53
57	0x3f0a3d70	0.53999996
58	0x3f0ccccd	0.55
59	0x3f0f5c29	0.56
60	0x3f11eb85	0.57
61	0x3f147ae1	0.58
62	0x3f170a3d	0.59
63	0x3f199999	0.59999996
64	0x3f1c28f6	0.61
65	0x3f1eb852	0.62
66	0x3f2147ae	0.63
67	0x3f23d70a	0.64
68	0x3f266666	0.65
69	0x3f28f5c2	0.65999997
70	0x3f2b851e	0.66999996
71	0x3f2e147b	0.68
72	0x3f30a3d7	0.69
73	0x3f333333	0.7
74	0x3f35c28f	0.71
75	0x3f3851eb	0.71999997
76	0x3f3ae147	0.72999996
77	0x3f3d70a4	0.74
78	0x3f400000	0.75
79	0x3f428f5c	0.76
80	0x3f451eb8	0.77
81	0x3f47ae14	0.78
82	0x3f4a3d70	0.78999996
83	0x3f4ccccc	0.79999995
84	0x3f4f5c29	0.81
85	0x3f51eb85	0.82
86	0x3f547ae1	0.83
87	0x3f570a3d	0.84
88	0x3f599999	0.84999996
89	0x3f5c28f5	0.85999995
90	0x3f5eb852	0.87
91	0x3f6147ae	0.88
92	0x3f63d70a	0.89
93	0x3f666666	0.9
94	0x3f68f5c2	0.90999997
95	0x3f6b851e	0.91999996
96	0x3f6e147b	0.93
97	0x3f70a3d7	0.94
98	0x3f733333	0.95
99	0x3f75c28f	0.96
100	0x3f7851eb	0.96999997
101	0x3f7ae147	0.97999996
102	0x3f7d70a3	0.98999995
103	0x3f800000	1.0
104	0x3f8147ae	1.01
105	0x3f828f5c	1.02
106	0x3f83d70a	1.03
107	0xbcf5c28f	-0.03
108	0xbca3d70a	-0.02
109	0xbc23d70a	-0.01
110	0x00000000	0.0
111	0x3c23d70a	0.01
112	0x3ca3d70a	0.02
113	0x3cf5c28f	0.03
114	0x3d23d70a	0.04
115	0x3d4ccccc	0.049999997
116	0x3d75c28f	0.06
117	0x3d8f5c29	0.07
118	0x3da3d70a	0.08
119	0x3db851eb	0.089999996
120	0x3dcccccc	0.099999994
121	0x3de147ae	0.11
122	0x3df5c28f	0.12
123	0x3e051eb8	0.13
124	0x3e0f5c29	0.14
125	0x3e199999	0.14999999
126	0x3e23d70a	0.16
127	0x3e2e147b	0.17
128	0x3e3851eb	0.17999999
129	0x3e428f5c	0.19
130	0x3e4ccccc	0.19999999
131	0x3e570a3d	0.21
132	0x3e6147ae	0.22
133	0x3e6b851e	0.22999999
134	0x3e75c28f	0.24
135	0x3e800000	0.25
136	0x3e851eb8	0.26
137	0x3e8a3d70	0.26999998
138	0x3e8f5c29	0.28
139	0x3e947ae1	0.29
140	0x3e999999	0.29999998
141	0x3e9eb852	0.31
142	0x3ea3d70a	0.32
143	0x3ea8f5c2	0.32999998
144	0x3eae147b	0.34
145	0x3eb33333	0.35
146	0x3eb851eb	0.35999998
147	0x3ebd70a4	0.37
148	0x3ec28f5c	0.38
149	0x3ec7ae14	0.39
150	0x3ecccccc	0.39999998
151	0x3ed1eb85	0.41
152	0x3ed70a3d	0.42
153	0x3edc28f5	0.42999998
154	0x3ee147ae	0.44
155	0x3ee66666	0.45
156	0x3eeb851e	0.45999998
157	0x3ef0a3d7	0.47
158	0x3ef5c28f	0.48
159	0x3efae147	0.48999998
160	0x3f000000	0.5
161	0x3f028f5c	0.51
162	0x3f051eb8	0.52
163	0x3f07ae14	0.53
164	0x3f0a3d70	0.53999996
165	0x3f0ccccd	0.55
166	0x3f0f5c29	0.56
167	0x3f11eb85	0.57
168	0x3f147ae1	0.58
169	0x3f170a3d	0.59
170	0x3f199999	0.59999996
171	0x3f1c28f6	0.61
172	0x3f1eb852	0.62
173	0x3f2147ae	0.63
174	0x3f23d70a	0.64
175	0x3f266666	0.65
176	0x3f28f5c2	0.65999997
177	0x3f2b851e	0.66999996
178	0x3f2e147b	0.68
179	0x3f30a3d7	0.69
180	0x3f333333	0.7
181	0x3f35c28f	0.71
182	0x3f3851eb	0.71999997
183	0x3f3ae147	0.72999996
184	0x3f3d70a4	0.74
185	0x3f400000	0.75
186	0x3f428f5c	0.76
187	0x3f451eb8	0.77
188	0x3f47ae14	0.78
189	0x3f4a3d70	0.78999996
190	0x3f4ccccc	0.79999995
191	0x3f4f5c29	0.81
192	0x3f51eb85	0.82
193	0x3f547ae1	0.83
194	0x3f570a3d	0.84
195	0x3f599999	0.84999996
196	0x3f5c28f5	0.85999995
197	0x3f5eb852	0.87
198	0x3f6147ae	0.88
199	0x3f63d70a	0.89
200	0x3f666666	0.9
201	0x3f68f5c2	0.90999997
202	0x3f6b851e	0.91999996
203	0x3f6e147b	0.93
204	0x3f70a3d7	0.94
205	0x3f733333	0.95
206	0x3f75c28f	0.96
207	0x3f7851eb	0.96999997
208	0x3f7ae147	0.97999996
209	0x3f7d70a3	0.98999995
210	0x3f800000	1.0
211	0x3f8147ae	1.01
212	0x3f828f5c	1.02
213	0x3f83d70a	1.03
214	0xbcf5c28f	-0.03
215	0xbca3d70a	-0.02
216	0xbc23d70a	-0.01
217	0x00000000	0.0
218	0x3c23d70a	0.01
219	0x3ca3d70a	0.02
220	0x3cf5c28f	0.03
221	0x3d23d70a	0.04
222	0x3d4ccccc	0.049999997
223	0x3d75c28f	0.06
224	0x3d8f5c29	0.07
225	0x3da3d70a	0.08
226	0x3db851eb	0.089999996
227	0x3dcccccc	0.099999994
228	0x3de147ae	0.11
229	0x3df5c28f	0.12
230	0x3e051eb8	0.13
231	0x3e0f5c29	0.14
232	0x3e199999	0.14999999
233	0x3e23d70a	0.16
234	0x3e2e147b	0.17
235	0x3e3851eb	0.17999999
236	0x3e428f5c	0.19
237	0x3e4ccccc	0.19999999
238	0x3e570a3d	0.21
239	0x3e6147ae	0.22
240	0x3e6b851e	0.22999999
241	0x3e75c28f	0.24
242	0x3e800000	0.25
243	0x3e851eb8	0.26
244	0x3e8a3d70	0.26999998
245	0x3e8f5c29	0.28
246	0x3e947ae1	0.29
247	0x3e999999	0.29999998
248	0x3e9eb852	0.31
249	0x3ea3d70a	0.32
250	0x3ea8f5c2	0.32999998
251	0x3eae147b	0.34
252	0x3eb33333	0.35
253	0x3eb851eb	0.35999998
254	0x3ebd70a4	0.37
255	0x3ec28f5c	0.38

layers.2.base_weight f4 [1, 15]
0	0xbdd1f46d	-0.10251699
1	0x3de8b9b5	0.11363546
2	0xbe5ffe3a	-0.21874323
3	0x3eabba56	0.335406
4	0x3e529cc1	0.2056761
5	0x3e8707c9	0.26373127
6	0xbd81bb61	-0.06334568
7	0xbe82bd7a	-0.25535184
8	0xbe92cacd	-0.2867035
9	0x3e2c7ea3	0.16845183
10	0xbdc9ea2c	-0.09859118
11	0x3df5de5c	0.12005302
12	0xbe443a40	-0.19162846
13	0x3e6616fd	0.22469707
14	0xbe8413fc	-0.25796497

layers.2.spline_weight f4 [1, 15, 103]
0	0x3d41a92d	0.04728048
1	0x3d52dd62	0.05148066
2	0x3d05f47c	0.03270386
3	0x3d9065dd	0.07050679
4	0xbe8e75e6	-0.27824324
5	0x3f444558	0.7666831
6	0xbdab03d4	-0.083503395
7	0x3d8ef76e	0.06980787
8	0x3d48cd51	0.04902393
9	0x3d314cfc	0.04328631
10	0x3e1cd001	0.15313722
11	0xbe6df36c	-0.2323739
12	0xbe3f3a67	-0.18674622
13	0x3c2f7899	0.010709905
14	0xbd8f58ea	-0.06999381
15	0xbbd94c7b	-0.0066314316
16	0xb9dda8d5	-0.00042278194
17	0x3a7f9aaf	0.00097505277
18	0xba410932	-0.0007363736
19	0x3a1b455b	0.00059231155
20	0xb96db0b9	-0.00022667916
21	0x3a61dc62	0.00086159084
22	0xba183638	-0.0005806419
23	0x3943aeca	0.00018661763
24	0x3911acc1	0.00013892633
25	0x3a3efe59	0.00072858256
26	0xba40cd0e	-0.0007354774
27	0x396045ed	0.00021388354
28	0x392a6604	0.00016250467
29	0xba5f4954	-0.00085177016
30	0x3a4503dc	0.00075155287
31	0xb89043b9	-6.8790694e-05
32	0xb9bcaf3e	-0.0003598872
33	0x3a088268	0.00052074203
34	0xb934d297	-0.00017244589
35	0xba210bff	-0.000614345
36	0x39795751	0.00023779018
37	0x39d4317a	0.00040472654
38	0xba7a2e2f	-0.0009543625
39	0x3a152118	0.000568883
40	0x3a2256a3	0.00061927194
41	0xba142cf8	-0.0005652453
42	0x38590bd5	5.174785e-05
43	0x3a2ff33f	0.00067119667
44	0x397a4d02	0.00023870546
45	0xb8545f62	-5.063357e-05
46	0xba33fd27	-0.0006866031
47	0x39f7f717	0.00047295608
48	0x3a186c13	0.0005814444
49	0x38c3879e	9.323585e-05
50	0x396c8632	0.00022556706
51	0x3872755a	5.780659e-05
52	0x39946a0c	0.0002830777
53	0x3a4f4a42	0.00079074886
54	0xba2cfa14	-0.0006598544
55	0xba3f5fd8	-0.00073003536
56	0x3a4bdae9	0.00077764556
57	0xb9e21116	-0.0004311881
58	0xb9c844c0	-0.00038198195
59	0x39c3d139	0.0003734918
60	0x398090f7	0.0002452207
61	0x3a63c1f5	0.00086882646
62	0xba54f460	-0.0008123573
63	0x3a5aff5d	0.0008354092
64	0xb8f05b67	-0.00011461117
65	0x39dc34ce	0.00042001012
66	0xb9be6e04	-0.00036321592
67	0x3a20720c	0.000612051
68	0xb9b114e9	-0.0003377565
69	0x390d25d3	0.00013460898
70	0xb99b7831	-0.00029653453
71	0x3a1d5503	0.00060017424
72	0x39589361	0.00020654268
73	0x388c6d20	6.696046e-05
74	0x38976e24	7.2207564e-05
75	0xb9d5e08b	-0.00040793823
76	0xb89ba5b4	-7.4218406e-05
77	0xb8ca7edd	-9.655741e-05
78	0xba19cdcc	-0.0005867153
79	0xba1119b5	-0.00055351417
80	0x38130e49	3.5060835e-05
81	0xb83e263a	-4.533513e-05
82	0x3a2496ef	0.00062785944
83	0xb8e2060f	-0.00010777648
84	0xba1e0cb1	-0.0006029113
85	0x3a234ad8	0.0006229109
86	0x3a43fed0	0.00074766297
87	0xba827b14	-0.0009954893
88	0x3a898346	0.0010491393
89	0xba822307	-0.0009928652
90	0x3a4b709e	0.0007760617
91	0x3a18128b	0.0005801103
92	0xb9e77682	-0.0004414805
93	0x3a2c72a2	0.0006578361
94	0x39ea7274	0.00044717232
95	0xba0b3b2c	-0.00053112465
96	0xb7f2e6c2	-2.8956103e-05
97	0xb920174b	-0.00015267466
98	0x39a5e146	0.00031639094
99	0x39d9d856	0.00041550648
100	0xba56b8de	-0.00081909995
101	0x3a455aed	0.00075285026
102	0x398bcbbb	0.00026663937
103	0xbf2bf038	-0.6716342
104	0x3db9d2cc	0.090734094
105	0xbd0b1e68	-0.033964545
106	0xbc1a9e8e	-0.009437216
107	0xbb1e0074	-0.0024109157
108	0x3c1b4828	0.009477653
109	0xbc2a1144	-0.010380093
110	0xbd1eac1a	-0.038738348
111	0x3d221802	0.039573677
112	0x3d39a72d	0.045325447
113	0x3c50de68	0.012748338
114	0xbc37ba8a	-0.011213908
115	0xbc3f64c6	-0.011681741
116	0x3bb322ee	0.0054668104
117	0xbc93bc93	-0.018034255
118	0xbd23e307	-0.040011432
119	0xbcf61616	-0.030039828
120	0xbc458e23	-0.012057814
121	0xbc8bd1f9	-0.017067896
122	0xbccb6778	-0.024829611
123	0xbd20fbb5	-0.039302547
124	0xbd34ce55	-0.044142086
125	0xbd4ff2e2	-0.05076874
126	0xbd6664e2	-0.056248553
127	0xbd682d6a	-0.056683935
128	0xbc2cb2a2	-0.010540636
129	0xbc7833a1	-0.015149028
130	0xbe16bbe4	-0.14720112
131	0xbe4d4413	-0.200455
132	0xbe2c66a8	-0.16836035
133	0xbe1d4eba	-0.15362063
134	0x3e39d7f7	0.1814879
135	0x3e36d886	0.17856035
136	0x3e207c51	0.15672423
137	0x3e2e6aae	0.17032883
138	0x3e8115ec	0.25212038
139	0x3ef83696	0.48479146
140	0x3e642919	0.22281303
141	0x3f0dbd18	0.5536666
142	0xbed242bd	-0.41066542
143	0x3f1f0dfe	0.62130725
144	0xbe3a7b7a	-0.18211165
145	0x3f36de55	0.71433
146	0xbcee73dc	-0.02910798
147	0x3e329fc8	0.17443764
148	0xbf2b050b	-0.6680457
149	0x3efa64aa	0.48904926
150	0xbe64be02	-0.22338107
151	0x00000000	0.0
152	0x00000000	0.0
153	0x00000000	0.0
154	0x00000000	0.0
155	0x00000000	0.0
156	0x00000000	0.0
157	0x00000000	0.0
158	0x00000000	0.0
159	0x00000000	0.0
160	0x00000000	0.0
161	0x00000000	0.0
162	0x00000000	0.0
163	0x00000000	0.0
164	0x00000000	0.0
165	0x00000000	0.0
166	0x00000000	0.0
167	0x00000000	0.0
168	0x00000000	0.0
169	0x00000000	0.0
170	0x00000000	0.0
171	0x00000000	0.0
172	0x00000000	0.0
173	0x00000000	0.0
174	0x00000000	0.0
175	0x00000000	0.0
176	0x00000000	0.0
177	0x00000000	0.0
178	0x00000000	0.0
179	0x00000000	0.0
180	0x00000000	0.0
181	0x00000000	0.0
182	0x00000000	0.0
183	0x00000000	0.0
184	0x00000000	0.0
185	0x00000000	0.0
186	0x00000000	0.0
187	0x00000000	0.0
188	0x00000000	0.0
189	0x00000000	0.0
190	0x00000000	0.0
191	0x00000000	0.0
192	0x00000000	0.0
193	0x00000000	0.0
194	0x00000000	0.0
195	0x00000000	0.0
196	0x00000000	0.0
197	0x00000000	0.0
198	0x00000000	0.0
199	0x00000000	0.0
200	0x00000000	0.0
201	0x00000000	0.0
202	0x00000000	0.0
203	0x00000000	0.0
204	0x00000000	0.0
205	0x00000000	0.0
206	0x3c91b402	0.01778603
207	0x3d09abfa	0.033611275
208	0x3e71dfaa	0.23620477
209	0xbedea4fc	-0.43485248
210	0xbe2ec4d0	-0.17067266
211	0x3a9a1de2	0.0011758173
212	0xba687e3a	-0.0008868907
213	0x3a028033	0.00049782096
214	0xba2910d1	-0.0006449344
215	0xb96d38e2	-0.00022623272
216	0x00000000	0.0
217	0x00000000	0.0
218	0x00000000	0.0
219	0x00000000	0.0
220	0x00000000	0.0
221	0x00000000	0.0
222	0x00000000	0.0
223	0x00000000	0.0
224	0x00000000	0.0
225	0x00000000	0.0
226	0x00000000	0.0
227	0x00000000	0.0
228	0x00000000	0.0
229	0x00000000	0.0
230	0x00000000	0.0
231	0x00000000	0.0
232	0x00000000	0.0
233	0x00000000	0.0
234	0x00000000	0.0
235	0x00000000	0.0
236	0x00000000	0.0
237	0x00000000	0.0
238	0x00000000	0.0
239	0x00000000	0.0
240	0x00000000	0.0
241	0x00000000	0.0
242	0x00000000	0.0
243	0x00000000	0.0
244	0x00000000	0.0
245	0x00000000	0.0
246	0x00000000	0.0
247	0x00000000	0.0
248	0x00000000	0.0
249	0x00000000	0.0
250	0x00000000	0.0
251	0x00000000	0.0
252	0x00000000	0.0
253	0x00000000	0.0
254	0x00000000	0.0
255	0x00000000	0.0

layers.2.spline_scaler f4 [1, 15]
0	0x3e865c3c	0.26242244
1	0xbe97c970	-0.29645872
2	0x3e2059e2	0.15659288
3	0x3e78972e	0.2427642
4	0x3ec44547	0.38334104
5	0xbec5aece	-0.38609928
6	0x3e77ca5a	0.24198285
7	0xbe84cbf3	-0.2593685
8	0xbe90fa65	-0.28316036
9	0xbe6e6a7a	-0.23282805
10	0xbedebc4b	-0.4350303
11	0xbe799b34	-0.24375612
12	0x3ed0a76c	0.40752733
13	0xbe6006c7	-0.21877585
14	0xbec4f9c4	-0.38471806

layers.2.grid f4 [15, 107]
0	0xbcf5c28f	-0.03
1	0xbca3d70a	-0.02
2	0xbc23d70a	-0.01
3	0x00000000	0.0
4	0x3c23d70a	0.01
5	0x3ca3d70a	0.02
6	0x3cf5c28f	0.03
7	0x3d23d70a	0.04
8	0x3d4ccccc	0.049999997
9	0x3d75c28f	0.06
10	0x3d8f5c29	0.07
11	0x3da3d70a	0.08
12	0x3db851eb	0.089999996
13	0x3dcccccc	0.099999994
14	0x3de147ae	0.11
15	0x3df5c28f	0.12
16	0x3e051eb8	0.13
17	0x3e0f5c29	0.14
18	0x3e199999	0.14999999
19	0x3e23d70a	0.16
20	0x3e2e147b	0.17
21	0x3e3851eb	0.17999999
22	0x3e428f5c	0.19
23	0x3e4ccccc	0.19999999
24	0x3e570a3d	0.21
25	0x3e6147ae	0.22
26	0x3e6b851e	0.22999999
27	0x3e75c28f	0.24
28	0x3e800000	0.25
29	0x3e851eb8	0.26
30	0x3e8a3d70	0.26999998
31	0x3e8f5c29	0.28
32	0x3e947ae1	0.29
33	0x3e999999	0.29999998
34	0x3e9eb852	0.31
35	0x3ea3d70a	0.32
36	0x3ea8f5c2	0.32999998
37	0x3eae147b	0.34
38	0x3eb33333	0.35
39	0x3eb851eb	0.35999998
40	0x3ebd70a4	0.37
41	0x3ec28f5c	0.38
42	0x3ec7ae14	0.39
43	0x3ecccccc	0.39999998
44	0x3ed1eb85	0.41
45	0x3ed70a3d	0.42
46	0x3edc28f5	0.42999998
47	0x3ee147ae	0.44
48	0x3ee66666	0.45
49	0x3eeb851e	0.45999998
50	0x3ef0a3d7	0.47
51	0x3ef5c28f	0.48
52	0x3efae147	0.48999998
53	0x3f000000	0.5
54	0x3f028f5c	0.51
55	0x3f051eb8	0.52
56	0x3f07ae14	0.53
57	0x3f0a3d70	0.53999996
58	0x3f0ccccd	0.55
59	0x3f0f5c29	0.56
60	0x3f11eb85	0.57
61	0x3f147ae1	0.58
62	0x3f170a3d	0.59
63	0x3f199999	0.59999996
64	0x3f1c28f6	0.61
65	0x3f1eb852	0.62
66	0x3f2147ae	0.63
67	0x3f23d70a	0.64
68	0x3f266666	0.65
69	0x3f28f5c2	0.65999997
70	0x3f2b851e	0.66999996
71	0x3f2e147b	0.68
72	0x3f30a3d7	0.69
73	0x3f333333	0.7
74	0x3f35c28f	0.71
75	0x3f3851eb	0.71999997
76	0x3f3ae147	0.72999996
77	0x3f3d70a4	0.74
78	0x3f400000	0.75
79	0x3f428f5c	0.76
80	0x3f451eb8	0.77
81	0x3f47ae14	0.78
82	0x3f4a3d70	0.78999996
83	0x3f4ccccc	0.79999995
84	0x3f4f5c29	0.81
85	0x3f51eb85	0.82
86	0x3f547ae1	0.83
87	0x3f570a3d	0.84
88	0x3f599999	0.84999996
89	0x3f5c28f5	0.85999995
90	0x3f5eb852	0.87
91	0x3f6147ae	0.88
92	0x3f63d70a	0.89
93	0x3f666666	0.9
94	0x3f68f5c2	0.90999997
95	0x3f6b851e	0.91999996
96	0x3f6e147b	0.93
97	0x3f70a3d7	0.94
98	0x3f733333	0.95
99	0x3f75c28f	0.96
100	0x3f7851eb	0.96999997
101	0x3f7ae147	0.97999996
102	0x3f7d70a3	0.98999995
103	0x3f800000	1.0
104	0x3f8147ae	1.01
105	0x3f828f5c	1.02
106	0x3f83d70a	1.03
107	0xbcf5c28f	-0.03
108	0xbca3d70a	-0.02
109	0xbc23d70a	-0.01
110	0x00000000	0.0
111	0x3c23d70a	0.01
112	0x3ca3d70a	0.02
113	0x3cf5c28f	0.03
114	0x3d23d70a	0.04
115	0x3d4ccccc	0.049999997
116	0x3d75c28f	0.06
117	0x3d8f5c29	0.07
118	0x3da3d70a	0.08
119	0x3db851eb	0.089999996
120	0x3dcccccc	0.099999994
121	0x3de147ae	0.11
122	0x3df5c28f	0.12
123	0x3e051eb8	0.13
124	0x3e0f5c29	0.14
125	0x3e199999	0.14999999
126	0x3e23d70a	0.16
127	0x3e2e147b	0.17
128	0x3e3851eb	0.17999999
129	0x3e428f5c	0.19
130	0x3e4ccccc	0.19999999
131	0x3e570a3d	0.21
132	0x3e6147ae	0.22
133	0x3e6b851e	0.22999999
134	0x3e75c28f	0.24
135	0x3e800000	0.25
136	0x3e851eb8	0.26
137	0x3e8a3d70	0.26999998
138	0x3e8f5c29	0.28
139	0x3e947ae1	0.29
140	0x3e999999	0.29999998
141	0x3e9eb852	0.31
142	0x3ea3d70a	0.32
143	0x3ea8f5c2	0.32999998
144	0x3eae147b	0.34
145	0x3eb33333	0.35
146	0x3eb851eb	0.35999998
147	0x3ebd70a4	0.37
148	0x3ec28f5c	0.38
149	0x3ec7ae14	0.39
150	0x3ecccccc	0.39999998
151	0x3ed1eb85	0.41
152	0x3ed70a3d	0.42
153	0x3edc28f5	0.42999998
154	0x3ee147ae	0.44
155	0x3ee66666	0.45
156	0x3eeb851e	0.45999998
157	0x3ef0a3d7	0.47
158	0x3ef5c28f	0.48
159	0x3efae147	0.48999998
160	0x3f000000	0.5
161	0x3f028f5c	0.51
162	0x3f051eb8	0.52
163	0x3f07ae14	0.53
164	0x3f0a3d70	0.53999996
165	0x3f0ccccd	0.55
166	0x3f0f5c29	0.56
167	0x3f11eb85	0.57
168	0x3f147ae1	0.58
169	0x3f170a3d	0.59
170	0x3f199999	0.59999996
171	0x3f1c28f6	0.61
172	0x3f1eb852	0.62
173	0x3f2147ae	0.63
174	0x3f23d70a	0.64
175	0x3f266666	0.65
176	0x3f28f5c2	0.65999997
177	0x3f2b851e	0.66999996
178	0x3f2e147b	0.68
179	0x3f30a3d7	0.69
180	0x3f333333	0.7
181	0x3f35c28f	0.71
182	0x3f3851eb	0.71999997
183	0x3f3ae147	0.72999996
184	0x3f3d70a4	0.74
185	0x3f400000	0.75
186	0x3f428f5c	0.76
187	0x3f451eb8	0.77
188	0x3f47ae14	0.78
189	0x3f4a3d70	0.78999996
190	0x3f4ccccc	0.79999995
191	0x3f4f5c29	0.81
192	0x3f51eb85	0.82
193	0x3f547ae1	0.83
194	0x3f570a3d	0.84
195	0x3f599999	0.84999996
196	0x3f5c28f5	0.85999995
197	0x3f5eb852	0.87
198	0x3f6147ae	0.88
199	0x3f63d70a	0.89
200	0x3f666666	0.9
201	0x3f68f5c2	0.90999997
202	0x3f6b851e	0.91999996
203	0x3f6e147b	0.93
204	0x3f70a3d7	0.94
205	0x3f733333	0.95
206	0x3f75c28f	0.96
207	0x3f7851eb	0.96999997
208	0x3f7ae147	0.97999996
209	0x3f7d70a3	0.98999995
210	0x3f800000	1.0
211	0x3f8147ae	1.01
212	0x3f828f5c	1.02
213	0x3f83d70a	1.03
214	0xbcf5c28f	-0.03
215	0xbca3d70a	-0.02
216	0xbc23d70a	-0.01
217	0x00000000	0.0
218	0x3c23d70a	0.01
219	0x3ca3d70a	0.02
220	0x3cf5c28f	0.03
221	0x3d23d70a	0.04
222	0x3d4ccccc	0.049999997
223	0x3d75c28f	0.06
224	0x3d8f5c29	0.07
225	0x3da3d70a	0.08
226	0x3db851eb	0.089999996
227	0x3dcccccc	0.099999994
228	0x3de147ae	0.11
229	0x3df5c28f	0.12
230	0x3e051eb8	0.13
231	0x3e0f5c29	0.14
232	0x3e199999	0.14999999
233	0x3e23d70a	0.16
234	0x3e2e147b	0.17
235	0x3e3851eb	0.17999999
236	0x3e428f5c	0.19
237	0x3e4ccccc	0.19999999
238	0x3e570a3d	0.21
239	0x3e6147ae	0.22
240	0x3e6b851e	0.22999999
241	0x3e75c28f	0.24
242	0x3e800000	0.25
243	0x3e851eb8	0.26
244	0x3e8a3d70	0.26999998
245	0x3e8f5c29	0.28
246	0x3e947ae1	0.29
247	0x3e999999	0.29999998
248	0x3e9eb852	0.31
249	0x3ea3d70a	0.32
250	0x3ea8f5c2	0.32999998
251	0x3eae147b	0.34
252	0x3eb33333	0.35
253	0x3eb851eb	0.35999998
254	0x3ebd70a4	0.37
255	0x3ec28f5c	0.38
