KINN/non_homo/famous_paintings/models/model_PINNs_kan.pth (torch, 131570 bytes, 12 tensors)

layers.0.base_weight f4 [15, 2]
0	0x3cc0c524	0.023531504
1	0x3ee17479	0.44034174
2	0x3f1f2977	0.62172645
3	0xbf10cf19	-0.56566006
4	0xbebfcdb6	-0.37461632
5	0xbe01d954	-0.1268056
6	0xbebf8922	-0.37409312
7	0x3e468c07	0.19389354
8	0x3cc591fe	0.024117466
9	0x3eca5a8c	0.39522207
10	0xbf03bb0d	-0.5145729
11	0x3da0276a	0.07820018
12	0xbec5136d	-0.38491383
13	0x3eb8ebbc	0.3611735
14	0x3f127d56	0.572225
15	0xbe11daee	-0.14243671
16	0xbe498724	-0.19680458
17	0x3f262abc	0.6490896
18	0x3ec95432	0.39322048
19	0x3e3bcd94	0.1834014
20	0x3f0d33dd	0.5515726
21	0x3f153ef8	0.5829921
22	0x3e37eae1	0.17960693
23	0x3e49c6c2	0.19704726
24	0xbef06b5f	-0.46956918
25	0xbda700ad	-0.08154426
26	0xbecb7387	-0.39736578
27	0x3ed72dc5	0.42027107
28	0xbf161950	-0.58632374
29	0xbf1bb0c0	-0.60816574

layers.0.spline_weight f4 [15, 2, 103]
0	0x3cf154ae	0.029459324
1	0x3d50a216	0.050935827
2	0x3d518911	0.051156107
3	0x3d4010b5	0.046890933
4	0x3d26ec3d	0.040752638
5	0x3d7364a7	0.05942216
6	0x3d2915ea	0.041280665
7	0x3c3232c2	0.010876359
8	0x3be793d4	0.007067183
9	0x3c49f35f	0.012326091
10	0x3c0e8110	0.008697763
11	0x3c06aeec	0.008220416
12	0xbaa60b18	-0.0012668101
13	0xbb2d4e2f	-0.0026444306
14	0x3b1f3d07	0.002429785
15	0xbb3f5a54	-0.0029198127
16	0x3c071c29	0.00824646
17	0xbb76aa1c	-0.0037638014
18	0xba7e5358	-0.000970175
19	0x3c0a6daa	0.0084489975
20	0x3c1cfebb	0.009582217
21	0x3c9388fc	0.018009655
22	0x3cbac9b4	0.022801258
23	0x3cd37afd	0.025815481
24	0x3cb50f3c	0.02210199
25	0x3c88e65a	0.016711403
26	0x3ca69697	0.020335479
27	0x3ba3bf02	0.004997135
28	0x3c354369	0.011063435
29	0x3beb82a3	0.007187204
30	0x3c0e6288	0.008690484
31	0x3c1db647	0.009625978
32	0x3c561485	0.013066416
33	0x3b2d7832	0.0026469347
34	0x3b7a943b	0.0038235325
35	0x3ada20b6	0.0016641829
36	0xbb383f19	-0.002811378
37	0x3aa3c66d	0.0012495049
38	0xbb1500ab	-0.0022735994
39	0xbb90e823	-0.004422204
40	0xbaaebd83	-0.0013331625
41	0xbc2feb63	-0.010737273
42	0xbabb80c7	-0.0014305346
43	0xbc8affe3	-0.01696772
44	0x3bad9b9f	0.0052980925
45	0x3b4def07	0.003142299
46	0x3d02afde	0.031906
47	0x3b810fd3	0.003938654
48	0x3d1c93bf	0.03822684
49	0x3d8acca1	0.06777311
50	0x3da4a45f	0.08039164
51	0x3d8106f0	0.06300151
52	0x3d824634	0.063610464
53	0x3d882797	0.06648176
54	0x3dcb7878	0.09935087
55	0x3d816adf	0.06319212
56	0x3d961453	0.07328095
57	0x3d56db86	0.052455448
58	0x3d3c71f4	0.04600711
59	0x3cdbcbae	0.02683052
60	0x3c296a29	0.010340252
61	0x3cc14da9	0.023596602
62	0xbca90904	-0.020634182
63	0x3b6382a6	0.0034715324
64	0x3cd81986	0.026379358
65	0x3cbbbaf6	0.022916298
66	0x3cb30dd2	0.021857176
67	0x3cb9ac95	0.022665301
68	0x3c9afef1	0.018920394
69	0x3cb33091	0.021873744
70	0x3ce9696d	0.028492654
71	0x3cc98ccc	0.02460327
72	0x3c5ef2f6	0.013607731
73	0x3c86b45c	0.016443424
74	0x3cd2c6f4	0.025729634
75	0x3caa0a16	0.020756762
76	0x3cd45e62	0.025923911
77	0x3d05853f	0.032597777
78	0x3d0c7490	0.03429085
79	0x3d15e9f5	0.036600072
80	0x3d36065a	0.04443965
81	0x3d34303c	0.043991312
82	0x3d3e3e67	0.04644623
83	0x3d4e4b06	0.050364517
84	0x3d5e9488	0.05434087
85	0x3d33642a	0.043796696
86	0x3d6cd508	0.05782035
87	0x3d8172db	0.06320735
88	0x3d6367a9	0.05551878
89	0x3d3fb247	0.046800878
90	0x3d251007	0.040298488
91	0x3d2193a6	0.03944745
92	0x3ca4e650	0.020129353
93	0x3c656ca5	0.014002954
94	0x3a01d962	0.0004953352
95	0xbbd02020	-0.006351486
96	0xba945eda	-0.0011319772
97	0x3b65f913	0.0035091087
98	0xbb65be25	-0.0035055962
99	0xbb099bf3	-0.0020997494
100	0x3b330c60	0.0027320608
101	0xbc91a769	-0.017780023
102	0x3d2ba61d	0.041906465
103	0xbe881fe6	-0.26586837
104	0xbd71df62	-0.059050925
105	0xbdc32d56	-0.095301315
106	0xbdaa92d3	-0.08328786
107	0xbdedb491	-0.11606706
108	0xbd7b4e10	-0.061353743
109	0xbe137b34	-0.14402467
110	0xbda51496	-0.08060567
111	0xbdb2f907	-0.087389044
112	0xbe1d438d	-0.153578
113	0xbe2c9f0e	-0.1685755
114	0xbe2734d2	-0.16328743
115	0xbe2764f6	-0.16347107
116	0xbdfda68e	-0.123852834
117	0xbdda9b4c	-0.10674152
118	0x3d64a116	0.055817686
119	0x3dd16b2b	0.10225519
120	0x3e19641c	0.14979595
121	0x3dae2464	0.08503035
122	0x3dc06c0a	0.09395607
123	0x3d85acbf	0.06527089
124	0xbd403b65	-0.046931643
125	0xbd06f2dc	-0.032946452
126	0xbd043845	-0.032280225
127	0x3d89c87d	0.06727693
128	0x3dc65110	0.0968343
129	0x3e29cfa3	0.16583113
130	0x3e0cadd5	0.13738187
131	0x3d6ddbcf	0.058070954
132	0xbcb32fd4	-0.021873392
133	0x3d6913db	0.0569037
134	0x3dad72ea	0.08469184
135	0x3d520587	0.051274803
136	0x3d9fa786	0.077956244
137	0x3d5f0c31	0.054454986
138	0x3d3c1249	0.045915876
139	0xbdd62f9b	-0.10458299
140	0xbc98e25f	-0.01866263
141	0xbd46b40b	-0.048511546
142	0x3cdd53c6	0.027017485
143	0x3bd08329	0.0063632918
144	0xbd4ec3bd	-0.05047964
145	0xbd3ff231	-0.04686183
146	0xbc82e60a	-0.015978832
147	0xbd102e8d	-0.035200644
148	0x3d3562d2	0.044283696
149	0x3ccd3fdf	0.02505487
150	0x3c9cb10c	0.019127391
151	0x3d841f5b	0.06451293
152	0x3dbe2667	0.092846684
153	0x3d7d69cb	0.06186847
154	0x3cf6e5e8	0.030138925
155	0x3c8e72f3	0.017388796
156	0x3d3baf9a	0.045821764
157	0x3d46198d	0.04836421
158	0x3c66341f	0.014050513
159	0x3d3316bb	0.04372285
160	0xbb1edc4f	-0.00242402
161	0xbd200f0c	-0.03907685
162	0xbd826b0f	-0.06368076
163	0xbd85a6df	-0.06525969
164	0xbd2c61b3	-0.04208536
165	0xbd8875a9	-0.06663067
166	0xbdbf9c4a	-0.09355982
167	0xbdc6c3bf	-0.09705304
168	0xbc9b753d	-0.018976802
169	0xbb905471	-0.0044045975
170	0x3ca38df4	0.01996515
171	0x3d569c07	0.052394893
172	0x3d12267f	0.035681244
173	0x3d665d60	0.056241393
174	0x3d493375	0.04912134
175	0x3cc647d7	0.024204178
176	0x3d029f50	0.031890213
177	0x3db9ec9c	0.09078333
178	0x3e03c23f	0.12867068
179	0x3e44addd	0.19206949
180	0x3cc16efd	0.023612494
181	0x3a88ed8a	0.0010446769
182	0xbcef0060	-0.029174984
183	0x3ce934e8	0.02846761
184	0x3d10228d	0.0351892
185	0x3d309a97	0.04311618
186	0x3dbe1c15	0.092827
187	0x3d167731	0.036734764
188	0x3e0399e6	0.12851676
189	0x3ca72edc	0.020408086
190	0x3cced0c9	0.02524604
191	0x3e157b6a	0.1459786
192	0xbc2df9f8	-0.010618679
193	0x3d82d07a	0.0638742
194	0xbd34b391	-0.04411656
195	0x3bbb2c4f	0.005712069
196	0xbda6a643	-0.08137181
197	0x3d2e9416	0.042621695
198	0xbd9d4ac2	-0.076802745
199	0xbe641727	-0.22274457
200	0xbce506f7	-0.027957423
201	0xbd1a3e99	-0.037657354
202	0xbe3b0cf8	-0.18266666
203	0xbe2df024	-0.16986138
204	0xbe0f7e2a	-0.14012972
205	0xbe4b0d51	-0.19829299
206	0x3dada474	0.084786326
207	0x3d261c94	0.040554598
208	0xbaaea1ad	-0.001332333
209	0x3c3a255e	0.011361448
210	0x3baad155	0.0052129426
211	0x3e4a8486	0.19777116
212	0x3d58081f	0.05274212
213	0xbc1d898b	-0.009615312
214	0x3c5ca526	0.013467109
215	0x3d8d9b11	0.06914342
216	0x3d4394e9	0.047749434
217	0xbcea6ebe	-0.02861726
218	0xbd566485	-0.052341957
219	0xbd270c14	-0.040783003
220	0xbdc1d2ea	-0.09464057
221	0xbd553145	-0.05204894
222	0x3d67c3a4	0.05658306
223	0x3dcbade6	0.09945278
224	0x3d8acb44	0.06777051
225	0x3da8ce91	0.082425244
226	0xbb7d39d1	-0.0038639198
227	0xbd4f82f9	-0.050662015
228	0xbd84cb73	-0.06484117
229	0x3d2b3d4f	0.041806515
230	0x3c44b108	0.012005098
231	0xbd3bdda1	-0.04586566
232	0x3df8a63a	0.1214108
233	0x3ddebaa5	0.10875443
234	0x3d37c4dc	0.044865474
235	0x3da2f305	0.079565085
236	0xbca6e95d	-0.020374948
237	0xbda028ae	-0.07820259
238	0xbc84ea97	-0.016225142
239	0xbdc88ee6	-0.09792881
240	0xbd63e73a	-0.055640437
241	0xbd1fbe95	-0.039000113
242	0x3dad9d7a	0.08477302
243	0x3d470f68	0.048598677
244	0x3cf32ae0	0.02968353
245	0x3d165afe	0.03670787
246	0x3dff69cd	0.12471352
247	0x3e62dad4	0.22153789
248	0x3e6c3630	0.23067546
249	0x3e1bbc62	0.15208581
250	0x3dcd1aab	0.10014852
251	0x3e168771	0.14700104
252	0x3c36f23b	0.011166151
253	0x3d9802b3	0.0742239
254	0x3c999d75	0.01875184
255	0x3df68a7b	0.12038132

layers.0.spline_scaler f4 [15, 2]
0	0xbeeefe78	-0.4667852
1	0x3e00b3a1	0.12568523
2	0xbea6ed3d	-0.32602873
3	0xbf3d5205	-0.73953277
4	0xbef3cb8c	-0.4761623
5	0x3f332e65	0.6999267
6	0x3f359869	0.70935684
7	0x3f2cc7e7	0.67492527
8	0xbe624903	-0.22098164
9	0xbf1401e5	-0.5781539
10	0x3e4333b0	0.19062686
11	0x3f16f1e6	0.5896286
12	0x3f111cc0	0.56684494
13	0x3e60de8b	0.21959893
14	0x3eaacae1	0.3335791
15	0x3f03517c	0.5129621
16	0x3ed10566	0.4082443
17	0xbf331c24	-0.69964814
18	0xbed39177	-0.41321918
19	0x3eb45e1d	0.35228053
20	0x3e0bed59	0.1366476
21	0xbf164b30	-0.5870848
22	0xbf2345f3	-0.6377861
23	0x3e6428b1	0.22281148
24	0x3e64bf6a	0.22338644
25	0x3ee24ec9	0.44200733
26	0xbf10dff9	-0.56591755
27	0x3f15c129	0.58497864
28	0xbe25e9f7	-0.16202532
29	0x3f247599	0.6424194

layers.0.grid f4 [2, 107]
0	0xbcf5c28f	-0.03
1	0xbca3d70a	-0.02
2	0xbc23d70a	-0.01
3	0x00000000	0.0
4	0x3c23d70a	0.01
5	0x3ca3d70a	0.02
6	0x3cf5c28f	0.03
7	0x3d23d70a	0.04
8	0x3d4ccccc	0.049999997
9	0x3d75c28f	0.06
10	0x3d8f5c29	0.07
11	0x3da3d70a	0.08
12	0x3db851eb	0.089999996
13	0x3dcccccc	0.099999994
14	0x3de147ae	0.11
15	0x3df5c28f	0.12
16	0x3e051eb8	0.13
17	0x3e0f5c29	0.14
18	0x3e199999	0.14999999
19	0x3e23d70a	0.16
20	0x3e2e147b	0.17
21	0x3e3851eb	0.17999999
22	0x3e428f5c	0.19
23	0x3e4ccccc	0.19999999
24	0x3e570a3d	0.21
25	0x3e6147ae	0.22
26	0x3e6b851e	0.22999999
27	0x3e75c28f	0.24
28	0x3e800000	0.25
29	0x3e851eb8	0.26
30	0x3e8a3d70	0.26999998
31	0x3e8f5c29	0.28
32	0x3e947ae1	0.29
33	0x3e999999	0.29999998
34	0x3e9eb852	0.31
35	0x3ea3d70a	0.32
36	0x3ea8f5c2	0.32999998
37	0x3eae147b	0.34
38	0x3eb33333	0.35
39	0x3eb851eb	0.35999998
40	0x3ebd70a4	0.37
41	0x3ec28f5c	0.38
42	0x3ec7ae14	0.39
43	0x3ecccccc	0.39999998
44	0x3ed1eb85	0.41
45	0x3ed70a3d	0.42
46	0x3edc28f5	0.42999998
47	0x3ee147ae	0.44
48	0x3ee66666	0.45
49	0x3eeb851e	0.45999998
50	0x3ef0a3d7	0.47
51	0x3ef5c28f	0.48
52	0x3efae147	0.48999998
53	0x3f000000	0.5
54	0x3f028f5c	0.51
55	0x3f051eb8	0.52
56	0x3f07ae14	0.53
57	0x3f0a3d70	0.53999996
58	0x3f0ccccd	0.55
59	0x3f0f5c29	0.56
60	0x3f11eb85	0.57
61	0x3f147ae1	0.58
62	0x3f170a3d	0.59
63	0x3f199999	0.59999996
64	0x3f1c28f6	0.61
65	0x3f1eb852	0.62
66	0x3f2147ae	0.63
67	0x3f23d70a	0.64
68	0x3f266666	0.65
69	0x3f28f5c2	0.65999997
70	0x3f2b851e	0.66999996
71	0x3f2e147b	0.68
72	0x3f30a3d7	0.69
73	0x3f333333	0.7
74	0x3f35c28f	0.71
75	0x3f3851eb	0.71999997
76	0x3f3ae147	0.72999996
77	0x3f3d70a4	0.74
78	0x3f400000	0.75
79	0x3f428f5c	0.76
80	0x3f451eb8	0.77
81	0x3f47ae14	0.78
82	0x3f4a3d70	0.78999996
83	0x3f4ccccc	0.79999995
84	0x3f4f5c29	0.81
85	0x3f51eb85	0.82
86	0x3f547ae1	0.83
87	0x3f570a3d	0.84
88	0x3f599999	0.84999996
89	0x3f5c28f5	0.85999995
90	0x3f5eb852	0.87
91	0x3f6147ae	0.88
92	0x3f63d70a	0.89
93	0x3f666666	0.9
94	0x3f68f5c2	0.90999997
95	0x3f6b851e	0.91999996
96	0x3f6e147b	0.93
97	0x3f70a3d7	0.94
98	0x3f733333	0.95
99	0x3f75c28f	0.96
100	0x3f7851eb	0.96999997
101	0x3f7ae147	0.97999996
102	0x3f7d70a3	0.98999995
103	0x3f800000	1.0
104	0x3f8147ae	1.01
105	0x3f828f5c	1.02
106	0x3f83d70a	1.03
107	0xbcf5c28f	-0.03
108	0xbca3d70a	-0.02
109	0xbc23d70a	-0.01
110	0x00000000	0.0
111	0x3c23d70a	0.01
112	0x3ca3d70a	0.02
113	0x3cf5c28f	0.03
114	0x3d23d70a	0.04
115	0x3d4ccccc	0.049999997
116	0x3d75c28f	0.06
117	0x3d8f5c29	0.07
118	0x3da3d70a	0.08
119	0x3db851eb	0.089999996
120	0x3dcccccc	0.099999994
121	0x3de147ae	0.11
122	0x3df5c28f	0.12
123	0x3e051eb8	0.13
124	0x3e0f5c29	0.14
125	0x3e199999	0.14999999
126	0x3e23d70a	0.16
127	0x3e2e147b	0.17
128	0x3e3851eb	0.17999999
129	0x3e428f5c	0.19
130	0x3e4ccccc	0.19999999
131	0x3e570a3d	0.21
132	0x3e6147ae	0.22
133	0x3e6b851e	0.22999999
134	0x3e75c28f	0.24
135	0x3e800000	0.25
136	0x3e851eb8	0.26
137	0x3e8a3d70	0.26999998
138	0x3e8f5c29	0.28
139	0x3e947ae1	0.29
140	0x3e999999	0.29999998
141	0x3e9eb852	0.31
142	0x3ea3d70a	0.32
143	0x3ea8f5c2	0.32999998
144	0x3eae147b	0.34
145	0x3eb33333	0.35
146	0x3eb851eb	0.35999998
147	0x3ebd70a4	0.37
148	0x3ec28f5c	0.38
149	0x3ec7ae14	0.39
150	0x3ecccccc	0.39999998
151	0x3ed1eb85	0.41
152	0x3ed70a3d	0.42
153	0x3edc28f5	0.42999998
154	0x3ee147ae	0.44
155	0x3ee66666	0.45
156	0x3eeb851e	0.45999998
157	0x3ef0a3d7	0.47
158	0x3ef5c28f	0.48
159	0x3efae147	0.48999998
160	0x3f000000	0.5
161	0x3f028f5c	0.51
162	0x3f051eb8	0.52
163	0x3f07ae14	0.53
164	0x3f0a3d70	0.53999996
165	0x3f0ccccd	0.55
166	0x3f0f5c29	0.56
167	0x3f11eb85	0.57
168	0x3f147ae1	0.58
169	0x3f170a3d	0.59
170	0x3f199999	0.59999996
171	0x3f1c28f6	0.61
172	0x3f1eb852	0.62
173	0x3f2147ae	0.63
174	0x3f23d70a	0.64
175	0x3f266666	0.65
176	0x3f28f5c2	0.65999997
177	0x3f2b851e	0.66999996
178	0x3f2e147b	0.68
179	0x3f30a3d7	0.69
180	0x3f333333	0.7
181	0x3f35c28f	0.71
182	0x3f3851eb	0.71999997
183	0x3f3ae147	0.72999996
184	0x3f3d70a4	0.74
185	0x3f400000	0.75
186	0x3f428f5c	0.76
187	0x3f451eb8	0.77
188	0x3f47ae14	0.78
189	0x3f4a3d70	0.78999996
190	0x3f4ccccc	0.79999995
191	0x3f4f5c29	0.81
192	0x3f51eb85	0.82
193	0x3f547ae1	0.83
194	0x3f570a3d	0.84
195	0x3f599999	0.84999996
196	0x3f5c28f5	0.85999995
197	0x3f5eb852	0.87
198	0x3f6147ae	0.88
199	0x3f63d70a	0.89
200	0x3f666666	0.9
201	0x3f68f5c2	0.90999997
202	0x3f6b851e	0.91999996
203	0x3f6e147b	0.93
204	0x3f70a3d7	0.94
205	0x3f733333	0.95
206	0x3f75c28f	0.96
207	0x3f7851eb	0.96999997
208	0x3f7ae147	0.97999996
209	0x3f7d70a3	0.98999995
210	0x3f800000	1.0
211	0x3f8147ae	1.01
212	0x3f828f5c	1.02
213	0x3f83d70a	1.03

layers.1.base_weight f4 [15, 15]
0	0xbe668ff4	-0.22515851
1	0x3d0aff02	0.0339346
2	0x3d3ad17f	0.045609947
3	0x3ccd4600	0.025057793
4	0xbe91c564	-0.2847091
5	0x3ea5aa31	0.32356408
6	0xbe422df6	-0.18962845
7	0xbe26325e	-0.16230151
8	0xbe99f69d	-0.30070964
9	0xbe55851d	-0.2085156
10	0xbea2617e	-0.31715006
11	0x3d2cee00	0.042219162
12	0x3e8b2620	0.27177525
13	0xbe4704c5	-0.19435413
14	0x3e92b155	0.2865092
15	0x3e81bffc	0.25341785
16	0x3dc83001	0.09774781
17	0x3e58aaa0	0.21158838
18	0xbe0188ef	-0.12649892
19	0xbda6aa1b	-0.08137914
20	0xbe8e47e1	-0.27789214
21	0xbe1695c0	-0.14705563
22	0xbe43d4f2	-0.19124201
23	0x3e60e707	0.2196313
24	0x3e12f6cc	0.14351958
25	0xbe19e77d	-0.15029712
26	0x3e8869df	0.26643273
27	0x3de5a177	0.112124376
28	0x3e336826	0.17520198
29	0xbe8fc08f	-0.28076598
30	0x3cb26cb0	0.021780342
31	0xbc9b817c	-0.018982641
32	0xbd9f9ded	-0.07793794
33	0xbd17baa0	-0.037043214
34	0xbe53809f	-0.20654534
35	0xbd14f4b8	-0.036366194
36	0xbe05cb16	-0.13065752
37	0x3e61aaa9	0.22037758
38	0x3e58729f	0.21137474
39	0xbe1a863c	-0.15090269
40	0x3e2ec384	0.17066771
41	0x3de9f325	0.11423329
42	0x3d2dc78a	0.042426623
43	0xbda7d756	-0.08195369
44	0xbce606d7	-0.028079433
45	0xbe29d419	-0.16584815
46	0xbda7da47	-0.0819593
47	0xbcdf2525	-0.027239392
48	0x3e3af30b	0.18256776
49	0x3e5944bb	0.21217625
50	0xbbb2b958	-0.0054542236
51	0x3bde9588	0.006792728
52	0x3d729a13	0.059228968
53	0x3d1abb5c	0.037776336
54	0x3ddc261a	0.10749455
55	0x3dd4a653	0.10383286
56	0x3ccf0aac	0.025273643
57	0xbdff80a1	-0.12475706
58	0x3d1897fc	0.03725432
59	0x3e818f83	0.25304803
60	0xbcef8282	-0.029237036
61	0x3dabfb34	0.083975226
62	0x3d7cefb7	0.061752047
63	0xbe3d8f6e	-0.18511745
64	0x3e426b1a	0.18986169
65	0xbe510a46	-0.20414075
66	0x3d14a1dc	0.036287174
67	0xbdab8147	-0.08374267
68	0xbe25f6e9	-0.1620747
69	0x3e85ad23	0.26108655
70	0x3d4b8213	0.049684595
71	0x3e5f9a98	0.21836317
72	0xbdc93f4a	-0.098265246
73	0xbc2dd9ad	-0.01061098
74	0xbe0bca4c	-0.13651389
75	0x3dc7d4b7	0.09757369
76	0x3d60eb38	0.054911822
77	0x3e00878d	0.12551709
78	0x3e8cc965	0.27497402
79	0x3dfee29a	0.124455646
80	0xbe0e971e	-0.13924834
81	0xbe594515	-0.21217759
82	0x3cfc178e	0.03077295
83	0x3dbb475f	0.09144472
84	0x3e022f03	0.12713246
85	0xbe854ddf	-0.26035973
86	0x3e24ecc3	0.16105942
87	0xbe4a5860	-0.19760275
88	0x3e065d23	0.13121466
89	0xbe17a8df	-0.14810513
90	0xbdb7e90e	-0.089799985
91	0xbe148e0f	-0.14507316
92	0xbe4b7e7f	-0.19872473
93	0x3e3706fa	0.17873755
94	0xbd254ea4	-0.0403582
95	0x3e1055a0	0.14095163
96	0xbd98fba1	-0.074698694
97	0x3d669a63	0.05629958
98	0x3e6afaa6	0.22947177
99	0x3e83b558	0.25724292
100	0xbda33f42	-0.0797105
101	0xbb3511e5	-0.0027629074
102	0x3de353b6	0.11099951
103	0xbe28bf96	-0.16479334
104	0xbda9163a	-0.082561925
105	0x3d24db6a	0.040248312
106	0xbe228bdd	-0.15873666
107	0x3aa784ea	0.00127807
108	0x3e10fe51	0.14159514
109	0xbe6f6892	-0.23379734
110	0x3e6f422a	0.23365083
111	0xbca3e821	-0.020008149
112	0x3e5e3343	0.21699242
113	0x3d970181	0.07373334
114	0x3c26c5b4	0.010178972
115	0x3e68055f	0.22658299
116	0x3c749cbe	0.014929948
117	0xbdf7cc06	-0.12099461
118	0xbd9d6612	-0.07685484
119	0x3d1e90d0	0.038712323
120	0xbc3041e7	-0.0107579
121	0xbe356eb9	-0.17718019
122	0xbd88afb0	-0.06674135
123	0x3e473777	0.19454752
124	0xbe329ccc	-0.17442626
125	0x3df90d6b	0.121607624
126	0xbb927cd1	-0.0044704457
127	0x3d848403	0.06470492
128	0x3d60d2fd	0.054888714
129	0x3e656b6c	0.2240426
130	0xbcd246c4	-0.02566851
131	0xbe29b846	-0.16574201
132	0xbd4910d3	-0.04908831
133	0xbe192aad	-0.14957686
134	0x3e0d2338	0.13782966
135	0x3d8a47c3	0.06751969
136	0x3c97f734	0.018550493
137	0xbdfa9189	-0.1223479
138	0x3e268e0e	0.16265127
139	0x3e1d72f5	0.15375884
140	0x3a811a9c	0.0009849849
141	0xbe4abe20	-0.1979909
142	0xbb8f7bce	-0.0043787723
143	0x3e073a44	0.1320582
144	0x3dbab739	0.09116978
145	0xbe1536fd	-0.14571758
146	0x3dd09345	0.101843394
147	0xbdc5446d	-0.09632192
148	0xbe4dfcde	-0.20115992
149	0x3def9aef	0.11699473
150	0x3e20fb1f	0.15720795
151	0xbe41df61	-0.18932869
152	0xbdc9bddc	-0.09850666
153	0xbd021ad7	-0.031763878
154	0x3e56e878	0.20987117
155	0x3cf89f2a	0.030349333
156	0xbe49968a	-0.19686332
157	0x3e2c357b	0.16817276
158	0xbe4a4462	-0.19752648
159	0xbb915d8e	-0.0044362014
160	0x3e46e849	0.19424547
161	0xbe360601	-0.17775728
162	0x3d99c1e1	0.075076826
163	0x3e3033f0	0.17207313
164	0xbd831627	-0.064007096
165	0xbde4dfed	-0.11175523
166	0x3e2a21c1	0.16614439
167	0xbe5bd95c	-0.21469635
168	0x3e431cf7	0.19054018
169	0xbe2c28f1	-0.16812493
170	0xbddb91ff	-0.10721206
171	0x3e0c8762	0.1372352
172	0x3e5cff65	0.215818
173	0xbd8c18e8	-0.06840688
174	0x3e60f522	0.21968511
175	0x3a7dea22	0.00096860726
176	0x3e7a1393	0.2442153
177	0x3e53033d	0.20606704
178	0x3e24d466	0.16096649
179	0xbdafadff	-0.08578109
180	0x3da37295	0.07980839
181	0xbbe965bf	-0.007122725
182	0x3e33ca17	0.1755756
183	0xbd7af73c	-0.061270937
184	0x3e845069	0.25842598
185	0xbe4efacb	-0.20212857
186	0x3d820e4d	0.06350384
187	0x3e0fb5c7	0.14034186
188	0xbd3518c1	-0.04421306
189	0xbd856367	-0.065131
190	0x3e082d56	0.13298544
191	0xbdbb0b8f	-0.09133064
192	0xbe996f4c	-0.29967725
193	0x3dbf628c	0.09344968
194	0x3cc82ab3	0.024434423
195	0xbcf85f6e	-0.030318942
196	0x3cdaf976	0.02673028
197	0x3e243c84	0.1603871
198	0x3e6e00eb	0.23242538
199	0xbe54ba3a	-0.20774165
200	0xbe2618ba	-0.1622037
201	0x3d89aa80	0.067219734
202	0x3d11583c	0.035484537
203	0x3d307fc0	0.043090582
204	0x3cf5640a	0.029954929
205	0x3e3fc87d	0.18728824
206	0x3e1a1b42	0.1504946
207	0x3e0275d6	0.12740263
208	0x3e7c30da	0.2462801
209	0x3bf61559	0.007509869
210	0xbe007a19	-0.12546577
211	0x3dc1a6a9	0.09455616
212	0xbe094554	-0.13405353
213	0x3e7e7f0c	0.24853152
214	0xbeaada01	-0.3336945
215	0x3d07be6a	0.033140577
216	0xbe32feb2	-0.17479971
217	0xbd49ec52	-0.04929764
218	0xbe10fb77	-0.14158426
219	0x3d2ef2cd	0.04271202
220	0xbe926ade	-0.28597158
221	0xbca5fc5b	-0.020261934
222	0x3e511b0f	0.20420478
223	0xbde97168	-0.11398584
224	0x3e9f65ea	0.31132442

layers.1.spline_weight f4 [15, 15, 103]
0	0xbd22e384	-0.039767757
1	0xbd1c25ae	-0.03812187
2	0xbcc3cf7f	-0.023902653
3	0xbd20ea39	-0.039285872
4	0xbde18fef	-0.11013781
5	0xbdca7ea5	-0.09887437
6	0xbdc2a4e0	-0.09504104
7	0xbdc828c2	-0.09773399
8	0xbdc9f52c	-0.09861216
9	0xbdd3dcbc	-0.10344836
10	0xbdd015ac	-0.101603836
11	0xbdbdb0cc	-0.09262237
12	0xbda9407a	-0.08264251
13	0xbd986042	-0.07440235
14	0xbd987cd8	-0.07445687
15	0xbd9573dd	-0.0729749
16	0xbdbb51e6	-0.0914648
17	0xbdccfb9e	-0.1000893
18	0xbdcfec09	-0.10152442
19	0xbdc35bdd	-0.09539006
20	0xbd9f9938	-0.07792896
21	0xbda26e3a	-0.0793118
22	0xbdcc5f7a	-0.09979148
23	0xbde06b9b	-0.10958024
24	0xbde47f04	-0.11157039
25	0xbde75dcc	-0.11297187
26	0xbde9318e	-0.11386405
27	0xbddc4cb2	-0.10756816
28	0xbde17598	-0.11008757
29	0xbde4466d	-0.11146245
30	0xbddcc69a	-0.10780068
31	0xbdbc34f3	-0.09189787
32	0xbd65bc70	-0.05608791
33	0xbd0a7ba6	-0.033809327
34	0xbcd42555	-0.025896708
35	0xbca2967f	-0.019847153
36	0xbc7edc60	-0.015555471
37	0xbc308906	-0.010774856
38	0xbc015424	-0.007893596
39	0xb85e3cd2	-5.2985568e-05
40	0x39b4bb34	0.00034471753
41	0x39abcf1f	0.0003276998
42	0xba4fd7fd	-0.0007928608
43	0x39f840b6	0.0004735046
44	0xb9e44b30	-0.00043543568
45	0xba1ca263	-0.0005975125
46	0x39374b3d	0.00017480268
47	0x3a640d24	0.0008699468
48	0xba4fa617	-0.00079211727
49	0xb8ac5b78	-8.2186365e-05
50	0x3a10f09f	0.00055290194
51	0xba38ab1f	-0.0007044542
52	0x3a22cdb7	0.00062104635
53	0xb89fbdd6	-7.6170705e-05
54	0x39fb1ca3	0.00047895787
55	0xb8e47f44	-0.00010895592
56	0xb8eaac3e	-0.00011190072
57	0x39bc44d7	0.00035909444
58	0xb7f83a31	-2.9591001e-05
59	0xb9ba0af0	-0.00035484834
60	0xb9f08b84	-0.00045880314
61	0x3a441aac	0.0007480781
62	0x39f22b9b	0.00046190326
63	0xba51a2bb	-0.0007996966
64	0x3a6f0cef	0.0009119054
65	0xba54ee08	-0.00081226276
66	0x38897c73	6.5558495e-05
67	0x38dc6d67	0.00010510795
68	0x3a0c2efa	0.0005347576
69	0xba3376d4	-0.0006846015
70	0x37e6ea6a	2.7527294e-05
71	0x3a264d08	0.0006343876
72	0xba892c29	-0.0010465431
73	0x3a79bad7	0.00095264375
74	0xba16318a	-0.0005729428
75	0xb983f344	-0.00025167514
76	0xba0adac5	-0.00052968814
77	0x3899eb82	7.339475e-05
78	0x3a58295b	0.00082459085
79	0xba63e991	-0.0008694167
80	0xb99232d0	-0.00027885148
81	0xb95f0162	-0.00021267452
82	0x39354f56	0.0001729106
83	0xba47417e	-0.00076010067
84	0x39df6618	0.0004260994
85	0xb99037b8	-0.00027507334
86	0x3a71ef5f	0.00092290895
87	0xb9fc453d	-0.00048116772
88	0xb9ee5b62	-0.00045462983
89	0xb9a460e1	-0.00031352698
90	0xb9f0d29b	-0.0004593328
91	0x37fc7e3e	3.0099527e-05
92	0xba03c8d0	-0.0005027177
93	0x3a83940d	0.0010038629
94	0xba65e2f7	-0.0008769477
95	0x3a02f842	0.00049961
96	0x3894344c	7.066931e-05
97	0x39898123	0.0002622689
98	0x392a9902	0.00016269463
99	0xba075523	-0.00051625277
100	0x39b1785d	0.00033849748
101	0xb9d072c8	-0.0003975837
102	0xb9140c2c	-0.00014118914
103	0x3de51133	0.11184921
104	0x3df16f2c	0.117887825
105	0x3de9cb59	0.114157386
106	0x3ddd45d4	0.10804334
107	0x3ddb5b5d	0.107107855
108	0x3dd83d22	0.10558535
109	0x3dd368e6	0.10322742
110	0x3dc5fd69	0.09667475
111	0x3dafa196	0.08575742
112	0x3da726a7	0.08161669
113	0x3dacc0b8	0.08435196
114	0x3db5df10	0.088804364
115	0x3dbdb07e	0.09262179
116	0x3db77e5a	0.089596465
117	0x3db28b78	0.08718008
118	0x3dbe1299	0.09280891
119	0x3de01e48	0.10943276
120	0x3dd5a70b	0.104322515
121	0x3dcb8a19	0.099384494
122	0x3dc49a37	0.09599727
123	0x3dadd311	0.08487523
124	0x3dad122d	0.084507324
125	0x3dc17809	0.09446723
126	0x3dd9d0c1	0.1063552
127	0x3dd7b8c4	0.10533288
128	0x3ddfef2c	0.1093429
129	0x3dff054b	0.124521814
130	0x3e08c29b	0.13355486
131	0x3df26d37	0.11837237
132	0x3db5898b	0.08864125
133	0x3db3e6a2	0.08784224
134	0x3daa45d7	0.08314102
135	0x3da0e507	0.078561835
136	0x3d9d0b04	0.07668117
137	0x3dccf78f	0.100081556
138	0x3dc1bd85	0.09459976
139	0x3d65c521	0.0560962
140	0x3d63e65b	0.055639606
141	0x3d66e435	0.05636998
142	0x3d4f9526	0.05067935
143	0x3d4cd86a	0.050011076
144	0x3d41d9a4	0.0473267
145	0x3d018c33	0.031627845
146	0x3d310b60	0.04322374
147	0x3d780d8b	0.06055979
148	0x3cf5cf48	0.030006066
149	0x3c7b5aea	0.0153415
150	0x3c22c944	0.009935681
151	0x00000000	0.0
152	0x00000000	0.0
153	0x00000000	0.0
154	0x00000000	0.0
155	0x00000000	0.0
156	0x00000000	0.0
157	0x00000000	0.0
158	0x00000000	0.0
159	0x00000000	0.0
160	0x00000000	0.0
161	0x00000000	0.0
162	0x00000000	0.0
163	0x00000000	0.0
164	0x00000000	0.0
165	0x00000000	0.0
166	0x00000000	0.0
167	0x00000000	0.0
168	0x00000000	0.0
169	0x00000000	0.0
170	0x00000000	0.0
171	0x00000000	0.0
172	0x00000000	0.0
173	0x00000000	0.0
174	0x00000000	0.0
175	0x00000000	0.0
176	0x00000000	0.0
177	0x00000000	0.0
178	0x00000000	0.0
179	0x00000000	0.0
180	0x00000000	0.0
181	0x00000000	0.0
182	0x00000000	0.0
183	0x00000000	0.0
184	0x00000000	0.0
185	0x00000000	0.0
186	0x00000000	0.0
187	0x00000000	0.0
188	0x00000000	0.0
189	0x00000000	0.0
190	0x00000000	0.0
191	0x00000000	0.0
192	0x00000000	0.0
193	0x00000000	0.0
194	0x00000000	0.0
195	0x00000000	0.0
196	0x00000000	0.0
197	0x00000000	0.0
198	0x00000000	0.0
199	0x00000000	0.0
200	0x00000000	0.0
201	0x00000000	0.0
202	0x00000000	0.0
203	0x00000000	0.0
204	0x00000000	0.0
205	0x00000000	0.0
206	0xbe625113	-0.2210124
207	0xbe30daca	-0.17270961
208	0xbe2b8fcc	-0.16754073
209	0xbe3fcd8c	-0.18730754
210	0xbe51b7c6	-0.2048026
211	0xbe7b3a51	-0.24533965
212	0xbe0adc25	-0.13560541
213	0xbdb700b6	-0.089356825
214	0x3dad1996	0.08452146
215	0x3f16736f	0.5876989
216	0x00000000	0.0
217	0x00000000	0.0
218	0x00000000	0.0
219	0x00000000	0.0
220	0x00000000	0.0
221	0x00000000	0.0
222	0x00000000	0.0
223	0x00000000	0.0
224	0x00000000	0.0
225	0x00000000	0.0
226	0x00000000	0.0
227	0x00000000	0.0
228	0x00000000	0.0
229	0x00000000	0.0
230	0x00000000	0.0
231	0x00000000	0.0
232	0x00000000	0.0
233	0x00000000	0.0
234	0x00000000	0.0
235	0x00000000	0.0
236	0x00000000	0.0
237	0x00000000	0.0
238	0x00000000	0.0
239	0x00000000	0.0
240	0x00000000	0.0
241	0x00000000	0.0
242	0x00000000	0.0
243	0x00000000	0.0
244	0x00000000	0.0
245	0x00000000	0.0
246	0x00000000	0.0
247	0x00000000	0.0
248	0x00000000	0.0
249	0x00000000	0.0
250	0x00000000	0.0
251	0x00000000	0.0
252	0x00000000	0.0
253	0x00000000	0.0
254	0x00000000	0.0
255	0x00000000	0.0

layers.1.spline_scaler f4 [15, 15]
0	0x3ebb15bc	0.3654002
1	0xbe8757bd	-0.26434126
2	0x3ed1916e	0.40931267
3	0xbe6b387a	-0.22970763
4	0xbeb59b00	-0.35469818
5	0xbe669232	-0.22516707
6	0x3ebcbc12	0.36862236
7	0xbea6cee3	-0.32579717
8	0xbe14f732	-0.14547423
9	0xbe64dea1	-0.22350551
10	0x3ea84065	0.3286163
11	0xbe93fe00	-0.28904724
12	0xbd82ffc4	-0.0639644
13	0x3e8dfa90	0.27730227
14	0x3f32789d	0.6971529
15	0x3e532ce4	0.20622593
16	0x3e88f62b	0.2675031
17	0xbe82b73a	-0.25530416
18	0xbebb52a0	-0.36586475
19	0x3e44c532	0.19215849
20	0x3e306a06	0.17227945
21	0xbda6bc28	-0.08141357
22	0x3e65bb03	0.2243462
23	0x3e5fdf39	0.21862496
24	0x3ed44eda	0.4146641
25	0xbe458e4f	-0.19292568
26	0xbe2d02cd	-0.168956
27	0xbe2405fa	-0.16017905
28	0x3e7634e8	0.2404362
29	0xbec331a7	-0.3812382
30	0x3e53d388	0.20686162
31	0xbdfb47ff	-0.122695915
32	0xbe97bcc4	-0.29636204
33	0x3e645c43	0.2230082
34	0xbe7fc14a	-0.24976078
35	0x3e0c85c5	0.13722904
36	0x3e8953bf	0.26821706
37	0x3e378163	0.17920451
38	0xbe6218f3	-0.2207983
39	0xbe54bac8	-0.20774376
40	0xbe26dadd	-0.16294427
41	0x3e1c103b	0.15240566
42	0x3d87c0e9	0.066285916
43	0xbe994d47	-0.2994177
44	0xbe404912	-0.18777874
45	0xbe8efa90	-0.2792554
46	0xbe1337f0	-0.14376807
47	0x3ec79790	0.3898282
48	0xbea8676f	-0.32891414
49	0xbe0463f0	-0.12928748
50	0x3e2104d2	0.15724495
51	0xbe88b35d	-0.26699343
52	0x3e74e278	0.23914516
53	0x3df006e8	0.11720067
54	0xbe42c942	-0.19022086
55	0xbe35e3d3	-0.1776269
56	0xbe76635d	-0.24061342
57	0xbe3a3863	-0.18185572
58	0xbe634e08	-0.22197735
59	0xbd75e9d8	-0.060037464
60	0xbe199cda	-0.1500124
61	0x3de0ea8c	0.10982236
62	0x3eab8fd7	0.3350818
63	0xbdf7a312	-0.1209165
64	0xbe2a015c	-0.16602081
65	0x3e9e2a71	0.30891755
66	0x3db92f09	0.09042174
67	0xbe415be2	-0.18882707
68	0xbea8a060	-0.32934856
69	0x3e94c3fe	0.2905578
70	0xbe899432	-0.26870877
71	0x3e01102b	0.12603824
72	0xbd848919	-0.06471462
73	0xbe1328a9	-0.1437098
74	0xbe54d3ae	-0.20783874
75	0xbe25ac01	-0.16178896
76	0xbe86163c	-0.26188838
77	0xbdf910cb	-0.12161406
78	0xbe6134ca	-0.21992794
79	0x3e4c6951	0.1996205
80	0x3dcde808	0.10054022
81	0x3e8e0179	0.277355
82	0x3e7c2936	0.24625096
83	0xbe53acbd	-0.20671363
84	0xbe255780	-0.1614666
85	0x3dfc2fd4	0.1231381
86	0x3e007916	0.1254619
87	0x3d7af012	0.061264105
88	0xbdd4c3c6	-0.10388903
89	0x3ea09ad9	0.3136814
90	0x3e43cc49	0.19120897
91	0x3e1df89c	0.15426868
92	0xbeb16f11	-0.3465505
93	0xbe927fff	-0.28613278
94	0x3ea7462d	0.32670727
95	0x3e3b77f3	0.18307476
96	0x3e237292	0.15961674
97	0xbe8e07b1	-0.27740243
98	0xbde8ee32	-0.11373557
99	0xbeb53f28	-0.35399747
100	0x3e4d5b91	0.20054461
101	0xbe24bad1	-0.1608689
102	0xbe294559	-0.1653036
103	0x3e227ddd	0.15868326
104	0x3eafaa82	0.34309775
105	0xbe93d094	-0.2887007
106	0xbe0baab7	-0.13639341
107	0x3e2872ac	0.16449994
108	0xbe8d8e4e	-0.27647632
109	0x3e8a1e58	0.26976275
110	0x3e3e71c1	0.18598081
111	0xbdf32535	-0.11872331
112	0xbe9122ce	-0.28346866
113	0x3e360d2e	0.17778465
114	0x3e841d28	0.25803494
115	0x3e6f0524	0.23341805
116	0xbe6a5b47	-0.22886382
117	0x3e60e804	0.21963507
118	0xbdf3cf78	-0.11904806
119	0xbe5ff6a0	-0.21871424
120	0x3e1e3086	0.15448198
121	0x3d9fec5f	0.07808756
122	0x3eee7068	0.46570134
123	0xbe558580	-0.20851707
124	0xbe771820	-0.24130297
125	0x3e88a1cc	0.2668594
126	0x3e753a0d	0.23947926
127	0xbe74f6e4	-0.23922306
128	0x3debc13c	0.11511466
129	0x3e6c0e80	0.23052406
130	0x3e77a580	0.24184227
131	0xbd9f6833	-0.07783546
132	0x3d94d240	0.072666645
133	0x3dbac0a8	0.091187775
134	0xbe08b01c	-0.1334843
135	0xbe6e6648	-0.23281205
136	0xbe1d8165	-0.15381391
137	0x3f0749f1	0.528472
138	0x3ece1e38	0.4025743
139	0xbe82f86a	-0.2558015
140	0xbe411eb5	-0.1885937
141	0xbe8a09d0	-0.2696061
142	0x3eb3bf94	0.351071
143	0xbe2cc764	-0.16872936
144	0xbe706732	-0.23476866
145	0xbe009264	-0.12555844
146	0x3e8750fa	0.26428968
147	0x3e13c6f2	0.1443136
148	0x3e808ea2	0.2510882
149	0xbecbabad	-0.39779416
150	0x3e940b25	0.28914753
151	0xbe85c400	-0.261261
152	0xbe623904	-0.22092062
153	0x3e3f5f98	0.1868881
154	0x3e09c07f	0.13452338
155	0xbdb2f3f8	-0.087379396
156	0x3dddb4a5	0.10825471
157	0x3e575279	0.21027555
158	0x3e852237	0.26002666
159	0xbea1500a	-0.31506377
160	0xbe51c959	-0.20486964
161	0x3e1be873	0.15225391
162	0xbe2bf9d2	-0.16794518
163	0x3e79a9e2	0.24381211
164	0x3f0441d4	0.51662946
165	0x3eb9d8b7	0.36298153
166	0x3ea1887d	0.31549445
167	0x3e68d0db	0.22735922
168	0xbecb8a9c	-0.39754188
169	0xbe3e12ef	-0.1856191
170	0x3e2d3afe	0.16917035
171	0x3e7827ba	0.24233904
172	0xbe64c593	-0.22340994
173	0x3e5e49a8	0.21707785
174	0xbe0139e8	-0.12619746
175	0xbebc79ab	-0.36811575
176	0x3ea87a3a	0.3290575
177	0x3db13b73	0.08653917
178	0x3e40ba94	0.18821174
179	0x3f0959b2	0.5365249
180	0xbe8b0b30	-0.27156973
181	0x3e9ad793	0.30242595
182	0xbee34b89	-0.44393566
183	0xbece90a4	-0.40344727
184	0x3eb18583	0.34672174
185	0xbea62f68	-0.32458043
186	0x3e9d76a7	0.30754587
187	0x3e71354d	0.23555489
188	0x3e95bfab	0.29247794
189	0xbe664739	-0.22488107
190	0xbeb5ee33	-0.35533294
191	0x3ed032ad	0.40663663
192	0x3dbf9534	0.0935463
193	0xbe5fecd8	-0.21867692
194	0xbf13913b	-0.5764348
195	0x3d98a575	0.074534334
196	0x3e7a0400	0.24415588
197	0x3e7707b4	0.24124032
198	0x3e8595ef	0.26090953
199	0x3e5aae50	0.21355557
200	0xbda23f0b	-0.07922181
201	0x3e83fc65	0.257785
202	0x3e0c00a7	0.13672124
203	0x3e16e644	0.14736277
204	0xbde0cdf4	-0.109767824
205	0xbe5600c7	-0.20898734
206	0xbe00df27	-0.12585126
207	0x3e7598c2	0.23984054
208	0xbe85d7a8	-0.26141095
209	0x3f044035	0.5166047
210	0x3ead2004	0.33813488
211	0xbe85d394	-0.26137984
212	0xbee811fc	-0.4532622
213	0xbe89a884	-0.2688638
214	0x3e925662	0.2858153
215	0x3ea4262c	0.32060373
216	0x3e261cce	0.16221926
217	0xbec829f3	-0.39094505
218	0xbec131d5	-0.3773333
219	0x3e747770	0.23873687
220	0x3ecb54d2	0.3971315
221	0xbec49f5c	-0.38402832
222	0xbe89e218	-0.26930308
223	0x3eb057e7	0.34442064
224	0xbf15d702	-0.585312

layers.1.grid f4 [15, 107]
0	0xbcf5c28f	-0.03
1	0xbca3d70a	-0.02
2	0xbc23d70a	-0.01
3	0x00000000	0.0
4	0x3c23d70a	0.01
5	0x3ca3d70a	0.02
6	0x3cf5c28f	0.03
7	0x3d23d70a	0.04
8	0x3d4ccccc	0.049999997
9	0x3d75c28f	0.06
10	0x3d8f5c29	0.07
11	0x3da3d70a	0.08
12	0x3db851eb	0.089999996
13	0x3dcccccc	0.099999994
14	0x3de147ae	0.11
15	0x3df5c28f	0.12
16	0x3e051eb8	0.13
17	0x3e0f5c29	0.14
18	0x3e199999	0.14999999
19	0x3e23d70a	0.16
20	0x3e2e147b	0.17
21	0x3e3851eb	0.17999999
22	0x3e428f5c	0.19
23	0x3e4ccccc	0.19999999
24	0x3e570a3d	0.21
25	0x3e6147ae	0.22
26	0x3e6b851e	0.22999999
27	0x3e75c28f	0.24
28	0x3e800000	0.25
29	0x3e851eb8	0.26
30	0x3e8a3d70	0.26999998
31	0x3e8f5c29	0.28
32	0x3e947ae1	0.29
33	0x3e999999	0.29999998
34	0x3e9eb852	0.31
35	0x3ea3d70a	0.32
36	0x3ea8f5c2	0.32999998
37	0x3eae147b	0.34
38	0x3eb33333	0.35
39	0x3eb851eb	0.35999998
40	0x3ebd70a4	0.37
41	0x3ec28f5c	0.38
42	0x3ec7ae14	0.39
43	0x3ecccccc	0.39999998
44	0x3ed1eb85	0.41
45	0x3ed70a3d	0.42
46	0x3edc28f5	0.42999998
47	0x3ee147ae	0.44
48	0x3ee66666	0.45
49	0x3eeb851e	0.45999998
50	0x3ef0a3d7	0.47
51	0x3ef5c28f	0.48
52	0x3efae147	0.48999998
53	0x3f000000	0.5
54	0x3f028f5c	0.51
55	0x3f051eb8	0.52
56	0x3f07ae14	0.53
57	0x3f0a3d70	0.53999996
58	0x3f0ccccd	0.55
59	0x3f0f5c29	0.56
60	0x3f11eb85	0.57
61	0x3f147ae1	0.58
62	0x3f170a3d	0.59
63	0x3f199999	0.59999996
64	0x3f1c28f6	0.61
65	0x3f1eb852	0.62
66	0x3f2147ae	0.63
67	0x3f23d70a	0.64
68	0x3f266666	0.65
69	0x3f28f5c2	0.65999997
70	0x3f2b851e	0.66999996
71	0x3f2e147b	0.68
72	0x3f30a3d7	0.69
73	0x3f333333	0.7
74	0x3f35c28f	0.71
75	0x3f3851eb	0.71999997
76	0x3f3ae147	0.72999996
77	0x3f3d70a4	0.74
78	0x3f400000	0.75
79	0x3f428f5c	0.76
80	0x3f451eb8	0.77
81	0x3f47ae14	0.78
82	0x3f4a3d70	0.78999996
83	0x3f4ccccc	0.79999995
84	0x3f4f5c29	0.81
85	0x3f51eb85	0.82
86	0x3f547ae1	0.83
87	0x3f570a3d	0.84
88	0x3f599999	0.84999996
89	0x3f5c28f5	0.85999995
90	0x3f5eb852	0.87
91	0x3f6147ae	0.88
92	0x3f63d70a	0.89
93	0x3f666666	0.9
94	0x3f68f5c2	0.90999997
95	0x3f6b851e	0.91999996
96	0x3f6e147b	0.93
97	0x3f70a3d7	0.94
98	0x3f733333	0.95
99	0x3f75c28f	0.96
100	0x3f7851eb	0.96999997
101	0x3f7ae147	0.97999996
102	0x3f7d70a3	0.98999995
103	0x3f800000	1.0
104	0x3f8147ae	1.01
105	0x3f828f5c	1.02
106	0x3f83d70a	1.03
107	0xbcf5c28f	-0.03
108	0xbca3d70a	-0.02
109	0xbc23d70a	-0.01
110	0x00000000	0.0
111	0x3c23d70a	0.01
112	0x3ca3d70a	0.02
113	0x3cf5c28f	0.03
114	0x3d23d70a	0.04
115	0x3d4ccccc	0.049999997
116	0x3d75c28f	0.06
117	0x3d8f5c29	0.07
118	0x3da3d70a	0.08
119	0x3db851eb	0.089999996
120	0x3dcccccc	0.099999994
121	0x3de147ae	0.11
122	0x3df5c28f	0.12
123	0x3e051eb8	0.13
124	0x3e0f5c29	0.14
125	0x3e199999	0.14999999
126	0x3e23d70a	0.16
127	0x3e2e147b	0.17
128	0x3e3851eb	0.17999999
129	0x3e428f5c	0.19
130	0x3e4ccccc	0.19999999
131	0x3e570a3d	0.21
132	0x3e6147ae	0.22
133	0x3e6b851e	0.22999999
134	0x3e75c28f	0.24
135	0x3e800000	0.25
136	0x3e851eb8	0.26
137	0x3e8a3d70	0.26999998
138	0x3e8f5c29	0.28
139	0x3e947ae1	0.29
140	0x3e999999	0.29999998
141	0x3e9eb852	0.31
142	0x3ea3d70a	0.32
143	0x3ea8f5c2	0.32999998
144	0x3eae147b	0.34
145	0x3eb33333	0.35
146	0x3eb851eb	0.35999998
147	0x3ebd70a4	0.37
148	0x3ec28f5c	0.38
149	0x3ec7ae14	0.39
150	0x3ecccccc	0.39999998
151	0x3ed1eb85	0.41
152	0x3ed70a3d	0.42
153	0x3edc28f5	0.42999998
154	0x3ee147ae	0.44
155	0x3ee66666	0.45
156	0x3eeb851e	0.45999998
157	0x3ef0a3d7	0.47
158	0x3ef5c28f	0.48
159	0x3efae147	0.48999998
160	0x3f000000	0.5
161	0x3f028f5c	0.51
162	0x3f051eb8	0.52
163	0x3f07ae14	0.53
164	0x3f0a3d70	0.53999996
165	0x3f0ccccd	0.55
166	0x3f0f5c29	0.56
167	0x3f11eb85	0.57
168	0x3f147ae1	0.58
169	0x3f170a3d	0.59
170	0x3f199999	0.59999996
171	0x3f1c28f6	0.61
172	0x3f1eb852	0.62
173	0x3f2147ae	0.63
174	0x3f23d70a	0.64
175	0x3f266666	0.65
176	0x3f28f5c2	0.65999997
177	0x3f2b851e	0.66999996
178	0x3f2e147b	0.68
179	0x3f30a3d7	0.69
180	0x3f333333	0.7
181	0x3f35c28f	0.71
182	0x3f3851eb	0.71999997
183	0x3f3ae147	0.72999996
184	0x3f3d70a4	0.74
185	0x3f400000	0.75
186	0x3f428f5c	0.76
187	0x3f451eb8	0.77
188	0x3f47ae14	0.78
189	0x3f4a3d70	0.78999996
190	0x3f4ccccc	0.79999995
191	0x3f4f5c29	0.81
192	0x3f51eb85	0.82
193	0x3f547ae1	0.83
194	0x3f570a3d	0.84
195	0x3f599999	0.84999996
196	0x3f5c28f5	0.85999995
197	0x3f5eb852	0.87
198	0x3f6147ae	0.88
199	0x3f63d70a	0.89
200	0x3f666666	0.9
201	0x3f68f5c2	0.90999997
202	0x3f6b851e	0.91999996
203	0x3f6e147b	0.93
204	0x3f70a3d7	0.94
205	0x3f733333	0.95
206	0x3f75c28f	0.96
207	0x3f7851eb	0.96999997
208	0x3f7ae147	0.97999996
209	0x3f7d70a3	0.98999995
210	0x3f800000	1.0
211	0x3f8147ae	1.01
212	0x3f828f5c	1.02
213	0x3f83d70a	1.03
214	0xbcf5c28f	-0.03
215	0xbca3d70a	-0.02
216	0xbc23d70a	-0.01
217	0x00000000	0.0
218	0x3c23d70a	0.01
219	0x3ca3d70a	0.02
220	0x3cf5c28f	0.03
221	0x3d23d70a	0.04
222	0x3d4ccccc	0.049999997
223	0x3d75c28f	0.06
224	0x3d8f5c29	0.07
225	0x3da3d70a	0.08
226	0x3db851eb	0.089999996
227	0x3dcccccc	0.099999994
228	0x3de147ae	0.11
229	0x3df5c28f	0.12
230	0x3e051eb8	0.13
231	0x3e0f5c29	0.14
232	0x3e199999	0.14999999
233	0x3e23d70a	0.16
234	0x3e2e147b	0.17
235	0x3e3851eb	0.17999999
236	0x3e428f5c	0.19
237	0x3e4ccccc	0.19999999
238	0x3e570a3d	0.21
239	0x3e6147ae	0.22
240	0x3e6b851e	0.22999999
241	0x3e75c28f	0.24
242	0x3e800000	0.25
243	0x3e851eb8	0.26
244	0x3e8a3d70	0.26999998
245	0x3e8f5c29	0.28
246	0x3e947ae1	0.29
247	0x3e999999	0.29999998
248	0x3e9eb852	0.31
249	0x3ea3d70a	0.32
250	0x3ea8f5c2	0.32999998
251	0x3eae147b	0.34
252	0x3eb33333	0.35
253	0x3eb851eb	0.35999998
254	0x3ebd70a4	0.37
255	0x3ec28f5c	0.38

layers.2.base_weight f4 [1, 15]
0	0xbe6577c2	-0.22408965
1	0x3e042f08	0.12908566
2	0x3e1e6290	0.15467286
3	0x3e3040ea	0.17212263
4	0x3e47c344	0.19508082
5	0xbdb737a8	-0.089461625
6	0x3df0e679	0.11762709
7	0x3c063f0b	0.008193742
8	0x3e70ff9f	0.23535012
9	0x3e911075	0.28332868
10	0xbe308fee	-0.17242405
11	0x3de480d9	0.11157388
12	0x3e9f0727	0.31060144
13	0xbe569ae0	-0.20957518
14	0xbe58a01a	-0.21154824

layers.2.spline_weight f4 [1, 15, 103]
0	0xbc41fc90	-0.011840001
1	0xbc1862af	-0.009300872
2	0xbbe56285	-0.00700027
3	0xb9ef1b4d	-0.00045605973
4	0x3940bf4d	0.00018381812
5	0xba184a9f	-0.0005809459
6	0x3a45bee0	0.0007543396
7	0x39ee3f52	0.00045442075
8	0xb9af4f34	-0.00033437612
9	0x39b59cc2	0.00034639804
10	0xb9521e17	-0.0002003837
11	0x397fade1	0.0002438347
12	0x3915565f	0.00014241923
13	0x39cfd495	0.00039640503
14	0x3a0b97c2	0.0005325043
15	0xb9b8f107	-0.00035274794
16	0x38321ae7	4.2463562e-05
17	0xb97c9b41	-0.0002409043
18	0x3a1b049d	0.0005913468
19	0xba5c3161	-0.0008399692
20	0x3a3fd0ab	0.0007317166
21	0xba4d4af4	-0.0007831298
22	0x3a1ac845	0.0005904476
23	0xb95a34b5	-0.00020809735
24	0xba16c30a	-0.0005751109
25	0x39f3a77a	0.00046473352
26	0xb936f0f1	-0.0001744663
27	0xb9afa720	-0.0003350312
28	0x3a748746	0.00093280186
29	0xba1be432	-0.00059467845
30	0x38ff1059	0.000121623925
31	0xb8b666a6	-8.697556e-05
32	0xb9d34341	-0.00040295164
33	0xba0b637f	-0.0005317255
34	0x398b414e	0.00026560802
35	0x3a4ccaf2	0.00078122236
36	0xba573312	-0.0008209209
37	0x393d71e9	0.0001806688
38	0x39538711	0.00020172844
39	0x3a186c66	0.00058144925
40	0xba66c68f	-0.0008803391
41	0x3a3c8738	0.000719178
42	0x394a1331	0.0001927137
43	0xb9392e8c	-0.00017660315
44	0xb9bc2f06	-0.0003589319
45	0x389e3ac4	7.544973e-05
46	0xba04a28d	-0.00050596223
47	0x39f9736b	0.00047578974
48	0x3a2661c0	0.00063469633
49	0xba3b6452	-0.0007148433
50	0x3a47897c	0.00076117343
51	0x3a145646	0.00056586077
52	0xba3cfb25	-0.00072090543
53	0x398b5732	0.00026577112
54	0xba2897fe	-0.000643134
55	0xb99e1852	-0.00030154228
56	0xb8ff8f98	-0.00012186094
57	0xb8a1774f	-7.699301e-05
58	0x3a028c7c	0.000498004
59	0xba5a8ad2	-0.0008336726
60	0xb70beaad	-8.339685e-06
61	0xb9bfc8a3	-0.00036579845
62	0x3a6eddf5	0.00091120537
63	0xb9a71ef4	-0.00031875784
64	0x3a5f5758	0.000851979
65	0xb98eda5e	-0.00027247047
66	0x3a41c8ad	0.0007392269
67	0xba3a02a0	-0.0007095728
68	0x394b993c	0.00019416673
69	0x3979bdbb	0.0002381717
70	0xb9b9e6bf	-0.0003545787
71	0xba1eee63	-0.0006062744
72	0x39afc9ee	0.0003352905
73	0xb9d844b5	-0.0004124992
74	0xb9df1b5f	-0.00042554268
75	0xb9757612	-0.00023409005
76	0x39866aae	0.00025637954
77	0xb908c552	-0.00013043478
78	0xb9b50b52	-0.00034531445
79	0xba311cf2	-0.00067563273
80	0x3a792295	0.00095037493
81	0xba116ccb	-0.00055475225
82	0x3a196528	0.000585156
83	0xb9c888f8	-0.00038249022
84	0xb892a881	-6.993209e-05
85	0x39ea0606	0.00044636446
86	0x39dd43cc	0.00042202917
87	0xb9eaae4e	-0.00044761825
88	0xb9ae02e9	-0.00033190034
89	0xba0c7068	-0.0005357326
90	0x36b23001	5.310402e-06
91	0xb9ba3dd9	-0.00035522765
92	0x396aa552	0.00022377566
93	0x39a85068	0.00032103364
94	0xba00b5e5	-0.0004909917
95	0xba39d484	-0.0007088857
96	0x3a3b4fb2	0.00071453594
97	0x39f45f77	0.00046610433
98	0x36f3e1c3	7.2682465e-06
99	0x3944fd81	0.00018786454
100	0xba2cad99	-0.00065871474
101	0x3a15a206	0.00057080423
102	0x39560ee0	0.00020414172
103	0x3cd52d34	0.026022531
104	0x3cdbcde9	0.026831584
105	0x3ca3a3cb	0.019975564
106	0x3c886614	0.016650237
107	0x3cbcfdf9	0.023070322
108	0x3ce0554f	0.027384428
109	0x3cf74c08	0.030187622
110	0x3d010e1f	0.031507608
111	0x3d0b0302	0.033938415
112	0x3d16b3b4	0.036792472
113	0x3d3eaff8	0.046554536
114	0x3d96efed	0.07369981
115	0x3dcd448e	0.100228414
116	0x3e146579	0.14491834
117	0x3e502b39	0.20328988
118	0x3e67faaf	0.22654222
119	0x3e317923	0.17331366
120	0xbcf06dfd	-0.029349321
121	0xbea6d39c	-0.3258332
122	0xbf26f5c8	-0.6521878
123	0xbf182b35	-0.5944093
124	0xbf423c31	-0.75873095
125	0xbee6bf1d	-0.45067683
126	0xbfa56812	-1.2922385
127	0x3f8272a4	1.0191236
128	0x00000000	0.0
129	0x00000000	0.0
130	0x00000000	0.0
131	0x00000000	0.0
132	0x00000000	0.0
133	0x00000000	0.0
134	0x00000000	0.0
135	0x00000000	0.0
136	0x00000000	0.0
137	0x00000000	0.0
138	0x00000000	0.0
139	0x00000000	0.0
140	0x00000000	0.0
141	0x00000000	0.0
142	0x00000000	0.0
143	0x00000000	0.0
144	0x00000000	0.0
145	0x00000000	0.0
146	0x00000000	0.0
147	0x00000000	0.0
148	0x00000000	0.0
149	0x00000000	0.0
150	0x00000000	0.0
151	0x00000000	0.0
152	0x00000000	0.0
153	0x00000000	0.0
154	0x00000000	0.0
155	0x00000000	0.0
156	0x00000000	0.0
157	0x00000000	0.0
158	0x00000000	0.0
159	0x00000000	0.0
160	0x00000000	0.0
161	0x00000000	0.0
162	0x00000000	0.0
163	0x00000000	0.0
164	0x00000000	0.0
165	0x00000000	0.0
166	0x00000000	0.0
167	0x00000000	0.0
168	0x00000000	0.0
169	0x00000000	0.0
170	0x00000000	0.0
171	0x00000000	0.0
172	0x00000000	0.0
173	0x00000000	0.0
174	0x00000000	0.0
175	0x00000000	0.0
176	0x00000000	0.0
177	0x00000000	0.0
178	0x00000000	0.0
179	0x00000000	0.0
180	0x00000000	0.0
181	0x00000000	0.0
182	0x00000000	0.0
183	0x00000000	0.0
184	0x00000000	0.0
185	0x00000000	0.0
186	0x00000000	0.0
187	0x00000000	0.0
188	0x00000000	0.0
189	0x00000000	0.0
190	0x00000000	0.0
191	0x00000000	0.0
192	0x00000000	0.0
193	0x00000000	0.0
194	0x00000000	0.0
195	0x00000000	0.0
196	0x00000000	0.0
197	0x00000000	0.0
198	0x00000000	0.0
199	0x00000000	0.0
200	0x00000000	0.0
201	0x00000000	0.0
202	0x00000000	0.0
203	0x00000000	0.0
204	0x00000000	0.0
205	0x00000000	0.0
206	0xbc860042	-0.016357545
207	0xbc96df67	-0.018417073
208	0xbcb08f57	-0.021552725
209	0xbcd2624b	-0.025681635
210	0xbd1875df	-0.037221786
211	0xbd23ba28	-0.039972454
212	0xbc9edda1	-0.01939279
213	0xbb90aaf1	-0.004414909
214	0xbc45f3ec	-0.012082081
215	0xbcab0c1b	-0.020879796
216	0xbd01d522	-0.0316974
217	0xbd83c860	-0.06434703
218	0xbde5bfba	-0.112182096
219	0xbe1573fc	-0.14595026
220	0xbe553ca0	-0.20823908
221	0xbe8389d5	-0.25691095
222	0xbe64ecfe	-0.2235603
223	0x3dc9aece	0.098477945
224	0x3eb24d04	0.34824383
225	0x3e5d05e7	0.21584283
226	0x3e9918bd	0.29901686
227	0xbeb9f5d5	-0.36320367
228	0x3f430543	0.76179904
229	0x00000000	0.0
230	0x00000000	0.0
231	0x00000000	0.0
232	0x00000000	0.0
233	0x00000000	0.0
234	0x00000000	0.0
235	0x00000000	0.0
236	0x00000000	0.0
237	0x00000000	0.0
238	0x00000000	0.0
239	0x00000000	0.0
240	0x00000000	0.0
241	0x00000000	0.0
242	0x00000000	0.0
243	0x00000000	0.0
244	0x00000000	0.0
245	0x00000000	0.0
246	0x00000000	0.0
247	0x00000000	0.0
248	0x00000000	0.0
249	0x00000000	0.0
250	0x00000000	0.0
251	0x00000000	0.0
252	0x00000000	0.0
253	0x00000000	0.0
254	0x00000000	0.0
255	0x00000000	0.0

layers.2.spline_scaler f4 [1, 15]
0	0xbd9db4e8	-0.07700521
1	0x3eada7bf	0.33917043
2	0xbea156ea	-0.31511623
3	0xbed443af	-0.41457888
4	0xbeccb9c6	-0.39985484
5	0x3ed04362	0.4067641
6	0x3e67b53f	0.22627734
7	0x3e851969	0.2599595
8	0x3ed4370d	0.4144825
9	0xbeb769df	-0.3582296
10	0xbe5f22ae	-0.21790573
11	0x3e944c19	0.28964308
12	0xbe2e0206	-0.1699296
13	0x3e813e66	0.2524292
14	0xbdf91739	-0.121626325

layers.2.grid f4 [15, 107]
0	0xbcf5c28f	-0.03
1	0xbca3d70a	-0.02
2	0xbc23d70a	-0.01
3	0x00000000	0.0
4	0x3c23d70a	0.01
5	0x3ca3d70a	0.02
6	0x3cf5c28f	0.03
7	0x3d23d70a	0.04
8	0x3d4ccccc	0.049999997
9	0x3d75c28f	0.06
10	0x3d8f5c29	0.07
11	0x3da3d70a	0.08
12	0x3db851eb	0.089999996
13	0x3dcccccc	0.099999994
14	0x3de147ae	0.11
15	0x3df5c28f	0.12
16	0x3e051eb8	0.13
17	0x3e0f5c29	0.14
18	0x3e199999	0.14999999
19	0x3e23d70a	0.16
20	0x3e2e147b	0.17
21	0x3e3851eb	0.17999999
22	0x3e428f5c	0.19
23	0x3e4ccccc	0.19999999
24	0x3e570a3d	0.21
25	0x3e6147ae	0.22
26	0x3e6b851e	0.22999999
27	0x3e75c28f	0.24
28	0x3e800000	0.25
29	0x3e851eb8	0.26
30	0x3e8a3d70	0.26999998
31	0x3e8f5c29	0.28
32	0x3e947ae1	0.29
33	0x3e999999	0.29999998
34	0x3e9eb852	0.31
35	0x3ea3d70a	0.32
36	0x3ea8f5c2	0.32999998
37	0x3eae147b	0.34
38	0x3eb33333	0.35
39	0x3eb851eb	0.35999998
40	0x3ebd70a4	0.37
41	0x3ec28f5c	0.38
42	0x3ec7ae14	0.39
43	0x3ecccccc	0.39999998
44	0x3ed1eb85	0.41
45	0x3ed70a3d	0.42
46	0x3edc28f5	0.42999998
47	0x3ee147ae	0.44
48	0x3ee66666	0.45
49	0x3eeb851e	0.45999998
50	0x3ef0a3d7	0.47
51	0x3ef5c28f	0.48
52	0x3efae147	0.48999998
53	0x3f000000	0.5
54	0x3f028f5c	0.51
55	0x3f051eb8	0.52
56	0x3f07ae14	0.53
57	0x3f0a3d70	0.53999996
58	0x3f0ccccd	0.55
59	0x3f0f5c29	0.56
60	0x3f11eb85	0.57
61	0x3f147ae1	0.58
62	0x3f170a3d	0.59
63	0x3f199999	0.59999996
64	0x3f1c28f6	0.61
65	0x3f1eb852	0.62
66	0x3f2147ae	0.63
67	0x3f23d70a	0.64
68	0x3f266666	0.65
69	0x3f28f5c2	0.65999997
70	0x3f2b851e	0.66999996
71	0x3f2e147b	0.68
72	0x3f30a3d7	0.69
73	0x3f333333	0.7
74	0x3f35c28f	0.71
75	0x3f3851eb	0.71999997
76	0x3f3ae147	0.72999996
77	0x3f3d70a4	0.74
78	0x3f400000	0.75
79	0x3f428f5c	0.76
80	0x3f451eb8	0.77
81	0x3f47ae14	0.78
82	0x3f4a3d70	0.78999996
83	0x3f4ccccc	0.79999995
84	0x3f4f5c29	0.81
85	0x3f51eb85	0.82
86	0x3f547ae1	0.83
87	0x3f570a3d	0.84
88	0x3f599999	0.84999996
89	0x3f5c28f5	0.85999995
90	0x3f5eb852	0.87
91	0x3f6147ae	0.88
92	0x3f63d70a	0.89
93	0x3f666666	0.9
94	0x3f68f5c2	0.90999997
95	0x3f6b851e	0.91999996
96	0x3f6e147b	0.93
97	0x3f70a3d7	0.94
98	0x3f733333	0.95
99	0x3f75c28f	0.96
100	0x3f7851eb	0.96999997
101	0x3f7ae147	0.97999996
102	0x3f7d70a3	0.98999995
103	0x3f800000	1.0
104	0x3f8147ae	1.01
105	0x3f828f5c	1.02
106	0x3f83d70a	1.03
107	0xbcf5c28f	-0.03
108	0xbca3d70a	-0.02
109	0xbc23d70a	-0.01
110	0x00000000	0.0
111	0x3c23d70a	0.01
112	0x3ca3d70a	0.02
113	0x3cf5c28f	0.03
114	0x3d23d70a	0.04
115	0x3d4ccccc	0.049999997
116	0x3d75c28f	0.06
117	0x3d8f5c29	0.07
118	0x3da3d70a	0.08
119	0x3db851eb	0.089999996
120	0x3dcccccc	0.099999994
121	0x3de147ae	0.11
122	0x3df5c28f	0.12
123	0x3e051eb8	0.13
124	0x3e0f5c29	0.14
125	0x3e199999	0.14999999
126	0x3e23d70a	0.16
127	0x3e2e147b	0.17
128	0x3e3851eb	0.17999999
129	0x3e428f5c	0.19
130	0x3e4ccccc	0.19999999
131	0x3e570a3d	0.21
132	0x3e6147ae	0.22
133	0x3e6b851e	0.22999999
134	0x3e75c28f	0.24
135	0x3e800000	0.25
136	0x3e851eb8	0.26
137	0x3e8a3d70	0.26999998
138	0x3e8f5c29	0.28
139	0x3e947ae1	0.29
140	0x3e999999	0.29999998
141	0x3e9eb852	0.31
142	0x3ea3d70a	0.32
143	0x3ea8f5c2	0.32999998
144	0x3eae147b	0.34
145	0x3eb33333	0.35
146	0x3eb851eb	0.35999998
147	0x3ebd70a4	0.37
148	0x3ec28f5c	0.38
149	0x3ec7ae14	0.39
150	0x3ecccccc	0.39999998
151	0x3ed1eb85	0.41
152	0x3ed70a3d	0.42
153	0x3edc28f5	0.42999998
154	0x3ee147ae	0.44
155	0x3ee66666	0.45
156	0x3eeb851e	0.45999998
157	0x3ef0a3d7	0.47
158	0x3ef5c28f	0.48
159	0x3efae147	0.48999998
160	0x3f000000	0.5
161	0x3f028f5c	0.51
162	0x3f051eb8	0.52
163	0x3f07ae14	0.53
164	0x3f0a3d70	0.53999996
165	0x3f0ccccd	0.55
166	0x3f0f5c29	0.56
167	0x3f11eb85	0.57
168	0x3f147ae1	0.58
169	0x3f170a3d	0.59
170	0x3f199999	0.59999996
171	0x3f1c28f6	0.61
172	0x3f1eb852	0.62
173	0x3f2147ae	0.63
174	0x3f23d70a	0.64
175	0x3f266666	0.65
176	0x3f28f5c2	0.65999997
177	0x3f2b851e	0.66999996
178	0x3f2e147b	0.68
179	0x3f30a3d7	0.69
180	0x3f333333	0.7
181	0x3f35c28f	0.71
182	0x3f3851eb	0.71999997
183	0x3f3ae147	0.72999996
184	0x3f3d70a4	0.74
185	0x3f400000	0.75
186	0x3f428f5c	0.76
187	0x3f451eb8	0.77
188	0x3f47ae14	0.78
189	0x3f4a3d70	0.78999996
190	0x3f4ccccc	0.79999995
191	0x3f4f5c29	0.81
192	0x3f51eb85	0.82
193	0x3f547ae1	0.83
194	0x3f570a3d	0.84
195	0x3f599999	0.84999996
196	0x3f5c28f5	0.85999995
197	0x3f5eb852	0.87
198	0x3f6147ae	0.88
199	0x3f63d70a	0.89
200	0x3f666666	0.9
201	0x3f68f5c2	0.90999997
202	0x3f6b851e	0.91999996
203	0x3f6e147b	0.93
204	0x3f70a3d7	0.94
205	0x3f733333	0.95
206	0x3f75c28f	0.96
207	0x3f7851eb	0.96999997
208	0x3f7ae147	0.97999996
209	0x3f7d70a3	0.98999995
210	0x3f800000	1.0
211	0x3f8147ae	1.01
212	0x3f828f5c	1.02
213	0x3f83d70a	1.03
214	0xbcf5c28f	-0.03
215	0xbca3d70a	-0.02
216	0xbc23d70a	-0.01
217	0x00000000	0.0
218	0x3c23d70a	0.01
219	0x3ca3d70a	0.02
220	0x3cf5c28f	0.03
221	0x3d23d70a	0.04
222	0x3d4ccccc	0.049999997
223	0x3d75c28f	0.06
224	0x3d8f5c29	0.07
225	0x3da3d70a	0.08
226	0x3db851eb	0.089999996
227	0x3dcccccc	0.099999994
228	0x3de147ae	0.11
229	0x3df5c28f	0.12
230	0x3e051eb8	0.13
231	0x3e0f5c29	0.14
232	0x3e199999	0.14999999
233	0x3e23d70a	0.16
234	0x3e2e147b	0.17
235	0x3e3851eb	0.17999999
236	0x3e428f5c	0.19
237	0x3e4ccccc	0.19999999
238	0x3e570a3d	0.21
239	0x3e6147ae	0.22
240	0x3e6b851e	0.22999999
241	0x3e75c28f	0.24
242	0x3e800000	0.25
243	0x3e851eb8	0.26
244	0x3e8a3d70	0.26999998
245	0x3e8f5c29	0.28
246	0x3e947ae1	0.29
247	0x3e999999	0.29999998
248	0x3e9eb852	0.31
249	0x3ea3d70a	0.32
250	0x3ea8f5c2	0.32999998
251	0x3eae147b	0.34
252	0x3eb33333	0.35
253	0x3eb851eb	0.35999998
254	0x3ebd70a4	0.37
255	0x3ec28f5c	0.38
