KINN/non_homo/famous_paintings/models/model_PINNs_MLP.pth (torch, 166680 bytes, 5 tensors)

layer1.weight f4 [200, 2]
000000 f4 94 87 3d fd 98 fe 3e 3e ac 55 3f 7e 02 2e bf
       0.066202074 0.49726096 0.83465946 -0.6797255
000010 32 b9 d2 be e0 0c 8f be 4a a8 f1 be 39 e4 2b 3e
       -0.41156918 -0.2793951 -0.47198707 0.16786279
000020 da cd bd bc 57 da c0 3e af 77 00 bf 22 aa af 3d
       -0.023169447 0.3766658 -0.5018262 0.08577372
000030 a5 5a 02 bf c4 2b 92 3e bd a4 11 3f c7 00 d7 bd
       -0.5091956 0.28549016 0.56891996 -0.10498195
000040 00 da 8d be 0f ac 21 3f 98 22 e0 3e 59 b0 41 3e
       -0.27705383 0.63153166 0.43776393 0.18914928
000050 24 57 0e 3f cd 1c 1a 3f 4c 6f 52 3e d1 25 8b 3e
       0.55601716 0.60200197 0.20550269 0.2717729
000060 98 3a db be 1e f3 32 3d 61 84 d0 be 65 77 e2 3e
       -0.4281814 0.043688886 -0.40725997 0.44231716
000070 a5 dc 18 bf 02 9d 20 bf db ba 82 be d3 9e 29 bf
       -0.59711677 -0.62739575 -0.25533184 -0.6625797
000080 77 e9 47 3f 65 07 b2 3e 60 93 87 3e 3b d1 9c bd
       0.78090614 0.34771267 0.26479626 -0.07657095
000090 74 a7 86 3d 69 e9 dd be d9 3f 94 be 36 0a 23 3e
       0.06574908 -0.4334214 -0.28954962 0.15921864
0000a0 b3 2f 35 bf 60 a5 a3 bd df 9a 5a bd ac a3 bc 3e
       -0.7077591 -0.07990527 -0.053370353 0.36843622
0000b0 90 85 97 3f 32 da 75 3e d0 c5 cc bd e4 bb 33 3f
       1.1837635 0.24009016 -0.09998667 0.70208573
0000c0 aa 4e bf be 39 5c 60 3e 90 46 68 3e 1c d0 d4 be
       -0.37364703 0.2191018 0.22683167 -0.41565025
0000d0 e3 e2 b2 be 61 db fa 3d 40 6d a2 be ef fc 02 3c
       -0.34938726 0.122488745 -0.31723976 0.007994874
0000e0 f8 f3 3d 3f d5 ee b4 bd 21 89 b9 3e c3 6f 24 3f
       0.7420039 -0.08834616 0.36237434 0.64233035
0000f0 8f 55 e4 be f9 d9 1a bd 8b 33 b6 bb 78 3f 22 bf
       -0.44596526 -0.03780553 -0.0055603436 -0.63378096
000100 61 28 01 bf e0 c0 14 3f 57 23 41 bf a6 7c cd 3e
       -0.5045224 0.58106804 -0.7544455 0.40134162
000110 d3 83 e9 be 9e 64 2b be fc 58 2a bf 1d f1 49 3e
       -0.45608386 -0.16737601 -0.6654203 0.19720884
000120 55 60 1f 3f 5b 16 9d bd 9b ea a0 be dd 7a f3 be
       0.62256366 -0.076702796 -0.3142899 -0.47554675
000130 3e 3a 26 3f 61 2c 80 be 79 03 ea 3e a3 9a c1 be
       0.6493262 -0.25033858 0.45705774 -0.3781329
000140 97 67 83 3d 97 2c 73 3d b0 b1 45 bd b1 dc 1a bf
       0.064162426 0.059368696 -0.04826516 -0.60493
000150 da 8d 98 3e 10 e0 ab 3e 5e a8 6f be 87 8e 22 3f
       0.29795724 0.33569384 -0.2340407 0.6349873
000160 76 da 2e bd ca 2c af be 46 1e d3 be 35 98 6c be
       -0.04268881 -0.3421386 -0.41234034 -0.23104937
000170 4b 5b 37 3e 8d ec 1f bf 1b 06 d6 be 4e 6b 05 bf
       0.17905919 -0.6247032 -0.41801533 -0.5211686
000180 5a 48 c0 3c 34 dd 17 be de 18 5a bf 7c 65 ef 3d
       0.023472 -0.14830476 -0.85194194 0.116892785
000190 a7 2c e2 be 81 7e 8a 3d 19 bb c3 bd 8c 5e 98 be
       -0.44174692 0.0676241 -0.095571704 -0.29759634
0001a0 0f 09 18 bf 6a 2d af 3e 81 df 11 be e5 22 03 3f
       -0.5938882 0.34214336 -0.14245416 0.5122512
0001b0 68 6e 2f 3f 72 97 a3 3d b0 2f 0f be bb ff ab 3d
       0.6852784 0.0798787 -0.13983035 0.08398386
0001c0 29 3d 31 3f 51 07 31 bf f7 12 bc 3e 01 a5 21 bf
       0.6923395 -0.6915179 0.3673322 -0.631424
0001d0 e5 55 28 3f d9 f2 0d 3f 43 79 5f 3f 39 2b 95 bd
       0.65756065 0.5544868 0.87294406 -0.07283635
0001e0 bd 5a c0 3e 70 e3 0f bf c1 86 0e bf 07 46 10 bf
       0.37569228 -0.5620642 -0.5567437 -0.56356853
0001f0 db 78 09 3f 6d 48 a4 3e cc 7a 6a be d7 98 fa 3e
       0.53700036 0.32086506 -0.22898406 0.48944733
000200 db 5a ec be 02 67 cb 3e 8e 59 c8 3e b2 ff 71 3e
       -0.46163067 0.39727026 0.39130825 0.23632696
000210 f3 24 ec be 98 8a 1e 3f 9c 84 e0 3e 57 1b 41 be
       -0.4612194 0.6193023 0.43851173 -0.18858086
000220 4e a7 3c 3f a2 f9 eb be 7b 3e b9 3e 1c 4c ea 3e
       0.73692787 -0.46088892 0.3618048 0.45761192
000230 f2 cf 72 be 35 b1 12 bf b8 92 69 be f6 f1 17 bf
       -0.23712137 -0.57301646 -0.22809875 -0.5935358
000240 64 2c 15 bf 36 05 27 be b1 6e 6f be 4a 83 51 be
       -0.5827086 -0.16310582 -0.23382069 -0.20460239
000250 7b c3 ba 3e 55 7b 20 3f f0 15 02 3d f6 5c 95 bd
       0.36477265 0.6268819 0.031759202 -0.072931215
000260 92 ea 3f 3e 64 ab ae bd 87 c5 ca 3d b1 0c 27 3f
       0.18741825 -0.08528784 0.099009566 0.6525374
000270 48 b9 93 be ed 71 9f 3e 26 0b d1 3d c5 ca 08 3d
       -0.28852296 0.31141606 0.102072045 0.0333965
000280 36 32 20 3f ed 20 5f be 73 70 e0 be 9d ac 05 bf
       0.62576616 -0.21789904 -0.43835792 -0.5221651
000290 f1 5c 30 3e 77 8b 9f 3d b4 cf be be c2 3e 92 be
       0.17222954 0.07790273 -0.3726784 -0.28563505
0002a0 14 c1 0b bf eb e0 05 3c b7 b2 27 be c8 a8 a3 be
       -0.5459149 0.0081713 -0.16376768 -0.31964707
0002b0 8c e5 01 3f 82 d0 34 3e 2b 14 11 bf 0a ff 0d 3f
       0.50740886 0.17657664 -0.566714 0.55467284
0002c0 00 5f 29 3f 8a 3d c9 be 29 d2 13 3f 67 5f 28 be
       0.66160583 -0.39304763 0.57742554 -0.16442643
0002d0 be 2d 20 3f af 4c 16 3f 30 60 ac 3e 3a 9a 1e 3f
       0.625698 0.5871076 0.33667135 0.6195408
0002e0 93 ed fa 3e e9 18 85 bd 5d c6 ce 3e be 25 30 3f
       0.4900938 -0.06498892 0.40385714 0.6880759
0002f0 3c c4 cc 3e b7 9e 8b bc 7f a4 ea be c9 3e dd 3e
       0.39993465 -0.017043455 -0.45828626 0.43211964
000300 6a ac ed bd ca 58 1c bf ad f4 0e 3f 75 fb 97 be
       -0.11605151 -0.6107298 0.55842096 -0.29684034
000310 1d 89 10 3f 21 5e 22 be 1a 9b 64 be d2 83 0e 3f
       0.5645922 -0.1585622 -0.22324792 0.5566989
000320 75 7a 0f bf ae 6b 9d be 78 3f 31 3f 1d 30 10 bf
       -0.5604623 -0.30746216 0.6923747 -0.56323415
000330 94 ac 86 be 77 2a e1 be 3a 0e fa 3e 45 f9 79 be
       -0.26303542 -0.4397771 0.4883898 -0.24411495
000340 a2 b0 d6 be 0b 2e f6 be 0a aa a6 bd b8 46 25 bd
       -0.41931635 -0.48082003 -0.08137901 -0.040350646
000350 c0 73 8b be 46 b0 37 bf 8a 73 de 3d f1 06 ea be
       -0.27236748 -0.71753347 0.10861881 -0.4570842
000360 bf 60 13 3f 6c 8b f1 bd 51 38 0b 3f 15 e8 a5 bb
       0.575695 -0.11794171 0.54382807 -0.0050630667
000370 f8 eb b4 be 85 28 01 3f 86 d1 1b bf a8 79 0a bf
       -0.3533628 0.5045245 -0.6086658 -0.5409188
000380 35 b7 66 3d 4c d9 15 3b 17 1c cc 3e 8d 14 09 3f
       0.056327064 0.0022865115 0.3986518 0.53546983
000390 b0 6c b6 be 70 a9 06 3e d9 85 0f bf 02 79 34 3f
       -0.35629797 0.13150573 -0.5606361 0.70497143
0003a0 96 ce 5f 3e 76 d2 61 bf 7d 3a f0 3e 32 4a 81 be
       0.2185615 -0.8821176 0.46919623 -0.2525192
0003b0 15 ae ab be 17 1f 31 bd c6 84 af 3b 05 f9 ca be
       -0.33531252 -0.04324254 0.005356404 -0.39643112
0003c0 b6 ba 02 3e 14 7c 9a be ce 75 1b 3f ef 5a 99 be
       0.12766537 -0.3017279 0.6072663 -0.2995219
0003d0 a0 80 12 3e 94 80 0f 3f 27 2a e1 3e 23 4c 39 bf
       0.14306879 0.5605557 0.43977472 -0.723818
0003e0 32 61 31 3f 73 bf 99 bc b6 ab 1c bf 22 c8 5f bf
       0.69288933 -0.018768048 -0.6119951 -0.87414753
0003f0 ff 6f d6 3e 2e 21 cc be 76 57 ed 3e e1 cb 16 3f
       0.4188232 -0.39869064 0.4635579 0.58904845

layer1.bias f4 [200]
000000 72 d7 6a bd ca 6b 10 bf bf 36 1b bf fb 88 2f 3e
       -0.05733437 -0.56414473 -0.6063041 0.17142098
000010 43 34 c0 3d 2e 55 e3 3e 3a f3 24 3f 62 23 37 3f
       0.09384968 0.44400924 0.64433634 0.71538365
000020 eb c6 61 be b8 31 5e be 1b c6 0b be 3c 88 0a 3f
       -0.22048537 -0.21698654 -0.1364979 0.5411413
000030 81 85 2c bf b5 de 15 bf 34 14 55 3e 50 07 a0 3d
       -0.6739121 -0.5854295 0.20808488 0.07813895
000040 56 27 05 bf e0 42 94 3e 1f 7c 15 bf f6 c0 9c bc
       -0.52013147 0.28957272 -0.5839252 -0.01913498
000050 e2 41 04 3e 5e 2e 81 3e 46 d2 74 be b5 67 0f 3d
       0.12915757 0.25230688 -0.23908338 0.035011012
000060 91 93 99 be 85 4a 27 bf 97 9e a8 be d9 da f4 bd
       -0.29995397 -0.6534808 -0.32933494 -0.119558044
000070 4d 7f d4 3e 38 73 c1 be 02 a7 19 bf 78 db 11 3d
       0.41503373 -0.37783217 -0.6002046 0.035609692
000080 84 24 e7 3e 98 37 00 3f f8 93 11 3f 7c ab 76 bd
       0.45145047 0.5008483 0.5686641 -0.060222134
000090 cd 95 88 be a3 d5 0f 3f 34 13 1d 3e 51 7e 27 3f
       -0.2667679 0.5618536 0.15339357 0.6542712
0000a0 a6 58 92 3d ba 9c 29 be 07 ce 17 bf 56 64 b2 3e
       0.071458146 -0.16563693 -0.5929875 0.34842175
0000b0 de 8b c7 3e 0d 8e 5b 3e 5c 67 65 bd fe 69 de be
       0.38973898 0.21440907 -0.056006774 -0.4344024
0000c0 11 f5 26 3f dc 38 8f 3e e6 59 f9 bd 15 21 3d be
       0.6521769 0.27973068 -0.1217535 -0.18469651
0000d0 75 74 c4 3e 5d 6c 0f bf 5e 71 2d 3f 5b 4a 0d bf
       0.383701 -0.56024724 0.6775111 -0.5519158
0000e0 7f 21 9b bd 42 2c 00 be ec 4f eb be f8 5d 32 be
       -0.07574748 -0.12516883 -0.45959413 -0.17418659
0000f0 44 e4 0f bf 6d 42 25 bf db f1 1f bf 12 df 9f 3d
       -0.5620768 -0.6455448 -0.6247842 0.07806219
000100 39 15 90 be 70 49 f4 be c1 17 fd be a9 5b 88 3a
       -0.28141192 -0.47712278 -0.49432185 0.0010403293
000110 0a 41 1b be 33 e7 1c bf bd 14 be be 19 20 9e be
       -0.15161529 -0.6129028 -0.37125197 -0.30883864
000120 bf 3d 16 bd c1 4e 2a 3f 05 b0 24 be fb b5 1c 3f
       -0.03667998 0.6652642 -0.16082771 0.6121518
000130 7a 1f fc 3e 80 4e 7b be b5 70 35 3e f7 bc d8 be
       0.49242765 -0.24541664 0.17718776 -0.4233167
000140 e5 d6 86 be f0 6a d9 be d4 31 50 3e 3a 87 db be
       -0.26335827 -0.424644 0.20331508 -0.42876607
000150 cc cd bc be 53 04 eb bc ce 8f 13 3f 2c 7d 09 bf
       -0.3687576 -0.028688585 0.57641304 -0.5370662
000160 3c 22 8f be 00 93 a7 be 3a ee 1f be 6a 0b 00 3d
       -0.27955806 -0.3272934 -0.1561822 0.031260885
000170 c7 a1 cb be 82 45 0f bf 87 05 0e 3d 5b 29 86 be
       -0.39771864 -0.55965436 0.03467324 -0.26203427
000180 8a fa 6c be f0 e3 90 3e 3a 4c 69 3e c8 37 05 3f
       -0.23142448 0.28298903 0.22782984 0.5203824
000190 00 79 fd be e1 85 ee be 8d 09 62 be d8 14 25 bf
       -0.49506378 -0.46586516 -0.22073956 -0.6448493
0001a0 69 08 bd 3e c6 b0 fa 3e c0 16 e9 bc 4c 2f 02 3f
       0.3692048 0.48962992 -0.02845323 0.5085342
0001b0 c8 f4 50 be d8 0c 55 be 4b 4b f1 3e 3e 9e d6 be
       -0.20405877 -0.20805681 0.47127756 -0.41917604
0001c0 16 4b df 3e a8 a5 f0 bd d4 c7 66 be f7 73 da be
       0.43611974 -0.117503464 -0.22537166 -0.426666
0001d0 35 d7 c5 3e 82 1e 23 3c 10 db 86 be 8f a2 f5 3e
       0.38640752 0.009956004 -0.26339006 0.47975585
0001e0 44 7e df be f2 97 30 3f 8b b5 fc 3e bc 1a ae 3e
       -0.4365102 0.6898185 0.49357256 0.34004772
0001f0 aa 5d fd 3e 3f d4 24 3f 86 b2 32 bf 1e 33 85 be
       0.49485523 0.6438636 -0.69803655 -0.26015562
000200 0a 9f fb 3e 3a 63 2b bf df 40 88 bd f5 f3 07 bf
       0.49144775 -0.6694828 -0.06652998 -0.53106624
000210 fc 57 23 be 89 07 bc 3d 78 b6 cc be 2d 34 e4 be
       -0.15951532 0.09181125 -0.39982963 -0.44571057
000220 8c e6 30 bf 97 ef a6 be 5f 11 69 be 21 18 00 3f
       -0.69101787 -0.32604668 -0.22760533 0.5003682
000230 f6 59 57 be dc 29 3b 3d 55 1b 9e 3e 3a 7e 07 3f
       -0.21030411 0.045694217 0.30880228 0.5292698
000240 b9 4d 30 bf 8e 5c a9 3d 54 bf 61 3e 57 1a 09 bf
       -0.68868595 0.082696065 0.22045642 -0.53555816
000250 3c 83 0e 3f 5a 67 28 bf b7 ae d2 be 5d f2 0d 3f
       0.55669 -0.657827 -0.41148922 0.5544794
000260 47 33 38 3e 08 a6 2e be cf 4b 24 bf 5f 44 1a bf
       0.17988311 -0.17055523 -0.64178175 -0.60260576
000270 34 66 52 bd ca 20 16 3f a4 3f f4 3e ce 3e c9 be
       -0.051367 0.5864378 0.47704804 -0.3930573
000280 6a 0f 08 bf 85 4a 7a bd 29 a4 1d 3f be 01 61 3d
       -0.5314852 -0.061106224 0.61578614 0.054933302
000290 53 ec 30 bf 82 a2 18 3f af 83 07 3e b6 1b e1 bd
       -0.691106 0.5962297 0.13233827 -0.109916136
0002a0 14 69 f0 be 8b e5 0e bf 5a 2a a9 3e 29 80 01 be
       -0.46955168 -0.55819005 0.33040124 -0.12646545
0002b0 da 8b b6 3e c7 f9 6f 3e f9 d3 e8 be 42 e6 81 3c
       0.35653573 0.23435126 -0.45474222 0.015856866
0002c0 6a a8 95 3e a8 fc 2d bf de 5e b4 be ac a3 b5 3e
       0.29230052 -0.6796365 -0.35228628 0.35476434
0002d0 3a c5 ee bc 9a 93 89 bd 2a 3e 1e 3f 4d 5a 49 3b
       -0.02914678 -0.06717606 0.61813605 0.003072399
0002e0 31 f7 90 be c7 89 15 3f b0 05 05 3f d0 8b 8a be
       -0.28313592 0.58413357 0.51961803 -0.27059793
0002f0 c9 e3 08 bf 26 ad e5 3d 05 b2 d5 be ec 41 0e bf
       -0.5347257 0.11214666 -0.4173738 -0.5556934
000300 a0 c1 0c 3f fe 63 34 bf 7d 7a 07 3f 8e 4c 26 bf
       0.5498295 -0.70465076 0.5292128 -0.64960563
000310 c3 a1 22 3f 10 36 db be 5c c1 e0 3e 92 5f 1b be
       0.6352808 -0.42814684 0.43897521 -0.15173176

layer2.weight f4 [200, 200]
000000 c6 09 43 bd 7f 2e 59 bc 88 c2 92 bd 43 2d 9b 3d
       -0.047616743 -0.013255714 -0.0716601 0.07576992
000010 e0 a9 02 bd 5a 19 c1 bb 2b c8 e4 bc 32 43 68 3d
       -0.031900287 -0.0058929147 -0.027927479 0.056704707
000020 76 90 04 3d 10 ec 11 bc 32 31 ef 3c ee 6b 4d 3d
       0.03236433 -0.008906379 0.029198263 0.050151758
000030 44 2f 92 bc ce 80 22 bd 4e 4c 87 bd 8a ff 66 bd
       -0.017844804 -0.03967362 -0.06606351 -0.056396045
000040 d6 2f 43 bd fc 52 07 3d 42 33 80 3d 7c a9 02 bd
       -0.04765304 0.033038124 0.06259777 -0.031899914
000050 46 48 44 3d be b1 1d 3b cd cf 78 bd 8a 91 20 3d
       0.047920488 0.0024062241 -0.06074505 0.039201297
000060 84 56 86 3d a6 7c 46 3d 9d 91 0e 3c 2e 72 07 bd
       0.0655947 0.048458718 0.008701709 -0.033067875
000070 a4 43 8a 3d 79 3d 97 bc c5 74 9d bc f5 15 01 bc
       0.06751183 -0.01846193 -0.01922072 -0.00787877
000080 4f 04 3c bd 41 47 02 bd a0 c7 21 bd c2 2e 2d bc
       -0.045902546 -0.031806234 -0.039497018 -0.01057023
000090 53 2f 6a 3d fd 6a 78 bd 04 c3 92 bc ce 99 ce bb
       0.05717404 -0.060648907 -0.017915256 -0.006304956
0000a0 77 eb 05 3d ea cd 65 3d 21 27 6c 3d 77 3c 0b 3c
       0.03269526 0.056104578 0.057654504 0.008498303
0000b0 3f 64 0a bd a6 af 62 3d 3f e4 6d bd 81 c3 5c bd
       -0.03378701 0.055343293 -0.058079 -0.053897385
0000c0 5a 22 57 bd e8 59 03 bd 3b 9f c4 3b ae cd 2f bd
       -0.052522995 -0.032068163 0.006000427 -0.04292076
0000d0 62 89 92 3d 2f d6 8c bc 8b 87 20 bd 79 d0 5b 3c
       0.0715511 -0.017191974 -0.039191764 0.013416403
0000e0 01 8e 13 bb 2d 95 f8 3c 55 0f eb bc a1 78 d3 bd
       -0.002251506 0.03034457 -0.028693834 -0.103257425
0000f0 2f 3f 7e bd 7b b3 1d 3d f8 0b ec 3c a0 d0 46 3d
       -0.062071975 0.038501244 0.0288143 0.048538804
000100 b4 67 23 3d 8e 32 5e 3d a6 b5 c6 3b e1 a0 6b bd
       0.03989382 0.05424743 0.0060641346 -0.057526473
000110 04 c9 ab bd 41 9f bf 3b 15 6d 68 bd 76 a9 80 3d
       -0.0838795 0.005847842 -0.056744654 0.06282322
000120 9e 3a 31 bd c2 3c 82 3d 21 58 28 3d e8 3b ce 3c
       -0.043268792 0.06359245 0.04109967 0.02517505
000130 57 03 6d bd a7 fa a7 3b 83 6f 4c 3d 76 df 2f 3d
       -0.057864513 0.0051263156 0.049911033 0.04293772
000140 30 39 e6 bc d9 da d6 3a 08 26 85 bd d1 1a 97 bc
       -0.028103441 0.0016392126 -0.065013945 -0.018445404
000150 8d 38 93 bc 7f 8a 19 bd dd ff 8f 3d 3c a0 8e 3d
       -0.017971301 -0.037485596 0.07031224 0.06964156
000160 95 e4 02 3d a4 20 38 3d 81 ee a7 bc d7 cd e7 bb
       0.031956274 0.044953004 -0.02049947 -0.0070740986
000170 97 df e1 3b 47 98 76 bd 42 ff 21 3d 03 0b 00 bc
       0.006893109 -0.060203817 0.039550073 -0.007815125
000180 ae ce 1a 3b 41 7d 8c bd d8 47 57 3d 6a 6b 80 3d
       0.0023621726 -0.06859828 0.05255875 0.062704876
000190 85 a9 fd bc 5a 16 44 bd c6 84 37 3a 58 93 40 3c
       -0.030964622 -0.04787288 0.0007000681 0.0117538795
0001a0 74 c9 9d bd f8 4a 06 bc fd 93 3c bd db ac 72 3d
       -0.0770444 -0.008196585 -0.04603957 0.05924688
0001b0 3e d8 b2 3c a1 f7 87 bd ce 05 50 bd 00 fc 07 bd
       0.021831628 -0.06639028 -0.050786786 -0.03319931
0001c0 3a 1b 80 3d 99 02 4e 3d ca 4d 82 3c ba 5e 87 3d
       0.06255193 0.050295446 0.015906233 0.066098645
0001d0 5d a1 4a bd 8c 45 5b 3d ab 6e b5 3c 6a 23 0e 3d
       -0.049470294 0.053533122 0.022147497 0.034701742
0001e0 41 0e d7 3c c7 4c db 3b ce 65 4a bd 79 26 07 bc
       0.026251914 0.006692502 -0.049413495 -0.008248919
0001f0 81 0f 8c bd 9f e0 ad 3c bc 5c 04 bd 13 09 49 3d
       -0.06838895 0.021225272 -0.032315 0.04908092
000200 29 5e 76 bd 0c bd 5f 3d 4a f1 33 3d 44 54 ff 3c
       -0.060148392 0.05462365 0.043931283 0.03116811
000210 5c 59 7f 3d e3 ef 7d 3d 66 44 a3 3b 0b 90 47 3d
       0.06234108 0.061996352 0.004982519 0.048721354
000220 e5 d3 fb 3c e4 0f ad 3c 1d 05 14 bb b7 4d bb 3c
       0.030740688 0.021125741 -0.0022586056 0.022864206
000230 62 41 e9 3a d5 42 36 3d d3 60 49 bc cf 5a 42 bd
       0.0017795975 0.04449733 -0.012291151 -0.047449883
000240 33 69 27 bd c7 b3 80 3d a9 d3 91 bd a9 a4 79 3d
       -0.04087181 0.0628429 -0.07120449 0.060948048
000250 c3 62 18 bd e8 0f 91 3c 09 82 3b 3d 62 99 32 3b
       -0.03720356 0.01770778 0.045778308 0.0027252068
000260 cc 20 86 bd 4d 11 ad bc 26 6a a0 3c 54 a9 4a 3d
       -0.06549224 -0.021126414 0.019581866 0.04947789
000270 16 70 0f bd 18 11 dc bc a8 3b 35 bc 9c 84 81 bd
       -0.035019003 -0.02686362 -0.011061586 -0.06324121
000280 03 bb 36 bd 36 b9 3a 3d 01 43 63 bd 4f f5 2c bd
       -0.044611942 0.045586787 -0.05548382 -0.042226132
000290 eb 05 28 bd dd 34 0b bd 98 8c 81 3d 6a 16 74 bd
       -0.04102127 -0.03398596 0.06325644 -0.05959169
0002a0 e4 06 65 3d 3a d5 4e 3c a4 f1 97 3c 1e 47 57 3c
       0.055914775 0.012624079 0.01854784 0.013139514
0002b0 5a ad ef bc 8b 2d 5d 3c c8 05 23 bd 4c 9e 31 3d
       -0.029257465 0.013499628 -0.039800435 0.043363854
0002c0 86 17 45 3b cf b9 88 bd ec 95 8f bd 36 2b 72 3b
       0.0030073836 -0.06676065 -0.07011017 0.0036952025
0002d0 5e 65 02 3d 17 29 6a bc a7 31 7a bd 1a 74 33 bd
       0.031834953 -0.014292023 -0.06108251 -0.043811895
0002e0 52 e0 82 bd 3e 61 3a 3d 5e c3 81 bd 40 e9 8e 3b
       -0.06390442 0.045502894 -0.063360915 0.0043613017
0002f0 e7 4b 91 bb 4b 66 87 3d ce 93 0c bd 45 9e 00 3c
       -0.004434097 0.06611308 -0.034320645 0.007850234
000300 c5 9b 00 3d 86 95 3a 3d f9 30 e0 bc c5 31 4c 3d
       0.031398553 0.045552753 -0.027367102 0.04985215
000310 d1 12 d2 bc c1 a7 dd 3c 65 30 92 3d 42 32 72 bd
       -0.025643738 0.02705753 0.07138137 -0.05912996
000320 cc 36 07 bd 41 10 96 3d 60 20 49 3d d1 fc 82 3d
       -0.033011243 0.07327319 0.04910314 0.06395877
000330 37 a7 2a 3c 3d 15 55 3d a1 f7 2c 3d 86 b0 e0 bc
       0.010415844 0.052022208 0.042228345 -0.027427923
000340 9d 28 4c 3d a4 16 db 3c 75 f1 4d 3d 86 ad ae 3b
       0.04984342 0.026744194 0.0502791 0.005330744
000350 5c 15 29 bd cf 21 59 3c 1b 29 7f 3c c6 dc 53 bd
       -0.041280136 0.0132526895 0.015573765 -0.051724218
000360 17 f3 58 bd 8e 50 3e 3a 7b 85 63 3d db 15 59 bc
       -0.052966204 0.00072599284 0.05554722 -0.01324984
000370 23 3f 6f 3d 63 ca 5e 3d 78 20 85 bd 00 40 91 bb
       0.05840982 0.05439223 -0.065003335 -0.004432678
000380 07 dc 6c bd d8 51 6d 3c 1a 39 87 bc 86 69 6b 3d
       -0.057827022 0.014484845 -0.01650672 0.057473682
000390 9d 99 3a bd 75 0a 14 bd 6c 52 fa bc 2d fd 89 bd
       -0.045556653 -0.036142785 -0.03055688 -0.067377426
0003a0 54 89 16 3d 1b fe 1a bc 94 4c 34 bd aa 1f 5f bc
       0.03675206 -0.0094599975 -0.044018343 -0.013618389
0003b0 80 47 1d 3c 38 f0 cf bc a2 0f 61 bd c6 3b ff 3c
       0.009599566 -0.0253831 -0.05494655 0.031156432
0003c0 44 c8 1e 3d e8 05 38 bd 40 9b 36 bb 40 eb fb bb
       0.038765207 -0.044927508 -0.0027863532 -0.007687956
0003d0 31 35 24 bd f0 38 63 3d db 4a 9e bb 76 0e d7 3c
       -0.04008979 0.05547422 -0.004830701 0.026252013
0003e0 b1 dc 99 3d d8 8b 49 bc f6 01 81 bd f4 bc 71 3d
       0.07512797 -0.012301408 -0.06299202 0.05901809
0003f0 77 c4 46 bd e7 43 2e 3d 2a 5b 18 3d ef 5c 6d b9
       -0.048527207 0.042545225 0.037196316 -0.00022636702

layer2.bias f4 [200]
000000 39 e5 f5 bc 22 95 61 3d 18 13 c8 3c 4b de 51 bd
       -0.030016528 0.055073865 0.024423167 -0.051237386
000010 1e bf 88 bd 37 e5 16 3d 50 20 1e bd 8f 56 1a bd
       -0.06677078 0.03683969 -0.038605034 -0.037680205
000020 a1 0d ca 3b 91 d8 96 3c b5 fc 48 bd 7c fc 85 bd
       0.0061661755 0.018413814 -0.049069125 -0.06542298
000030 cc 84 3f 3c 91 72 8e 3d 15 f4 09 3d 33 77 4a 3d
       0.011689376 0.069554456 0.03368004 0.049430083
000040 78 33 75 bd fc 01 4c bd bd 27 64 3d 92 ef 3e 3c
       -0.059863538 -0.04980658 0.05570196 0.011653798
000050 bc a8 5d 3d 59 bc 47 bd be 97 f6 3c 88 21 29 3d
       0.054115996 -0.048763607 0.030101653 0.041291744
000060 33 31 95 bd 85 6b 42 3d 93 c8 aa 3c 46 f8 24 bd
       -0.07284775 0.04746582 0.020847594 -0.040275835
000070 ce c3 1a 3c 6e 9e 4f 3d a4 7d 08 bc 8e a4 00 3d
       0.009446098 0.0506882 -0.008330736 0.03140693
000080 ca 94 c4 bc a0 1f 7b bd 97 7f ee bc 93 ae 82 3d
       -0.02399673 -0.061309457 -0.029113574 0.06380954
000090 54 1f ad bd 35 f7 6d bc 55 09 80 bd cc 73 60 3d
       -0.08453241 -0.014524271 -0.0625178 0.054797933
0000a0 6d fb 81 bd 57 89 68 bc df 2f ed 3c 88 00 31 bd
       -0.06346784 -0.014192901 0.02895349 -0.043213397
0000b0 3d eb 34 bb 63 cb 3f bd fe aa 49 3d 6e b5 35 bd
       -0.0027606033 -0.046824824 0.049235336 -0.044362478
0000c0 86 10 3c bc fa 73 b4 bc 6c ad 3b bd be 83 6e bd
       -0.011478549 -0.022027958 -0.045819685 -0.058231108
0000d0 f7 5e 92 bd a2 4c ab 3c f7 90 39 bc be 38 e8 bc
       -0.07147019 0.020910565 -0.011326066 -0.02834737
0000e0 14 81 96 3c 9c f1 f2 3c ed 82 83 bd a3 d3 4a 3a
       0.018372096 0.029656224 -0.064214565 0.0007737225
0000f0 6c 6d 8b bd 97 f4 f0 bc 8e 68 84 3d aa 6a 06 bd
       -0.0680798 -0.029413505 0.06465255 -0.032816567
000100 83 52 68 3d bd dd 95 bd 3a 79 89 bd c5 03 f3 3c
       0.056719314 -0.07317684 -0.06712575 0.029664883
000110 38 62 a6 3c e9 86 08 3d 51 d8 77 3c 85 bd 95 bc
       0.020310506 0.033331785 0.015127257 -0.018278847
000120 d0 58 fd bc 9a 4e 04 bd a3 4f 0b bc e9 37 04 bd
       -0.030926138 -0.032301523 -0.008502874 -0.032279883
000130 e1 36 2c 3d 15 f8 81 bd 5f 64 96 bd f1 70 b8 3c
       0.042044524 -0.06346146 -0.07343363 0.022514792
000140 26 15 62 bc 1a d1 18 3b 70 0f c2 bc 00 58 7b 3d
       -0.0137989875 0.0023317994 -0.023689002 0.06136322
000150 dc 94 95 bc 06 5e 70 3d 18 27 74 3d bb 4f 8c 3c
       -0.018259458 0.058683418 0.059607595 0.017127862
000160 ee f3 9b 3b 46 64 88 bd 56 f8 4f 3d 02 87 1f 3b
       0.0047593033 -0.06659751 0.05077394 0.0024341946
000170 77 bb 3e bd ce ef f1 3c e8 48 af bc 68 c0 78 3d
       -0.0465655 0.029533293 -0.02139707 0.060730368
000180 3b 1d cd 3c b0 92 97 bd 8b 3f cb 3c 03 48 0d 3c
       0.025038352 -0.07401025 0.024810573 0.008623126
000190 5b ef 77 3d c2 e0 9d bc 11 ed 1c bc 26 e5 7e 3b
       0.060531 -0.019272212 -0.009578005 0.0038893907
0001a0 db 26 8a 3b 3d ec e1 bc 1d 0d 39 3d 5c 7d b9 3c
       0.0042160577 -0.027578468 0.04517852 0.022642784
0001b0 57 2d 94 3d a5 32 4e 3d 96 4f 0d bd d3 f7 08 bd
       0.072352104 0.050341267 -0.034499727 -0.03343947
0001c0 d9 f3 36 bd 5b ae a8 3c 72 bd 5c 3d c9 76 81 bd
       -0.044666145 0.020590952 0.053891607 -0.063214846
0001d0 f3 a5 f3 bc b4 a6 ed bc a0 0a 01 3d 88 d3 22 3c
       -0.029742217 -0.029010154 0.031504273 0.009938128
0001e0 7a 27 2b bd f5 f0 0e 3d 67 7a ac 3b 63 5b 96 3b
       -0.041785695 0.034897763 0.005263615 0.004588531
0001f0 9c 89 4c 3d ca d1 af bc dc 94 06 bd 6f c2 2e 3b
       0.049935922 -0.02146234 -0.032856807 0.0026666184
000200 25 9c 1c 3d a1 75 65 bd 36 41 8e 3d 5f 4b 8f 3d
       0.03823485 -0.056020383 0.06946032 0.06996798
000210 86 85 64 3c f6 b9 ab bc f8 66 84 bc de 7b b9 bb
       0.01394785 -0.020962697 -0.01616238 -0.005660518
000220 1d 32 65 bd a1 0d 59 3d 62 cb 6c 3c f0 de 0b bc
       -0.055955995 0.052991513 0.014452787 -0.008537039
000230 81 99 bb 3c ab d8 5e bd 65 b2 6d 3c b6 a1 0e 3d
       0.022900345 -0.05440585 0.014507865 0.03482219
000240 14 ab 68 bd b2 e4 f5 3c a0 1b 22 bd be f7 72 3d
       -0.056803778 0.030016277 -0.039577127 0.059318297
000250 29 89 5a 3c c7 66 83 bd 66 5f c0 bd e6 35 3d 3c
       0.013338366 -0.064160876 -0.09393196 0.011548495
000260 15 cd 0b bb 90 1e f4 3c b7 df fc bb bc 7f 9a 3b
       -0.0021331955 0.02979973 -0.0077170986 0.004714934
000270 7f 6c 1b 3d 44 b5 25 3d 98 13 6b bd e1 22 14 3d
       0.037945267 0.04045607 -0.057391733 0.036166076
000280 ab cd 89 bd 9d 62 cc 3b e6 d5 ef ba 7e 6b 4c 3d
       -0.06728681 0.0062373416 -0.0018298 0.0499072
000290 aa 74 57 3d 39 19 d8 bd d4 b5 6f bb 9d 62 73 3c
       0.052601494 -0.10551686 -0.0036576884 0.014855054
0002a0 f6 42 18 bd 4a 14 50 3c 15 ba 83 3d 8e 7c 28 3d
       -0.037173234 0.01270015 0.06431977 0.04113441
0002b0 24 b9 4c bd 13 15 ba 3c a8 46 5a 3d 77 e8 d1 bc
       -0.04998125 0.022715127 0.05329004 -0.025623543
0002c0 5f 6b 7d bd 8f b9 93 3c e7 5a d1 3c 52 2b 45 bb
       -0.061869975 0.018032817 0.02555604 -0.0030085635
0002d0 a5 86 02 bd 56 78 3e bd 38 31 be bb dd 7a 34 bd
       -0.03186669 -0.04650148 -0.005804207 -0.044062484
0002e0 87 b3 46 bd 7e 96 b4 3c e2 60 73 3c 72 89 a6 3c
       -0.048511054 0.022044417 0.014854642 0.02032921
0002f0 4b 0f 9c bd 26 8d fa bc d5 d0 32 3d bb 26 6c bd
       -0.076201044 -0.030584883 0.04365619 -0.057654124
000300 68 92 2e 3d cd 7c 13 3c 89 0d 90 bd 5c 5c 69 bd
       0.042620093 0.009001923 -0.070338316 -0.056972846
000310 3b f6 4f bd 1d 17 05 3d 3c e4 25 bc dc ac 39 bd
       -0.050771933 0.032492746 -0.010125216 -0.045330867

layer3.weight f4 [1, 200]
000000 94 a6 ca 3c a8 74 2d 3d c4 59 92 3d f4 2e 0f be
       0.024737634 0.04234758 0.07146028 -0.13982755
000010 02 0a 02 bd be 60 37 3c 36 a2 54 3c 18 c8 a3 bc
       -0.031747825 0.011192499 0.012978127 -0.019992873
000020 93 bb 25 bc 09 30 20 3d 29 f4 11 3d c1 76 7b 3d
       -0.010115522 0.03910831 0.03563324 0.06139255
000030 cb 62 7b bd 0e e7 af 3b 86 c6 1a 3d cc 0f 1f bc
       -0.061373513 0.00536812 0.037786983 -0.009708356
000040 fc e2 07 bd ca 54 26 bd aa d5 a1 bd 58 b2 25 bc
       -0.033175454 -0.040608205 -0.07902081 -0.010113321
000050 72 b0 16 bd 8e 02 6b bc cc cd 41 3c 8f f6 3b 3d
       -0.036789365 -0.014343871 0.011828851 0.045889433
000060 75 30 42 bc a5 2e 8e 3d 85 3b 86 3c 81 66 0f bc
       -0.011852373 0.069424905 0.016385803 -0.008752466
000070 06 12 b3 bc 74 b1 c3 bc d8 36 91 3c 85 84 2b 3d
       -0.02185918 -0.023888327 0.017726347 0.041874427
000080 90 86 02 3b 78 e2 0d bd ba 26 2e 3d ee 5a 5d 3d
       0.0019916631 -0.034639806 0.0425174 0.054041795
000090 dc 98 0d 3e a4 8e 45 3d cb 0a 06 bc 40 a1 3b bd
       0.13827842 0.048231736 -0.008181284 -0.045808077
0000a0 28 e2 01 bd 0c 31 34 bd e6 b8 51 3d 62 84 83 bd
       -0.03170982 -0.043992087 0.051201724 -0.064217344
0000b0 d5 fd 49 bd 2c e2 14 bd de 4c 71 3d 45 d8 91 3d
       -0.04931434 -0.036348507 0.058911197 0.07121328
0000c0 b0 4f c7 bc 04 96 f1 3c d5 1e 74 bd e0 31 7f 3d
       -0.02432999 0.029490478 -0.059599716 0.062303424
0000d0 5c 06 ff 3b 29 8d 8a 3c 33 85 e1 bc 0f 06 10 bc
       0.0077827405 0.016913014 -0.027529335 -0.008790507
0000e0 89 0c 4b 3d 88 38 14 3d a2 c2 31 bd 01 bb 13 be
       0.0495725 0.036186725 -0.043398507 -0.14426805
0000f0 69 16 5a bb 82 52 10 3d 88 25 63 bd 48 ca 49 3d
       -0.0033277518 0.035234936 -0.055455714 0.049265176
000100 c9 7a 8a 3d f6 79 1d bd c3 c1 ec bc 05 a2 81 3d
       0.06761701 -0.03844639 -0.028900987 0.06329731
000110 17 e8 84 bd a3 ce 3f 3d 6b 38 55 3c 42 0a 49 bd
       -0.0648958 0.046827924 0.013013939 -0.04908205
000120 5d 7c 6f bd 4a 8e e8 3c d8 d3 32 bc cb 00 87 bd
       -0.05846821 0.028388161 -0.010914765 -0.06591948
000130 fa 8b 82 bd c4 bb b3 bd 3c c1 15 bc bc 1c d4 3c
       -0.06374355 -0.08776048 -0.009140309 0.025892608
000140 bb 41 17 bd 3f 8e f7 3c a0 c3 97 bb d5 3d fa bc
       -0.03692792 0.030219195 -0.0046314746 -0.030547062
000150 12 67 20 3d 84 cd b5 3d 59 6e 9a 3d c1 c0 e8 bc
       0.039160796 0.088770896 0.075405784 -0.028412225
000160 46 a8 5c bc 46 b7 ea bc e7 4d 3c bd 73 71 6b 3d
       -0.013467854 -0.028651845 -0.04597273 0.05748124
000170 cc 07 1e 3d b6 85 42 bd 9e ca 87 3d aa dd f2 bb
       0.038581654 -0.047490798 0.06630443 -0.0074116783
000180 34 97 48 bd ef 6a 37 bd c9 12 9d 3c 6b 20 87 3d
       -0.048972324 -0.044779714 0.019173997 0.0659798
000190 b9 43 3d 3c 87 34 7d bb 8b a0 8e 3d d8 ca 34 3d
       0.011551791 -0.0038636045 0.06964215 0.04413876
0001a0 6c 7c c8 bc 84 e1 89 3d bf a1 36 3c d8 5e 32 bd
       -0.024473391 0.06732467 0.011146962 -0.04354748
0001b0 30 ef f3 3c 34 46 6c 3b 4b 23 3d 3a e2 e5 cc 3c
       0.02977714 0.0036052587 0.0007215037 0.02501196
0001c0 14 2a 51 3d 2c 4d 3a 3c 60 35 2f 3d 90 d8 74 bc
       0.05106552 0.011370938 0.04277551 -0.014944211
0001d0 e1 9f 0e 3d 17 b1 32 3d 0c fd fb 3d e5 2c b7 3d
       0.03482044 0.043625917 0.12304124 0.0894411
0001e0 09 e7 d5 3b e7 99 12 bd 6d 9a 94 3c 59 6a 1b be
       0.0065277857 -0.035791304 0.018140042 -0.15177287
0001f0 96 8c 44 3d 3f e8 db 3a 13 ed 6f 3b 6a ee 28 3d
       0.047985636 0.0016777589 0.0036609813 0.041242994
000200 31 52 49 bd 79 9d 44 bd 18 90 8b 3d 0b ee 19 3d
       -0.04915065 -0.04800174 0.06814593 0.03758053
000210 91 c9 a8 bc 58 d7 b1 3b 5e b0 75 3d a7 4f 05 3d
       -0.020603927 0.0054272823 0.05998265 0.032546666
000220 90 13 8c bd 8b d5 f3 bb 33 fb eb 3c 0b c0 0b 3d
       -0.06839669 -0.007441228 0.028806305 0.034118693
000230 0f 26 7b bd f5 da 05 3d d6 22 c8 bb 1e 09 85 bd
       -0.061315592 0.032679517 -0.0061076684 -0.064958796
000240 3b e4 18 bc 0c a0 ec bc 01 5a 1f bd 06 54 c0 3c
       -0.009331758 -0.02888491 -0.038904194 0.023477565
000250 a2 23 96 3c 7a 2f 83 3d 3f 61 6a bc cd 78 85 3d
       0.018327538 0.0640554 -0.014305412 0.065171815
000260 9d 80 6d 3d 4a d6 3b bd 7d d3 52 bd 3e 53 ab 3d
       0.057983983 -0.04585866 -0.051471222 0.083654866
000270 57 48 e3 3c 78 b0 42 3c 9c b4 47 3d d1 75 48 bd
       0.027744455 0.011882894 0.048756227 -0.048940483
000280 1c 26 22 bd 3b fb 38 3d 9d 1d 21 be 0a c4 01 3d
       -0.039587125 0.045161467 -0.15733953 0.031681098
000290 98 4a ba 3c 22 ab a1 be 98 b8 54 bd d5 21 13 3d
       0.022740647 -0.31575876 -0.051933855 0.035920937
0002a0 4f 27 7f bc 8d 25 14 bd 59 43 42 3d 8b ca b0 3b
       -0.015573337 -0.036168624 0.04742751 0.0053952388
0002b0 b4 71 6c bd c2 54 83 bb 6a 91 d9 3d 49 05 3c 3d
       -0.057725623 -0.0040079067 0.10623439 0.045903478
0002c0 6f 83 31 bb 69 9d 56 3d 42 73 d1 3d 39 b6 2b 3d
       -0.0027086397 0.05239621 0.10227062 0.041921828
0002d0 a6 33 90 bd b4 b6 2f 3c ac 63 85 3d 79 ea 3e bd
       -0.07041101 0.010724712 0.065131515 -0.04661033
0002e0 8e b0 e9 bc cf 36 92 3d 39 93 67 bd 16 8c 8b bd
       -0.02852657 0.0713936 -0.056536887 -0.06813829
0002f0 91 00 87 bd 7c 56 45 3d 32 8f be 3d e1 31 94 bc
       -0.06591905 0.04817818 0.09304656 -0.01809019
000300 16 a2 01 bd 27 23 33 bc bb 39 f0 3d e3 03 2e bc
       -0.031648718 -0.010933674 0.11729761 -0.010621044
000310 ad 39 5d 3d 6a 63 d8 3b 88 02 a3 bd 8a 14 08 3d
       0.054010082 0.006603648 -0.07959467 0.033222713
