KINN/complex_geo/poisson/BINN_flower/resultsBIEtest_kan.pt (torch, 10626 bytes, 16 tensors)

layers.0.base_weight f4 [5, 2]
000000 5c 37 6d bf 67 71 77 3e 10 ee 1a 3f 2b e3 ee be
       -0.92662597 0.24164353 0.60519505 -0.4665769
000010 58 a2 ca be 59 41 6c 3d da 54 13 3f e7 b4 9b 3d
       -0.39576983 0.057679508 0.5755135 0.07602864
000020 87 8f 72 3e 83 11 32 bd
       0.23687564 -0.04347373

layers.0.spline_weight f4 [5, 2, 13]
000000 50 47 49 bb e4 d2 0b bc 76 b2 e5 3e 50 74 91 3e
       -0.0030712672 -0.008534167 0.44862717 0.28409052
000010 0e 97 4a bd cd 7a a8 be f1 15 74 be 11 6b df 3e
       -0.049460463 -0.3290619 -0.23836495 0.43636373
000020 73 3b 84 bf 66 da 42 3e 5d 45 f3 be e3 c5 ba b9
       -1.0330642 0.19028625 -0.47513857 -0.00035624122
000030 86 4d 31 b9 68 a6 a6 38 0c 7b 3c 3b ed 6b f4 bf
       -0.00016908915 7.9464924e-05 0.0028759865 -1.9095436
000040 2e 4e 5b bf 61 01 16 3e de df 41 3f 87 86 43 bf
       -0.8566617 0.14648964 0.7573222 -0.7637715
000050 86 a4 70 bf ff 7d 95 3e 63 58 ad be 5c 17 03 bf
       -0.9400104 0.2919769 -0.33856496 -0.5120752
000060 00 00 00 00 00 00 00 00 f0 67 76 b8 70 38 88 38
       0.0 0.0 -5.874777e-05 6.495498e-05
000070 28 0a 6b be 01 f9 a1 be 9c 42 9b 3e 39 80 a4 3d
       -0.22953093 -0.31635287 0.30324256 0.08032269
000080 d9 0a 0b 3f 7b 3c a3 3d 70 00 23 bd 6c 1a 4a bd
       0.5431343 0.0797052 -0.03979534 -0.049341604
000090 76 29 09 bf c3 cd 83 bb 6f 46 e7 ba 1c cb 2d 3b
       -0.5357889 -0.0040223314 -0.0017644892 0.0026518768
0000a0 8e e1 05 3c ac b5 e6 bf 53 f4 c1 bd af 38 10 3f
       0.008171452 -1.8024192 -0.09470429 0.5633649
0000b0 3f 20 80 bd 04 13 2f bf 1b 45 ba 3e ac f6 ad bd
       -0.062561505 -0.6838839 0.36380848 -0.084943146
0000c0 65 9f 00 bf 55 14 ad 3e 00 00 00 00 00 00 00 00
       -0.50243217 0.33804575 0.0 0.0
0000d0 08 2d 9f 3a 27 b8 b9 3b 01 db 85 be df 7f c6 be
       0.0012144158 0.0056677046 -0.2614365 -0.38769433
0000e0 e4 81 74 be 6a 1a a5 3e aa aa 1c 3e 64 42 8b 3e
       -0.23877674 0.32246715 0.15299478 0.2719909
0000f0 3a 91 4f 3e 6f fb 6a be 52 13 a1 be 24 1d 42 bb
       0.20270243 -0.22947477 -0.31460053 -0.002961942
000100 74 07 a2 b9 54 f8 5c 3a 64 d2 86 3b 14 99 80 bf
       -0.000309046 0.0008429338 0.004114436 -1.0046716
000110 cd 3d bb be 39 f3 04 3e bb 09 0b bc 62 27 e1 be
       -0.36570588 0.12983407 -0.008486207 -0.4397536
000120 39 0c 65 3c 02 99 05 3f 2f 28 a4 be f0 fb 07 bf
       0.013979965 0.52186596 -0.32061908 -0.531188
000130 00 00 00 00 00 00 00 00 1c f3 bb 38 48 28 5f bb
       0.0 0.0 8.9621375e-05 -0.003405111
000140 3e b2 a3 be 3f 22 a3 be 8e 85 f3 bd fc a7 5c bd
       -0.31971925 -0.31862065 -0.11890708 -0.05387114
000150 2d 39 fb bd 7a 45 98 3e eb 3c cc 3e a7 9d f7 3d
       -0.12266765 0.29740506 0.39890227 0.12090617
000160 56 89 99 be 89 aa 6b 3b 01 6b af 3a 8c ae 5f 3a
       -0.29987592 0.0035959801 0.001338333 0.00085327844
000170 de 2b 35 3b 04 41 90 3d fa a0 5b be 4d dc db be
       0.0027644555 0.07043651 -0.21448126 -0.42941514
000180 7a 94 61 3e 41 83 c5 3e 1c 9a ae be 36 cf 04 bf
       0.22029296 0.385767 -0.3410195 -0.5187868
000190 80 f8 09 3f 62 4b 3f 3f 00 00 00 00 00 00 00 00
       0.53894806 0.747244 0.0 0.0
0001a0 24 da 0a 3a 9d 26 2c 3b c1 e8 0a 3e 83 14 be 3e
       0.0005296788 0.0026268132 0.13565351 0.37125024
0001b0 84 c8 b3 3e ad f2 e6 be 03 ff b8 be f2 07 63 bd
       0.3511392 -0.45107022 -0.36132059 -0.0554275
0001c0 a3 7e d1 be 6a 9b 0b be ae d5 dd 3e f5 e7 85 3b
       -0.4091693 -0.13633505 0.43327087 0.0040864893
0001d0 a9 cd f6 3a 84 ee e4 39 a0 fa 6b 39 9e 6b b5 3f
       0.0018829602 0.00043665257 0.00022504712 1.4173467
0001e0 dc 52 12 3e 02 cc 40 be 9e 61 b2 3e 59 e1 bb 3e
       0.14289421 -0.18827823 0.348401 0.36695364
0001f0 87 86 1c bd 28 36 cc be 82 e1 a6 3e a6 3f f6 3e
       -0.038214233 -0.39885068 0.32593924 0.48095435
000200 00 00 00 00 00 00 00 00
       0.0 0.0

layers.0.spline_scaler f4 [5, 2]
000000 e7 17 a2 3f 2a 25 9f 3f 47 eb 22 bf eb a0 80 3f
       1.2663544 1.2433217 -0.63640255 1.0049108
000010 c9 1d 24 3f 44 76 61 bf 15 0e d5 3e 85 fb 93 3f
       0.6410795 -0.88071084 0.41612306 1.1561133
000020 8f e2 3a bf 2b 2c 3d 3f
       -0.7300195 0.7389552

layers.0.grid f4 [2, 17]
000000 b8 1e 05 c1 c2 f5 e8 c0 14 ae c7 c0 66 66 a6 c0
       -8.32 -7.2799997 -6.24 -5.2
000010 b8 1e 85 c0 14 ae 47 c0 b8 1e 05 c0 b8 1e 85 bf
       -4.16 -3.12 -2.08 -1.04
000020 00 00 00 00 b8 1e 85 3f b8 1e 05 40 14 ae 47 40
       0.0 1.04 2.08 3.12
000030 b8 1e 85 40 66 66 a6 40 14 ae c7 40 c2 f5 e8 40
       4.16 5.2 6.24 7.2799997
000040 b8 1e 05 41 b8 1e 05 c1 c2 f5 e8 c0 14 ae c7 c0
       8.32 -8.32 -7.2799997 -6.24
000050 66 66 a6 c0 b8 1e 85 c0 14 ae 47 c0 b8 1e 05 c0
       -5.2 -4.16 -3.12 -2.08
000060 b8 1e 85 bf 00 00 00 00 b8 1e 85 3f b8 1e 05 40
       -1.04 0.0 1.04 2.08
000070 14 ae 47 40 b8 1e 85 40 66 66 a6 40 14 ae c7 40
       3.12 4.16 5.2 6.24
000080 c2 f5 e8 40 b8 1e 05 41
       7.2799997 8.32

layers.1.base_weight f4 [5, 5]
000000 13 18 6f be 40 22 86 bf 7d e3 99 be 46 60 0a be
       -0.23349027 -1.0479202 -0.30056372 -0.13513288
000010 5e 92 91 3e fb c4 41 bf 5c 7a 13 bf be 7c 1e 3f
       0.28431982 -0.75691193 -0.5760858 0.6190909
000020 84 d6 80 3f f6 25 6f 3f 91 d2 04 bf 3d 47 07 bf
       1.0065465 0.934173 -0.518838 -0.52843076
000030 85 a3 e1 bd 1b f4 06 3f 0f 2b 82 3e 90 f6 fe be
       -0.11017517 0.52716225 0.25423476 -0.49797487
000040 80 90 1f bf 68 a3 71 3e c4 10 78 3f ac e4 6c 3f
       -0.62329865 0.23597491 0.9690058 0.92536426
000050 b1 24 4e bf c7 78 6b bf c4 0c 89 3e 16 83 00 3f
       -0.80524737 -0.91981167 0.26767552 0.5020002
000060 a7 97 16 3e
       0.14706288

layers.1.spline_weight f4 [5, 5, 13]
000000 64 e7 be 38 f0 de c2 b8 a0 d8 03 b8 68 41 b4 3b
       9.103006e-05 -9.292166e-05 -3.143458e-05 0.005500961
000010 7e c6 9b 3f 89 9c 5c 3d 80 df 66 bf df c6 02 3f
       1.216995 0.05386022 -0.90184784 0.51084703
000020 64 45 37 3f 20 07 16 3c 1b 3b 15 bc a0 cd 32 3b
       0.71590257 0.009156972 -0.00910833 0.0027283207
000030 f5 fb cc 3a ec 92 ad 3a 52 e4 82 3b 83 5d 94 bb
       0.0015639054 0.0013242639 0.003994503 -0.004527749
000040 59 36 46 bb 6d 93 00 bf a9 d6 32 3e 67 c6 9f 3e
       -0.0030244796 -0.50224954 0.17464699 0.31206056
000050 94 54 33 bf 04 ee ad be 85 3b c2 b8 61 cf 36 b9
       -0.7005093 -0.33970654 -9.261727e-05 -0.00017434127
000060 00 00 00 00 00 00 00 00 b4 9b fb 3a 28 d6 9f 3b
       0.0 0.0 0.0019196183 0.0048778243
000070 72 35 03 bc 78 ed 0a 3a 36 be 24 3d 26 d1 15 bd
       -0.008008348 0.0005299668 0.04022046 -0.036576413
000080 1f 1a 8d bd 7a 14 96 bd 91 ec 00 bf 20 8c b9 3a
       -0.06889748 -0.07328124 -0.5036097 0.001415614
000090 05 19 97 39 00 00 00 00 00 00 00 00 6c e3 b8 ba
       0.00028819605 0.0 0.0 -0.0014105863
0000a0 61 cc c5 bb b9 f6 6b bb 68 91 a1 bb 0e b4 bf bf
       -0.0060363268 -0.0036005212 -0.004930664 -1.4976823
0000b0 c6 13 be be c3 43 8e 3e 90 71 92 be d5 87 39 3d
       -0.3712446 0.27786073 -0.28602266 0.045295555
0000c0 d9 7c 1f 3b 33 1a 81 3a 00 00 00 00 00 00 00 00
       0.002433589 0.0009849727 0.0 0.0
0000d0 74 74 a9 ba 6f 85 ba bb ee ad 4a bb e0 a3 8d 3a
       -0.0012928382 -0.005692176 -0.0030926424 0.0010806285
0000e0 f5 b1 39 bf e4 c0 a1 be 32 2b 90 bd 8f 5e a6 3e
       -0.72537166 -0.31592476 -0.07039489 0.32494017
0000f0 9d fd 2f bf e5 31 8b ba 05 4b 1a ba 00 00 00 00
       -0.6874636 -0.0010619728 -0.00058858126 0.0
000100 00 00 00 00 48 a3 0a 3a 16 28 45 3b 2c b5 32 3b
       0.0 0.0005288613 0.0030083708 0.0027268631
000110 3b 86 12 bb 38 ae 48 3f 78 de a6 be a9 30 f4 be
       -0.002235784 0.78390837 -0.32591605 -0.47693375
000120 be 9e 09 3f 8d 34 27 3f aa 5b 0e bc 7c c2 1e 3c
       0.53757846 0.6531456 -0.008688847 0.009689923
000130 14 70 c9 ba 7a cb aa ba 90 f7 91 39 90 4d 4b 3b
       -0.0015368485 -0.0013030611 0.00027841004 0.0031021573
000140 50 6b a6 3b 45 b1 fd bb ad a0 12 3f a4 b4 72 3d
       0.0050787106 -0.0077420794 0.5727642 0.059254304
000150 cc 17 94 be 29 2f 9d 3e 6b 75 af 3e 75 d9 2a 3b
       -0.28924406 0.30700043 0.3426927 0.0026069556
000160 66 52 a2 3a 00 00 00 00 00 00 00 00 24 0c a2 3a
       0.0012384176 0.0 0.0 0.0012363237
000170 7f e0 68 3b 4a 99 79 bb 00 1c 0d 3b aa 7e 0c bd
       0.00355342 -0.0038085752 0.0021531582 -0.034300484
000180 2c d3 20 3e 90 8d a5 3d dd 73 0f be 27 ee 98 3e
       0.15705556 0.080836415 -0.14009042 0.29869196
000190 a0 2d 83 3b cc 6f 3e 3a 00 00 00 00 00 00 00 00
       0.0040032417 0.0007264584 0.0 0.0
0001a0 00 11 79 3a df 20 74 3b 7d d0 1f 3a 90 d6 b5 3a
       0.00095011294 0.0037251038 0.0006096436 0.0013873149
0001b0 6d df 3e 3f 8e 02 8d be 57 55 b0 be cd d5 15 3f
       0.7455967 -0.27541012 -0.3444011 0.5852936
0001c0 d0 0a a9 3e 72 28 c0 bb f8 cb 05 bb 00 00 00 00
       0.33016062 -0.0058641965 -0.0020415764 0.0
0001d0 00 00 00 00 e0 b4 db ba a4 29 27 bb ab b3 2c 3c
       0.0 -0.0016762279 -0.0025506997 0.010540883
0001e0 64 2b 30 bc 1a d6 9c 3f a9 1a 20 3f c5 4b 04 3e
       -0.010752533 1.2252839 0.6254068 0.12919529
0001f0 c2 2f 0c bf 9e a1 0c bc de b4 93 bb 43 0c c7 ba
       -0.5476037 -0.008583454 -0.004507645 -0.0015186149
000200 00 00 00 00 00 00 00 00 34 06 28 ba f8 8b 62 ba
       0.0 0.0 -0.0006409616 -0.0008642073
000210 10 00 c3 3b 36 59 ae b9 20 99 84 3f 80 ae e4 bd
       0.005950935 -0.00033254334 1.035923 -0.11166096
000220 2d 87 23 bf d2 96 eb 3e 63 e5 38 3f 80 25 4a 3b
       -0.63878137 0.46013504 0.72225016 0.0030845106
000230 76 6a a8 bb fc 30 f3 3b ff 71 1b 3b d4 1e d7 b9
       -0.0051396443 0.007421611 0.002371907 -0.00041030964
000240 00 81 82 b7 7d 18 b4 3b d0 34 27 bb b8 6f c0 3e
       -1.5557278e-05 0.0054960833 -0.0025513656 0.37585235
000250 d5 0b 17 be 15 7c a9 be 5c f0 f5 3e 29 6a 08 3f
       -0.14750607 -0.3310248 0.48034942 0.5328699
000260 43 ce 17 3b 9f 42 76 3a 00 00 00 00 00 00 00 00
       0.0023163713 0.00093940826 0.0 0.0
000270 28 5b 7c ba 55 0f 55 bb 80 17 dc b8 29 27 9c bb
       -0.00096266204 -0.003251036 -0.00010494795 -0.0047654104
000280 4f 35 36 3e e6 0c 53 bd 6a ae 24 bd ac 5a 83 3e
       0.17793773 -0.051525973 -0.040205397 0.25655115
000290 cf d0 53 be 4d e2 d6 3a ab 32 2b 3a 00 00 00 00
       -0.20685123 0.0016394347 0.00065306824 0.0
0002a0 00 00 00 00 a4 bf 42 3b 3a 2a f1 3b ac 89 2e bc
       0.0 0.0029716277 0.00735977 -0.010652941
0002b0 99 06 2b 3c 57 dd be bf 61 66 87 be ac 1b f2 3e
       0.010438585 -1.4911298 -0.26445296 0.47286737
0002c0 67 e9 c2 be 28 b5 b3 3d a3 04 af bb ef 24 cb ba
       -0.38068697 0.08774787 -0.005341129 -0.0015498678
0002d0 00 00 00 00 00 00 00 00 46 b9 08 ba c6 25 6b bb
       0.0 0.0 -0.0005215596 -0.003588067
0002e0 56 4e 64 bb 31 85 f7 3b 24 c9 6f 3f e2 af a2 3e
       -0.003483673 0.0075537194 0.9366629 0.31774813
0002f0 37 6c 2f 3e 87 81 a9 be 5e 4f bc 3e d9 6e 05 bc
       0.17131124 -0.33106634 0.36779302 -0.008144104
000300 b9 cb 37 bb 00 00 00 00 00 00 00 00 98 a2 4f ba
       -0.0028045012 0.0 0.0 -0.00079206517
000310 c0 ac a7 ba 92 74 ca 3b 9b 90 d5 ba 6c 42 63 bf
       -0.0012792572 0.006178447 -0.0016293706 -0.88773227
000320 e1 04 63 3e b2 bc 19 3f 85 19 1b bf 46 10 34 bf
       0.2216983 0.6005355 -0.60585815 -0.7033733
000330 a1 ad 15 3c dd 17 d7 bb ad a5 14 3a f8 00 59 3a
       0.009135635 -0.006564124 0.00056704396 0.00082780374
000340 60 65 2b ba 0a 73 01 bb fc e2 7a 3b 65 2b aa 3b
       -0.00065382384 -0.0019752407 0.0038282266 0.0051931613
000350 f6 66 0c bf 6b 32 27 bd 45 f8 ac 3e 08 48 cf be
       -0.54844606 -0.040819567 0.33783165 -0.40484643
000360 87 45 fa be cd 7b bc 3b d1 67 8b 3a 00 00 00 00
       -0.4888117 0.005752063 0.0010635798 0.0
000370 00 00 00 00 ac 36 2c bb b3 aa e4 bb 91 3f 12 3c
       0.0 -0.0026277704 -0.0069783567 0.008926288
000380 5b 9c b7 bb 10 43 87 bc ca c3 73 3e 25 bd a9 3d
       -0.005603356 -0.01651147 0.23805156 0.082880296
000390 cf 99 21 be 9d 73 bd 3e 1c fc 69 bb 3a cb f1 ba
       -0.1578133 0.37002268 -0.0035703247 -0.0018447407
0003a0 00 00 00 00 00 00 00 00 fe ab 87 ba d8 02 a4 ba
       0.0 0.0 -0.001035094 -0.0012513055
0003b0 a4 0c e5 3b 5f 54 f8 bb 5a e3 51 bf c6 14 70 3e
       0.0069900323 -0.007578417 -0.81987536 0.23445424
0003c0 34 63 a8 3e 46 55 20 bf 28 f9 9a be dd 3a 8a 3a
       0.32888186 -0.62630117 -0.30268216 0.0010546107
0003d0 39 7c 36 3a 00 00 00 00 00 00 00 00 30 16 bf 3a
       0.00069612596 0.0 0.0 0.0014578756
0003e0 d6 23 38 3b 1e af 02 bc a7 6a da 3b ff 8a 71 bf
       0.0028097532 -0.0079763215 0.006665546 -0.94352716
0003f0 14 e3 0d bf c8 11 fa bd 0d 18 16 3f 88 a7 0a be
       -0.5542462 -0.12210423 0.5863045 -0.1354047

layers.1.spline_scaler f4 [5, 5]
000000 91 17 9a bf 72 11 91 3f e6 5d ac 3e cb 2c 22 bf
       -1.2038442 1.1333449 0.3366539 -0.633496
000010 18 21 0f 3f 21 27 7a bf 73 5a 30 bf 12 dc f2 be
       0.5590987 -0.97715956 -0.68888015 -0.47433525
000020 14 ab ac 3f f9 0e 5e bf 79 ae 3a bf b4 7f 87 bf
       1.3489709 -0.86741596 -0.72922474 -1.0585847
000030 a4 6d eb 3e b2 11 52 bf 34 4c 4d bf 78 29 5d 3f
       0.45982087 -0.8205825 -0.801944 0.863914
000040 ab b9 56 3f ce 00 e4 be fe 45 a2 bf 45 cd 88 3f
       0.83877057 -0.44531864 -1.267761 1.0687643
000050 fc 6d 80 3f 18 6b 6d 3f 6e 36 f8 be 79 61 4a 3f
       1.0033565 0.9274154 -0.48479027 0.7905498
000060 e4 a5 df 3e
       0.43681252

layers.1.grid f4 [5, 17]
000000 b8 1e 05 c1 c2 f5 e8 c0 14 ae c7 c0 66 66 a6 c0
       -8.32 -7.2799997 -6.24 -5.2
000010 b8 1e 85 c0 14 ae 47 c0 b8 1e 05 c0 b8 1e 85 bf
       -4.16 -3.12 -2.08 -1.04
000020 00 00 00 00 b8 1e 85 3f b8 1e 05 40 14 ae 47 40
       0.0 1.04 2.08 3.12
000030 b8 1e 85 40 66 66 a6 40 14 ae c7 40 c2 f5 e8 40
       4.16 5.2 6.24 7.2799997
000040 b8 1e 05 41 b8 1e 05 c1 c2 f5 e8 c0 14 ae c7 c0
       8.32 -8.32 -7.2799997 -6.24
000050 66 66 a6 c0 b8 1e 85 c0 14 ae 47 c0 b8 1e 05 c0
       -5.2 -4.16 -3.12 -2.08
000060 b8 1e 85 bf 00 00 00 00 b8 1e 85 3f b8 1e 05 40
       -1.04 0.0 1.04 2.08
000070 14 ae 47 40 b8 1e 85 40 66 66 a6 40 14 ae c7 40
       3.12 4.16 5.2 6.24
000080 c2 f5 e8 40 b8 1e 05 41 b8 1e 05 c1 c2 f5 e8 c0
       7.2799997 8.32 -8.32 -7.2799997
000090 14 ae c7 c0 66 66 a6 c0 b8 1e 85 c0 14 ae 47 c0
       -6.24 -5.2 -4.16 -3.12
0000a0 b8 1e 05 c0 b8 1e 85 bf 00 00 00 00 b8 1e 85 3f
       -2.08 -1.04 0.0 1.04
0000b0 b8 1e 05 40 14 ae 47 40 b8 1e 85 40 66 66 a6 40
       2.08 3.12 4.16 5.2
0000c0 14 ae c7 40 c2 f5 e8 40 b8 1e 05 41 b8 1e 05 c1
       6.24 7.2799997 8.32 -8.32
0000d0 c2 f5 e8 c0 14 ae c7 c0 66 66 a6 c0 b8 1e 85 c0
       -7.2799997 -6.24 -5.2 -4.16
0000e0 14 ae 47 c0 b8 1e 05 c0 b8 1e 85 bf 00 00 00 00
       -3.12 -2.08 -1.04 0.0
0000f0 b8 1e 85 3f b8 1e 05 40 14 ae 47 40 b8 1e 85 40
       1.04 2.08 3.12 4.16
000100 66 66 a6 40 14 ae c7 40 c2 f5 e8 40 b8 1e 05 41
       5.2 6.24 7.2799997 8.32
000110 b8 1e 05 c1 c2 f5 e8 c0 14 ae c7 c0 66 66 a6 c0
       -8.32 -7.2799997 -6.24 -5.2
000120 b8 1e 85 c0 14 ae 47 c0 b8 1e 05 c0 b8 1e 85 bf
       -4.16 -3.12 -2.08 -1.04
000130 00 00 00 00 b8 1e 85 3f b8 1e 05 40 14 ae 47 40
       0.0 1.04 2.08 3.12
000140 b8 1e 85 40 66 66 a6 40 14 ae c7 40 c2 f5 e8 40
       4.16 5.2 6.24 7.2799997
000150 b8 1e 05 41
       8.32

layers.2.base_weight f4 [5, 5]
000000 99 09 b6 3e fe 21 25 3e c9 0c 04 3f b2 f5 2a 3f
       0.35554197 0.16126248 0.5158201 0.6678115
000010 fe e3 b4 3e cc 31 21 bf e1 47 d2 bd ed b2 58 bd
       0.35330194 -0.6296661 -0.10267616 -0.052905012
000020 1c a0 53 be f7 41 a0 be 6f 67 92 3e 15 fa 17 3f
       -0.20666546 -0.31300327 0.2859454 0.5936597
000030 a1 bc d1 3d 3e e5 c1 3e 18 6b 37 3f 05 32 73 bf
       0.10241056 0.3787021 0.7164779 -0.949982
000040 e6 87 25 bf a3 b5 3a bf 7b 85 5a bf 8e f6 40 bf
       -0.6466049 -0.72933406 -0.85359925 -0.7537621
000050 8b 76 1b 3f fc d4 db 3d c3 00 37 3f f3 b9 73 3e
       0.6072776 0.10733983 0.7148554 0.23801403
000060 71 f4 65 3f
       0.89826113

layers.2.spline_weight f4 [5, 5, 13]
000000 c8 e8 10 ba 96 73 67 bb 7a 05 80 bb 83 8d d0 3b
       -0.0005527851 -0.0035316697 -0.003906903 0.0063645258
000010 5d eb 8f bf 0f de 43 bf c6 0c c4 3d 11 7b fb 3e
       -1.1243702 -0.7651071 0.09572749 0.4911733
000020 75 80 0f bf 3c fb 16 3a 77 6c d5 bb ce b1 a2 3b
       -0.56055385 0.0005759483 -0.006513174 0.0049650436
000030 7a 2f e8 3a 20 cd 33 ba 06 86 c7 ba 59 64 54 3b
       0.0017714344 -0.0006858874 -0.0015222437 0.0032408445
000040 b4 6f 91 bb 98 2e 2c be ac 63 4a bf f7 9b af 3d
       -0.004438365 -0.16814649 -0.7905834 0.0857467
000050 dc 7a 14 3f 78 84 d6 3a f9 e2 8e bb 56 a0 93 ba
       0.5799997 0.0016366383 -0.0043605533 -0.0011262994
000060 00 00 00 00 00 00 00 00 8c 3a 3a 3a ac 54 d9 3a
       0.0 0.0 0.0007104061 0.001658102
000070 60 38 5b ba 26 c9 0e 3c 21 22 77 3f 96 2b 39 3f
       -0.00083625875 0.00871495 0.9653645 0.7233213
000080 fb cf a7 be a5 30 f9 be 2b f8 24 3f 0f a4 a0 3a
       -0.32775864 -0.48669925 0.64441174 0.0012255925
000090 2e 6b b7 37 00 00 00 00 00 00 00 00 a0 15 95 ba
       2.186521e-05 0.0 0.0 -0.0011374243
0000a0 78 67 8b bb a4 2f 2c ba c2 13 7a bb e1 a5 ad 3c
       -0.004254278 -0.00065683783 -0.003815875 0.021197261
0000b0 b7 af 3a bf 26 82 d9 be a4 fb 13 3f 69 d7 c6 3e
       -0.7292437 -0.42482108 0.5780585 0.3883622
0000c0 e5 e4 61 3a dd f7 93 3a 00 00 00 00 00 00 00 00
       0.0008617177 0.0011289079 0.0 0.0
0000d0 a0 f8 88 39 00 f2 85 b8 78 8d f9 ba d3 62 df 3b
       0.00026125181 -6.38701e-05 -0.0019039353 0.0068172007
0000e0 df e6 24 be f6 00 34 bf e0 a9 01 bf 62 f7 0a 3f
       -0.16103695 -0.70313966 -0.50649834 0.54283726
0000f0 4f f5 b3 3e bb ae ca 3a af f5 36 3a 00 00 00 00
       0.35148093 0.0015463451 0.0006979359 0.0
000100 00 00 00 00 30 a0 13 bb 95 e9 b2 bb aa 74 0e 3c
       0.0 -0.00225259 -0.005459974 0.008694807
000110 d3 a0 fa bb ed fc c8 3e b2 70 dc 3e fd 21 22 3f
       -0.0076485663 0.39255467 0.4305473 0.6333311
000120 0d ff 2e bf c2 81 2c bf d6 86 a0 bb 63 6d b0 bb
       -0.68357927 -0.67385495 -0.004898886 -0.0053841337
000130 79 72 0e bb 28 b8 b5 b9 dc cb 29 3a cc fe 0d 3b
       -0.0021735711 -0.00034660217 0.0006477216 0.0021666763
000140 8e 42 15 ba 82 91 1c 3b a5 39 fb bd b1 42 c8 3e
       -0.00056938163 0.002389044 -0.12266854 0.39113382
000150 e1 1e df 3e e6 f5 d3 be cb a2 03 3f 3b 50 1f 39
       0.43578246 -0.41398543 0.5142028 0.0001519331
000160 75 f1 95 b9 00 00 00 00 00 00 00 00 14 a4 1c 3b
       -0.00028599394 0.0 0.0 0.002390151
000170 00 00 e0 3b 1a e3 02 bc 50 95 41 39 ff e8 be 3e
       0.0068359375 -0.007988716 0.00018461538 0.37287137
000180 49 2a 0c 3f 0f c9 01 3f 13 3a a0 be 5d 73 c6 3f
       0.5475202 0.50697416 -0.31294307 1.5503956
000190 53 0b 20 3b 37 88 ac 38 00 00 00 00 00 00 00 00
       0.0024420812 8.226971e-05 0.0 0.0
0001a0 20 45 15 ba b8 9a 95 ba e0 07 7a 3a c2 1b 0a bc
       -0.00056941994 -0.0011413908 0.00095379166 -0.00842947
0001b0 6e 78 ef bc a6 d2 c3 3e fb 17 04 3f 0c ae e1 be
       -0.02923223 0.3824665 0.5159909 -0.440781
0001c0 75 d0 87 be 4f 8c 02 bc 62 a8 2b bb 00 00 00 00
       -0.26526228 -0.0079680225 -0.0026192893 0.0
0001d0 00 00 00 00 20 18 87 ba 20 aa ed ba 04 e3 ac 3b
       0.0 -0.0010306872 -0.0018132366 0.005276086
0001e0 59 80 00 bc ea 83 50 bd 1b 99 ca be 5e 39 e1 be
       -0.0078431005 -0.050907053 -0.39569935 -0.4398908
0001f0 34 14 ba 3e 1d 04 c3 3e 08 30 5a 3b 8e 3c 98 3a
       0.3634354 0.38089076 0.003329279 0.0011614726
000200 00 00 00 00 00 00 00 00 88 c0 a4 ba 3b 8a b2 bb
       0.0 0.0 -0.0012569586 -0.0054486073
000210 1e 6c 72 bb 87 7e a6 bb 18 3b 62 3f ee 9b 06 3f
       -0.0036990712 -0.005081001 0.8837142 0.5258168
000220 cf f9 51 3e 2d 21 03 bf 65 54 55 bd 8a a3 4e bb
       0.2050545 -0.512225 -0.052082438 -0.0031530582
000230 01 3d f8 bb 43 d0 f1 3b ed 97 1f 3b 44 3f 22 b8
       -0.0075756316 0.007379563 0.002435203 -3.868273e-05
000240 a8 4f 9d 3a 46 b9 2a 3b 3b e4 01 bc 91 0b 4a be
       0.0012001889 0.0026050373 -0.00792795 -0.19730975
000250 f8 8c f9 3e 1c 02 88 3e b9 3d 08 bf 36 6d c2 bd
       0.48740363 0.2656411 -0.5321918 -0.094934866
000260 7a ee 16 bc 6e 21 64 bb 00 00 00 00 00 00 00 00
       -0.009212131 -0.0034809965 0.0 0.0
000270 48 1c a6 ba 64 f4 71 bb 6c 3e 04 3b 31 c8 aa bb
       -0.0012673223 -0.003691935 0.0020178808 -0.005211853
000280 7f 9a 37 bf 8e ef 08 bf 12 77 b7 3e 48 ad f4 3e
       -0.7172012 -0.5349053 0.3583303 0.47788453
000290 10 45 43 bf 21 4b c7 bb a5 ee 19 bb 00 00 00 00
       -0.76277256 -0.006081954 -0.002348819 0.0
0002a0 00 00 00 00 ac e4 b6 ba 88 b5 bb bb da 3d 15 bb
       0.0 -0.0013953648 -0.0057284273 -0.0022772462
0002b0 d3 a7 6a ba 6f 9b 3a bd a3 11 e1 3e 46 12 a4 3e
       -0.00089513994 -0.04555839 0.43958768 0.32045192
0002c0 da ec 01 bf af 95 d3 be 83 23 c5 bb 3f 92 cc ba
       -0.5075203 -0.41325137 -0.006016196 -0.001560755
0002d0 00 00 00 00 00 00 00 00 9c 09 be ba 88 7c bf bb
       0.0 0.0 -0.0014498713 -0.0058437027
0002e0 cc 32 6a ba 2e 1e 92 3b af e6 5f 3e 36 38 06 3f
       -0.0008933961 0.004459164 0.21865343 0.5242952
0002f0 a5 f0 9c 3e 9e 85 fc be 31 09 b9 be eb 34 66 3b
       0.30652347 -0.49320692 -0.36139825 0.0035126756
000300 93 cf 54 3a 00 00 00 00 00 00 00 00 18 7f 1b bb
       0.0008118089 0.0 0.0 -0.0023726877
000310 e0 ef b7 bb 2e b9 29 3c 29 e9 ee bb 31 a3 57 3f
       -0.005613312 0.010359092 -0.0072909785 0.84233385
000320 7a b6 17 3f 7b 50 e3 3e 33 33 fd be 48 2a 07 be
       0.5926281 0.4439734 -0.49453124 -0.13199723
000330 6b 31 c9 bb 05 72 b4 3b 42 b1 5d 3b a2 8d cb 39
       -0.0061399243 0.0055067562 0.0033827578 0.00038824702
000340 a8 ad 2c bb 2e 90 05 bc bc 37 bf 3b 30 cb 81 3a
       -0.0026348624 -0.008152051 0.0058355015 0.0009902474
000350 28 dc 9c be 29 59 c3 3e 85 29 ce 3e 32 c2 09 bf
       -0.30636716 0.3815396 0.40266052 -0.53811944
000360 06 df 81 be c1 c2 f9 3b 26 db 16 3b 00 00 00 00
       -0.25365466 0.0076220934 0.0023018806 0.0
000370 00 00 00 00 7c 66 47 38 4c cb 23 3b 6e 25 d9 3b
       0.0 4.7540743e-05 0.0024993 0.0066267764
000380 c2 63 05 bc 87 5c 12 3f 93 10 01 3f d9 56 a9 3e
       -0.00814146 0.57172436 0.50415915 0.33074072
000390 59 7d 79 be 9c 1c 34 be b8 4f d2 3b a5 05 29 3b
       -0.24364223 -0.17589039 0.0064181946 0.0025790718
0003a0 00 00 00 00 00 00 00 00 e8 0c c6 ba 76 4e be bb
       0.0 0.0 -0.0015110048 -0.005807693
0003b0 88 c1 cf ba cc 66 73 bb da c0 1d bc 10 2a b4 3e
       -0.0015850523 -0.003714013 -0.009628499 0.3518834
0003c0 27 4c eb 3e ec 1f f7 be 63 6c e0 be ad b0 d5 bb
       0.45956537 -0.48266542 -0.43832693 -0.0065213055
0003d0 da a5 15 bb 00 00 00 00 00 00 00 00 b6 86 85 ba
       -0.002283445 0.0 0.0 -0.0010187242
0003e0 5c c0 67 bb 0b 53 41 3a 08 42 9e b9 06 9b 25 3e
       -0.0035362458 0.000737474 -0.00030185306 0.16172418
0003f0 75 a8 df 3e 01 9a f2 3e 6d ba 05 bf 54 04 dd be
       0.4368321 0.4738312 -0.5223759 -0.43167365

layers.2.spline_scaler f4 [5, 5]
000000 b1 f2 3a 3f 9b ff 79 3f 38 70 86 bf 26 8f a3 3f
       0.7302657 0.9765565 -1.0502996 1.277806
000010 65 52 72 3f 6f a9 a1 3f 04 07 7e 3f 1b a7 56 3f
       0.94656974 1.2629832 0.99229455 0.8384873
000020 c3 49 55 3f 5d 12 68 bf c6 23 83 bf 80 dc 38 bf
       0.83315676 -0.9065302 -1.0245292 -0.72211456
000030 8f b0 81 3f 06 68 5b bf 38 83 36 bf aa 28 36 3f
       1.0132006 -0.857056 -0.71293974 0.711558
000040 5e 71 1d 3f 43 b1 1e 3f 21 43 3a 3f d5 8b 4e 3f
       0.6150111 0.6198923 0.7275868 0.80682117
000050 02 a1 8b bf 2e d6 66 bf cb 6d 89 3f 00 02 12 bf
       -1.0908511 -0.9017056 1.0736631 -0.570343
000060 76 47 16 bf
       -0.5870279

layers.2.grid f4 [5, 17]
000000 b8 1e 05 c1 c2 f5 e8 c0 14 ae c7 c0 66 66 a6 c0
       -8.32 -7.2799997 -6.24 -5.2
000010 b8 1e 85 c0 14 ae 47 c0 b8 1e 05 c0 b8 1e 85 bf
       -4.16 -3.12 -2.08 -1.04
000020 00 00 00 00 b8 1e 85 3f b8 1e 05 40 14 ae 47 40
       0.0 1.04 2.08 3.12
000030 b8 1e 85 40 66 66 a6 40 14 ae c7 40 c2 f5 e8 40
       4.16 5.2 6.24 7.2799997
000040 b8 1e 05 41 b8 1e 05 c1 c2 f5 e8 c0 14 ae c7 c0
       8.32 -8.32 -7.2799997 -6.24
000050 66 66 a6 c0 b8 1e 85 c0 14 ae 47 c0 b8 1e 05 c0
       -5.2 -4.16 -3.12 -2.08
000060 b8 1e 85 bf 00 00 00 00 b8 1e 85 3f b8 1e 05 40
       -1.04 0.0 1.04 2.08
000070 14 ae 47 40 b8 1e 85 40 66 66 a6 40 14 ae c7 40
       3.12 4.16 5.2 6.24
000080 c2 f5 e8 40 b8 1e 05 41 b8 1e 05 c1 c2 f5 e8 c0
       7.2799997 8.32 -8.32 -7.2799997
000090 14 ae c7 c0 66 66 a6 c0 b8 1e 85 c0 14 ae 47 c0
       -6.24 -5.2 -4.16 -3.12
0000a0 b8 1e 05 c0 b8 1e 85 bf 00 00 00 00 b8 1e 85 3f
       -2.08 -1.04 0.0 1.04
0000b0 b8 1e 05 40 14 ae 47 40 b8 1e 85 40 66 66 a6 40
       2.08 3.12 4.16 5.2
0000c0 14 ae c7 40 c2 f5 e8 40 b8 1e 05 41 b8 1e 05 c1
       6.24 7.2799997 8.32 -8.32
0000d0 c2 f5 e8 c0 14 ae c7 c0 66 66 a6 c0 b8 1e 85 c0
       -7.2799997 -6.24 -5.2 -4.16
0000e0 14 ae 47 c0 b8 1e 05 c0 b8 1e 85 bf 00 00 00 00
       -3.12 -2.08 -1.04 0.0
0000f0 b8 1e 85 3f b8 1e 05 40 14 ae 47 40 b8 1e 85 40
       1.04 2.08 3.12 4.16
000100 66 66 a6 40 14 ae c7 40 c2 f5 e8 40 b8 1e 05 41
       5.2 6.24 7.2799997 8.32
000110 b8 1e 05 c1 c2 f5 e8 c0 14 ae c7 c0 66 66 a6 c0
       -8.32 -7.2799997 -6.24 -5.2
000120 b8 1e 85 c0 14 ae 47 c0 b8 1e 05 c0 b8 1e 85 bf
       -4.16 -3.12 -2.08 -1.04
000130 00 00 00 00 b8 1e 85 3f b8 1e 05 40 14 ae 47 40
       0.0 1.04 2.08 3.12
000140 b8 1e 85 40 66 66 a6 40 14 ae c7 40 c2 f5 e8 40
       4.16 5.2 6.24 7.2799997
000150 b8 1e 05 41
       8.32

layers.3.base_weight f4 [1, 5]
000000 c5 bd 17 3f 28 8e 3c bf c2 15 63 3f e0 b1 2e bf
       0.5927394 -0.73654413 0.88705075 -0.68240166
000010 1c 42 1c 3f
       0.61038375

layers.3.spline_weight f4 [1, 5, 13]
000000 4c 6e 89 3a f3 0f 1a 3b ce 46 57 bb 56 fb f8 3b
       0.0010485142 0.0023508042 -0.00328486 0.007598321
000010 c1 34 34 3f 3c e2 52 be fd 16 4a bf 0e 87 09 3f
       0.70392996 -0.20594114 -0.7894133 0.537217
000020 c9 cf 37 3f 7c ed 68 bb 52 d2 57 bb 28 76 96 3b
       0.7180143 -0.0035541942 -0.0032931757 0.004591722
000030 b7 c9 b7 3a b8 6f 30 3b 64 b1 fa 3b 00 ee ed bb
       0.0014021908 0.0026922058 0.007650541 -0.007261038
000040 9f 42 9b 3b a9 61 49 3e ac 00 16 bf 12 c9 11 be
       0.0047381665 0.1966616 -0.58594775 -0.14236858
000050 36 d3 19 3f 50 25 02 3f 04 4e 8f bb 5d a8 d5 ba
       0.6008791 0.50838184 -0.004373314 -0.0016300787
000060 00 00 00 00 00 00 00 00 58 53 ca 3a eb ca cc 3b
       0.0 0.0 0.0015436215 0.0062497756
000070 00 4e ee b9 ae b0 d1 bb b7 32 1e 3f af f7 d2 be
       -0.00045453012 -0.0063992357 0.61796135 -0.41204593
000080 49 7f 0b bf b0 eb 06 3f 6c 76 03 3f b1 f5 82 3a
       -0.54491097 0.5270338 0.5135257 0.0009991435
000090 e1 26 eb 39 00 00 00 00 00 00 00 00 60 39 fb 3a
       0.0004485166 0.0 0.0 0.0019166879
0000a0 33 28 a7 3b 86 4c dc bb 84 4d b9 3b 77 73 cc 3e
       0.0051012277 -0.0067229895 0.0056549925 0.39931843
0000b0 96 d9 e7 3e 50 85 96 3e 43 a8 03 bf 79 34 0b bf
       0.45283192 0.29398584 -0.5142862 -0.5437694
0000c0 59 da ec bb ae 5f 25 bb 00 00 00 00 00 00 00 00
       -0.0072281775 -0.0025234031 0.0 0.0
0000d0 78 9d 6d 3a 7c 4d f5 3a 5e 10 97 bb ea 45 be 3b
       0.0009064297 0.0018715109 -0.0046101054 0.0058066742
0000e0 a6 a2 43 bf fb d9 fa 3e 10 6c 1d 3f d2 ee 16 bf
       -0.76420057 0.4899443 0.61493015 -0.5895816
0000f0 22 95 1a bf 50 52 da 3a 80 d8 3f 38 00 00 00 00
       -0.6038381 0.0016656611 4.573958e-05 0.0
000100 00 00 00 00
       0.0

layers.3.spline_scaler f4 [1, 5]
000000 95 81 91 3f 0f 43 5b bf 93 04 88 3f d2 0b 4e 3f
       1.136767 -0.856492 1.0626396 0.80486786
000010 c9 8c 76 bf
       -0.9630857

layers.3.grid f4 [5, 17]
000000 b8 1e 05 c1 c2 f5 e8 c0 14 ae c7 c0 66 66 a6 c0
       -8.32 -7.2799997 -6.24 -5.2
000010 b8 1e 85 c0 14 ae 47 c0 b8 1e 05 c0 b8 1e 85 bf
       -4.16 -3.12 -2.08 -1.04
000020 00 00 00 00 b8 1e 85 3f b8 1e 05 40 14 ae 47 40
       0.0 1.04 2.08 3.12
000030 b8 1e 85 40 66 66 a6 40 14 ae c7 40 c2 f5 e8 40
       4.16 5.2 6.24 7.2799997
000040 b8 1e 05 41 b8 1e 05 c1 c2 f5 e8 c0 14 ae c7 c0
       8.32 -8.32 -7.2799997 -6.24
000050 66 66 a6 c0 b8 1e 85 c0 14 ae 47 c0 b8 1e 05 c0
       -5.2 -4.16 -3.12 -2.08
000060 b8 1e 85 bf 00 00 00 00 b8 1e 85 3f b8 1e 05 40
       -1.04 0.0 1.04 2.08
000070 14 ae 47 40 b8 1e 85 40 66 66 a6 40 14 ae c7 40
       3.12 4.16 5.2 6.24
000080 c2 f5 e8 40 b8 1e 05 41 b8 1e 05 c1 c2 f5 e8 c0
       7.2799997 8.32 -8.32 -7.2799997
000090 14 ae c7 c0 66 66 a6 c0 b8 1e 85 c0 14 ae 47 c0
       -6.24 -5.2 -4.16 -3.12
0000a0 b8 1e 05 c0 b8 1e 85 bf 00 00 00 00 b8 1e 85 3f
       -2.08 -1.04 0.0 1.04
0000b0 b8 1e 05 40 14 ae 47 40 b8 1e 85 40 66 66 a6 40
       2.08 3.12 4.16 5.2
0000c0 14 ae c7 40 c2 f5 e8 40 b8 1e 05 41 b8 1e 05 c1
       6.24 7.2799997 8.32 -8.32
0000d0 c2 f5 e8 c0 14 ae c7 c0 66 66 a6 c0 b8 1e 85 c0
       -7.2799997 -6.24 -5.2 -4.16
0000e0 14 ae 47 c0 b8 1e 05 c0 b8 1e 85 bf 00 00 00 00
       -3.12 -2.08 -1.04 0.0
0000f0 b8 1e 85 3f b8 1e 05 40 14 ae 47 40 b8 1e 85 40
       1.04 2.08 3.12 4.16
000100 66 66 a6 40 14 ae c7 40 c2 f5 e8 40 b8 1e 05 41
       5.2 6.24 7.2799997 8.32
000110 b8 1e 05 c1 c2 f5 e8 c0 14 ae c7 c0 66 66 a6 c0
       -8.32 -7.2799997 -6.24 -5.2
000120 b8 1e 85 c0 14 ae 47 c0 b8 1e 05 c0 b8 1e 85 bf
       -4.16 -3.12 -2.08 -1.04
000130 00 00 00 00 b8 1e 85 3f b8 1e 05 40 14 ae 47 40
       0.0 1.04 2.08 3.12
000140 b8 1e 85 40 66 66 a6 40 14 ae c7 40 c2 f5 e8 40
       4.16 5.2 6.24 7.2799997
000150 b8 1e 05 41
       8.32
