KINN/crack/BINN_crack/outputs/BIEBINN_mlp.pt (torch, 8695 bytes, 9 tensors)

linear1.weight f4 [20, 2]
0.13135317 -0.050733328 0.64469934 -0.11510955 -0.081239335 -0.14391412 -0.26904613 0.19909032
-0.21495605 -0.104331516 -0.07745216 0.14694506 0.06050933 -0.16033508 0.82107186 0.3043536
0.28363317 -0.027643736 -0.323042 0.75278395 -0.057762373 -0.403136 0.017555496 0.116044074
-0.13465002 -0.018631639 -0.096823156 0.0015704193 0.5616392 0.29647043 0.10027055 -0.3198713
-0.3848056 0.05264062 0.12814623 -0.021788508 -0.4787122 0.0933087 -0.40152583 -0.057961147
00000000: 7281 063e c0cd 4fbd 040b 253f 8ebe ebbd
00000010: cf60 a6bd 395e 13be 6ac0 89be 55de 4b3e
00000020: 701d 5cbe c3ab d5bd 3d9f 9ebd c478 163e
00000030: a2d8 773d e12e 24be c431 523f 3cd4 9b3e
00000040: 5e38 913e 1e75 e2bc c365 a5be 73b6 403f
00000050: 3d98 6cbd d767 cebe 8bd0 8f3c 84a8 ed3d
00000060: b2e1 09be 61a1 98bc 384b c6bd 87d6 cd3a
00000070: 96c7 0f3f f9ca 973e a55a cd3d 2cc6 a3be
00000080: 3d05 c5be b19d 573d c438 033e d07d b2bc
00000090: c419 f5be a218 bf3d cb94 cdbe ab68 6dbd

linear1.bias f4 [20]
1.1673156 -0.2389017 0.4645405 0.8768192 -0.047509458 1.4542218 -0.18989684 -1.0320135
0.9986009 -0.20540187 -3.079593 -0.78482443 1.1158812 -1.8021894 -0.7295504 1.6315682
0.48463735 -0.36011985 -0.9518473 -0.2825413
00000000: 996a 953f a6a2 74be 41d8 ed3e 3977 603f
00000010: 4799 42bd f123 ba3f 5174 42be 0519 84bf
00000020: 4fa4 7f3f de54 52be 0d18 45c0 41ea 48bf
00000030: 32d5 8e3f 24ae e6bf d1c3 3abf 3ad7 d03f
00000040: 6322 f83e a161 b8be 44ac 73bf 41a9 90be

linear2.weight f4 [20, 20]
-0.24345003 0.34102294 0.3388429 -0.3307787 -0.25300753 -0.2934812 -0.1352509 -0.0623385
-0.30612487 0.100497514 0.07753749 -0.017398393 -0.14781676 0.14185183 -0.09405207 0.5596391
0.08628149 0.22247478 -0.08253194 0.48832592 0.08290501 0.21321961 0.0007405287 -0.10664777
0.13477384 -0.34542003 0.031068131 0.16430555 0.37424883 0.005706784 0.09453038 0.32418522
-0.089358054 0.15628399 -0.029237041 -0.045054697 -0.25202596 -0.49341893 -0.07241472 -0.02472352
-0.24534968 -0.049064387 -0.049282607 -0.21971336 0.1497355 0.265071 -0.07764166 -0.04245377
-0.20976393 0.09455408 -0.07613467 0.02563185 0.331694 0.1327354 0.1016139 -0.2391049
-0.11999465 -0.2826693 0.071087666 0.13665617 0.2648696 -0.1454588 0.0544764 -0.02796651
0.109201565 0.12603515 0.07932358 0.34719247 -0.19508915 -0.13644037 -0.022627685 -0.20420317
-0.23568639 0.021216884 0.1130097 0.0283021 -0.14839165 -0.022563493 -0.19698682 0.26459327
-0.051296428 -0.32044396 -0.2421641 0.21295281 -0.12465073 0.28335458 0.08051508 0.14324105
0.31648123 0.13304347 -0.045173056 -0.18803339 0.13412473 -0.055933055 0.24873924 -0.16345999
-0.5064139 0.08760228 0.1883325 -0.079516836 -0.18212889 -0.14105079 -0.30478284 -0.3847395
0.05962454 -0.26964757 -0.035717927 0.11403944 0.3587789 -0.20739555 -0.2561816 -0.18524584
-0.094177805 0.2779951 0.39806005 -0.2398582 0.22987726 0.3876039 -0.14814614 0.030212285
0.06440807 0.15179053 -0.35384294 -0.024981964 0.026256522 -0.30682266 -0.6429712 0.40157235
-0.10071099 0.3285379 0.09285713 -0.24484386 -0.009892726 0.2504154 -0.12113602 0.07156515
-0.11791457 0.48756614 0.09430641 0.16333427 -0.3023031 -0.12355386 -0.17912365 -0.082934916
-0.07109288 -0.16670299 0.03562543 -0.30091432 0.041038472 -0.3312813 0.059249546 0.386531
0.4097151 0.13001816 -0.38819534 -0.06750094 0.05609771 0.21459323 0.13288482 -0.1400803
-0.46812847 -0.12387154 0.054913566 -0.5646467 -0.06922546 -0.1471841 0.35352972 -0.2626628
-0.2891917 0.06336101 -0.04248562 0.080980666 -0.036293104 0.03250707 0.1457066 -0.28643408
0.054132354 0.069587976 0.022135684 0.11127772 0.117282264 -0.1689223 -0.043589786 -0.077329725
0.14705351 0.02326512 0.48713493 -0.43950394 -0.10135668 -0.23415358 0.10653804 0.01678645
0.29392162 -0.1127401 -0.056805305 -0.05306364 0.30311546 -0.1414466 0.10716395 0.33100632
-0.27088654 -0.24108623 0.08330885 -0.06508785 -0.005143206 0.1557515 -0.070343405 -0.27487552
-0.090055324 0.06324874 -0.18959504 -0.35877168 0.32423216 0.100585155 0.2872752 -0.4404092
0.08240463 -0.112273306 -0.27144754 0.023434233 -0.16775276 -0.23823014 0.056584712 0.070538804
-0.1725619 0.17751198 0.3585686 0.054490518 -0.24270599 -0.38474423 0.11623454 0.20020512
0.45618197 0.02018709 0.34279844 0.1353335 0.24873357 -0.055637076 -0.27284604 0.16818383
0.16891506 -0.05470592 0.38429388 0.21268573 0.065935776 -0.005218943 -0.15523115 -0.14545073
-0.10779551 0.24660307 0.0060700714 -0.0056746257 0.011990561 0.0015388689 0.28770712 -0.18646018
00000000: f74a 79be 8f9a ae3e d17c ad3e d35b a9be
00000010: 348a 81be 2b43 96be 367f 0abe a856 7fbd
00000020: 66bc 9cbe a4d1 cd3d facb 9e3d 1387 8ebc
00000030: 475d 17be 9b41 113e 5f9e c0bd 8244 0f3f
00000040: 5ab4 b03d 6ed0 633e 8106 a9bd db05 fa3e
00000050: 1aca a93d 3e56 5a3e 0a20 423a 256a dabd
00000060: 2702 0a3e e5da b0be 9882 fe3c b73f 283e
00000070: 8b9d bf3e f9ff ba3b 2599 c13d 9bfb a53e
00000080: 5b01 b7bd e908 203e 8582 efbc 468b 38bd
00000090: 8c09 81be 68a1 fcbe 2b4e 94bd fb88 cabc
000000a0: f23c 7bbe bdf7 48bd 8fdc 49bd 8afc 60be
000000b0: 4354 193e 63b7 873e 9702 9fbd 01e4 2dbd
000000c0: 5bcc 56be 92a5 c13d 7eec 9bbd e3f9 d13c
000000d0: ccd3 a93e caeb 073e f31a d03d ead7 74be
000000e0: c1bf f5bd 08ba 90be 6996 913d 98ef 0b3e
000000f0: fd9c 873e 27f3 14be a522 5f3d 061a e5bc
00000100: 12a5 df3d 5c0f 013e 6774 a23d 36c3 b13e
00000110: 73c5 47be 06b7 0bbe b25d b9bc a31a 51be
00000120: c657 71be 08cf ad3c a171 e73d ced9 e73c
00000130: fbf3 17be 13d7 b8bc eab6 49be c578 873e
00000140: 341c 52bd 3b11 a4be def9 77be 4d10 5a3e
00000150: e248 ffbd da13 913e 17e5 a43d c8ad 123e
00000160: d409 a23e 8c3c 083e 6207 39bd d38b 40be
00000170: fe57 093e 0f1a 65bd 80b5 7e3e 0e62 27be
00000180: 57a4 01bf d368 b33d 3cda 403e b9d9 a2bd
00000190: ff7f 3abe 9e6f 10be 7f0c 9cbe 93fc c4be
000001a0: dd38 743d 3f0f 8abe f64c 12bd 838d e93d
000001b0: deb1 b73e 805f 54be 3c2a 83be 16b1 3dbe
000001c0: 4be0 c0bd 6055 8e3e 87ce cb3e 639d 75be
000001d0: f264 6b3e 0574 c63e 9fb3 17be c17f f73c
000001e0: 61e8 833d fa6e 1b3e e72a b5be faa6 ccbc
000001f0: eb17 d73c dc17 9dbe c399 24bf e49a cd3e
00000200: 9041 cebd 1f36 a83e e12b be3d 59b8 7abe
00000210: 1a15 22bc 7336 803e 2916 f8bd c090 923d
00000220: 327d f1bd 45a2 f93e b823 c13d 1941 273e
00000230: 79c7 9abe ce09 fdbd 316c 37be c8d9 a9bd
00000240: 2599 91bd 30b4 2abe f9eb 113d 7111 9abe
00000250: f517 283d b49d a9be a7af 723d 64e7 c53e
00000260: 2dc6 d13e 7b23 053e 8ac1 c6be ef3d 8abd
00000270: b6c6 653d 54be 5b3e f512 083e 3671 0fbe
00000280: 89ae efbe 5db0 fdbd 0ced 603d b08c 10bf
00000290: 14c6 8dbd 6eb7 16be d901 b53e bd7b 86be
000002a0: ef10 94be 6bc3 813d 6705 2ebd 31d9 a53d
000002b0: 14a8 14bd 2226 053d 1c34 153e 7da7 92be
000002c0: e3b9 5d3d 2484 8e3d e555 b53c 93e5 e33d
000002d0: af31 f03d f8f9 2cbe 348b 32bd 0c5f 9ebd
000002e0: 3295 163e 7e96 be3c c069 f93e a906 e1be
000002f0: 1794 cfbd f5c5 6fbe 9e30 da3d bd83 893c
00000300: e57c 963e 48e4 e6bd aeac 68bd 4259 59bd
00000310: f331 9b3e 61d7 10be c678 db3d a979 a93e
00000320: a4b1 8abe 4fdf 76be d59d aa3d c74c 85bd
00000330: 5788 a8bb 527d 1f3e 3410 90bd 7cbc 8cbe
00000340: ed6e b8bd 8e88 813d 3425 42be ecb0 b7be
00000350: c201 a63e 97ff cd3d bc15 933e 517d e1be
00000360: c2c3 a83d 8cef e5bd 2cfb 8abe 26f9 bf3c
00000370: 61c7 2bbe 9af2 73be 5fc5 673d a676 903d
00000380: 11b4 30be b3c5 353e 4e96 b73e 7331 5f3d
00000390: eb87 78be 32fd c4be 600c ee3d 9202 4d3e
000003a0: af90 e93e 655f a53c 4783 af3e dd94 0a3e
000003b0: 03b4 7e3e b4e3 63bd 7ab2 8bbe 6238 2c3e
000003c0: 12f8 2c3e 5113 60bd 2bc2 c43e 4aca 593e
000003d0: 5609 873d ab03 abbb eaf4 1ebe 09f1 14be
000003e0: e4c3 dcbd 8485 7c3e 73e7 c63b 36f2 b9bb
000003f0: 0f74 443c dfb3 c93a 594e 933e 6bef 3ebe

linear2.bias f4 [20]
-0.23315865 0.6193456 0.3565841 -0.015764872 0.75115055 -0.8006372 -2.1201742 1.6251928
-1.1978922 0.41649786 0.15038419 0.090385914 0.4934241 -0.47050956 1.3407332 0.028909884
1.6221801 0.99265516 -0.2925372 0.6600281
00000000: 24c1 6ebe 6f8d 1e3f 3192 b63e 5525 81bc
00000010: 674b 403f 8ff6 4cbf efb0 07c0 5106 d03f
00000020: 8854 99bf 353f d53e 50fe 193e 401c b93d
00000030: 15a2 fc3e a1e6 f0be 259d ab3f 6cd4 ec3c
00000040: 99a3 cf3f a61e 7e3f 70c7 95be 9af7 283f

linear3.weight f4 [20, 20]
0.09192569 -0.382807 0.39434624 -0.067999564 0.0922172 0.28000957 -0.39240763 0.09099076
-0.20235133 -0.008335328 0.07703396 0.02966983 0.019270727 0.40779874 -0.116481766 0.087302595
0.05704532 -0.5306975 0.18524492 0.069878235 0.37226635 0.57059765 0.29645157 0.009862194
-0.2899171 0.04481774 0.18227951 0.20187974 0.30617344 0.062007356 -0.5792684 -0.3631145
0.15771355 -0.0707048 0.041207027 0.3456655 -0.18596227 0.16917804 0.1518146 0.005583787
-0.19523709 0.28508174 -0.020180939 0.043077026 0.19505076 0.18007386 -0.015422031 0.16210115
0.22018476 -0.09991394 -0.05365546 0.061013397 0.17899895 0.19718368 -0.14443867 0.32313076
0.05366837 0.22616293 0.42151496 -0.17083989 -0.06570529 0.25815856 0.51990086 0.042846862
0.058223568 -0.15787415 -0.19156817 0.09079224 0.12797263 -0.36894345 0.06586872 -0.14879893
-0.033472437 -0.16124763 -0.098417945 0.19622086 0.14199579 -0.053614337 0.09824354 -0.5963578
-0.00574824 0.37039375 0.048548006 -0.33733654 0.124446526 -0.09782273 0.055229973 0.3264228
-0.2597344 -0.26228836 0.06336526 -0.11259174 -0.10516732 0.43109536 -0.121047005 0.0042993706
-0.17895044 0.011049785 0.09299666 0.019049715 0.11842693 -0.16669184 0.20979719 0.2353696
-0.3639343 -0.09477303 0.29505607 0.20500028 0.055721868 -0.054650355 0.31377164 -0.022386802
-0.21053769 -0.08260061 0.070510685 -0.3088718 -0.024424503 0.06840927 -0.08289979 -0.24734399
0.2123103 -0.4366884 -0.1947091 -0.08043692 -0.004041869 0.058582276 0.019410506 -0.29766253
-0.18008868 0.22439082 0.12184068 0.067157805 0.2886538 -0.18114614 -0.22644769 -0.30335262
0.41084898 -0.09783912 0.47819483 -0.41557267 -0.15449385 0.26436132 0.07368934 -0.14445208
0.08679391 -0.17164822 0.42623767 -0.21408011 0.40735173 -0.13992359 0.14770049 0.09753374
0.11593536 -0.044592813 -0.20592673 0.06785999 0.26524717 0.19755103 -0.049818367 -0.2380568
0.22800174 -0.23179066 -0.18761285 -0.00596377 0.106051505 -0.04830405 0.2910002 0.0067788353
0.039929654 -0.07094819 -0.15720724 -0.19391602 0.22414087 -0.08323064 -0.16893466 0.086608276
0.23757052 0.18946895 -0.24992916 0.25262925 -0.106871545 -0.03447954 -0.3377114 -0.019375054
0.4405262 0.1452919 0.11410611 -0.22659087 -0.22703487 -0.08714586 -0.2527224 0.14641388
0.114815384 -0.16074485 0.30400193 0.01868889 -0.040690057 -0.20976245 0.032059144 0.12461443
-0.3435467 -0.3217216 0.024131857 -0.26412958 0.5022037 -0.046147645 0.11406085 0.12547046
-0.02511956 -0.27771991 -0.11012339 0.10548407 -0.035010304 -0.36062807 0.3624433 -0.11670338
-0.20636487 -0.067807615 0.24220908 0.21313977 0.08521223 0.29497805 -0.105079874 -0.40716293
-0.02615944 0.43295884 0.20744199 -0.28291568 -0.28558344 0.017955495 -0.11012927 0.0133535005
0.048525378 -0.049639378 0.091618076 -0.34822407 -0.11192168 -0.23773403 0.192667 0.050288066
0.20649454 0.15315868 0.11634591 -0.25846562 0.41686296 -0.20821323 0.11002459 0.13622442
0.085992396 -0.40829772 0.17527567 0.10573009 -0.22873642 -0.25738472 0.14446218 -0.41138643
00000000: 8943 bc3d 47ff c3be c0e7 c93e 5b43 8bbd
00000010: 5fdc bc3d 6a5d 8f3e a7e9 c8be 5d59 ba3d
00000020: 3035 4fbe e690 08bc fbc3 9d3d 250e f33c
00000030: a5dd 9d3c ffca d03e fe8d eebd b4cb b23d
00000040: 5aa8 693d cbdb 07bf d8b0 3d3e 521c 8f3d
00000050: b299 be3e b012 123f 80c8 973e 0a95 213c
00000060: 0470 94be ce92 373d 7ba7 3a3e 90b9 4e3e
00000070: c4c2 9c3e 6dfb 7d3d ef4a 14bf 25ea b9be
00000080: a97f 213e aecd 90bd b3c8 283d 12fb b03e
00000090: e56c 3ebe 023d 2d3e 4975 1b3e 33f8 b63b
000000a0: 3bec 47be 3cf6 913e 7f52 a5bc 8971 303d
000000b0: 63bb 473e 4865 383e b0ac 7cbc d8fd 253e
000000c0: 1d78 613e ae9f ccbd d4c5 5bbd 2fe9 793d
000000d0: 804b 373e 85ea 493e bbe7 13be 6571 a53e
000000e0: 5dd3 5b3d 4197 673e cfd0 d73e a7f0 2ebe
000000f0: 7f90 86bd 5c2d 843e 3918 053f 3180 2f3d
00000100: d67b 6e3d c3a9 21be 722a 44be 48f1 b93d
00000110: 420b 033e 28e6 bcbe 2ee6 863d bf5e 18be
00000120: 651a 09bd 191e 25be 598f c9bd 1fee 483e
00000130: 5867 113e b59a 5bbd e933 c93d e8aa 18bf
00000140: bb5b bcbb 40a4 bd3e 46da 463d 60b7 acbe
00000150: d2dd fe3d 4957 c8bd d338 623d e420 a73e
00000160: e8fb 84be a94a 86be a5c5 813d 8096 e6bd
00000170: f761 d7bd 88b8 dc3e 7ee7 f7bd bce1 8c3b
00000180: c93e 37be 280a 353c 0875 be3d 260e 9c3c
00000190: d189 f23d 44b1 2abe 13d5 563e ba04 713e
000001a0: 9955 babe 5d18 c2bd 9711 973e 98eb 513e
000001b0: 9d3c 643d 0dd9 5fbd ada6 a03e 8764 b7bc
000001c0: 3197 57be 822a a9bd e867 903d 7224 9ebe
000001d0: e515 c8bc 291a 8c3d 5dc7 a9bd be47 7dbe
000001e0: df67 593e 9f95 dfbe d361 47be 1dbc a4bd
000001f0: a871 84bb f8f3 6f3d c802 9f3c 3967 98be
00000200: 2b69 38be b5c6 653e 9b87 f93d 088a 893d
00000210: 6eca 933e 607e 39be e7e1 67be 0951 9bbe
00000220: cc5a d23e e05f c8bd f4d5 f43e f1c5 d4be
00000230: a333 1ebe 5e5a 873e 70ea 963d 3feb 13be
00000240: 01c1 b13d 8dc4 2fbe d33b da3e d137 5bbe
00000250: 6890 d03e 2148 0fbe cc3e 173e c5bf c73d
00000260: 856f ed3d f4a6 36bd 75de 52be 2efa 8a3d
00000270: 7ace 873e d14a 4a3e 580e 4cbd 29c5 73be
00000280: 4a79 693e 885a 6dbe 951d 40be bb6b c3bb
00000290: 8831 d93d 78da 45bd fafd 943e fe20 de3b
000002a0: 478d 233d 494d 91bd effa 20be ec91 46be
000002b0: 2f85 653e d374 aabd 35fd 2cbe ae5f b13d
000002c0: b045 733e 2604 423e 6eed 7fbe 9f58 813e
000002d0: 78df dabd 6b3a 0dbd 82e8 acbe 6fb8 9ebc
000002e0: a68c e13e 66c7 143e 77b0 e93d 7007 68be
000002f0: d47b 68be 8779 b2bd d564 81be 85ed 153e
00000300: 5424 eb3d 4c9a 24be 24a6 9b3e 7119 993c
00000310: 9eaa 26bd f8cb 56be 7350 033d da35 ff3d
00000320: 5ae5 afbe b2b8 a4be 2cb0 c53c fe3b 87be
00000330: 6c90 003f 5005 3dbd bc98 e93d 547b 003e
00000340: 89c7 cdbc 4e31 8ebe 5f88 e1bd 0808 d83d
00000350: f766 0fbd 3ea4 b8be 2b92 b93e 2f02 efbd
00000360: 5051 53be b8de 8abd a805 783e 5041 5a3e
00000370: c083 ae3d 5d07 973e 1e34 d7bd a977 d0be
00000380: 524c d6bc c8ac dd3e ac6b 543e 53da 90be
00000390: fe37 92be 6717 933c 748b e1bd a4c8 5a3c
000003a0: 8cc2 463d a952 4bbd 42a2 bb3d 6d4a b2be
000003b0: 3237 e5bd 8d70 73be 804a 453e dcfa 4d3d
000003c0: 4e73 533e a1d5 1c3e c446 ee3d 9b55 84be
000003d0: 106f d53e d935 55be 9254 e13d 6a7e 0b3e
000003e0: c81c b03d 660c d1be 777b 333e 0489 d83d
000003f0: e139 6abe eec7 83be e5ed 133e 3ea1 d2be

linear3.bias f4 [20]
0.45334712 0.18802351 0.6848651 -0.08325178 0.35078064 -1.4578342 -0.4563211 2.2473536
-0.5986275 -0.25132978 -2.6399057 -1.1858959 -0.8571807 -0.62768304 0.75031847 -0.49316883
0.034902625 0.1797409 -1.3290532 -0.8581465
00000000: 1d1d e83e 3c89 403e 5253 2f3f e97f aabd
00000010: 8599 b33e 509a babf eba2 e9be a4d4 0f40
00000020: a73f 19bf 4cae 80be 37f4 28c0 70cb 97bf
00000030: 3270 5bbf d6af 20bf df14 403f a080 fcbe
00000040: 0ef6 0e3d 000e 383e 6a1e aabf 7daf 5bbf

linear4.weight f4 [20, 20]
-0.38257226 -0.18795265 0.314151 -0.18437402 0.2625089 -0.25209647 -0.07321858 0.102286
-0.31770626 -0.35654107 0.010875342 -0.10130525 0.13926691 -0.39594325 0.22067812 0.19142872
-0.37520045 -0.15540491 -0.24970758 -0.16486992 0.11739379 -0.11243048 -0.24114397 -0.056293502
0.42231268 0.14986503 0.011958192 0.10470659 0.27814338 0.07975674 0.07750873 0.38089687
0.06506342 0.08319063 -0.12987563 0.14245535 0.00549899 0.33590037 -0.35336456 0.5039531
0.56536686 -0.37457493 -0.27260387 -0.18662821 0.3223673 -0.09408773 -0.06635476 0.15183616
-0.06543809 -0.109748594 -0.06749455 0.19453184 -0.10755662 0.0785581 -0.15253134 0.00359577
0.039226938 0.05554323 0.17862724 -0.15925495 -0.047276415 -0.08286551 0.051456425 0.6749542
-0.022330474 -0.20044532 -0.39137915 -0.07109452 -0.254127 0.26995715 -0.082465544 0.32801354
0.031538587 0.18162806 -0.013299447 0.10426846 -0.06851479 0.118306324 0.097043246 -0.0765068
-0.08033852 -0.21260592 -0.07605782 0.16673356 0.15542898 0.17198154 0.10590579 0.28402233
0.0115698185 -0.034369938 -0.08347986 -0.034463175 0.21989235 -0.28377172 0.43096238 0.09468356
-0.03856961 0.5386538 -0.05165809 0.21423277 0.0072617256 0.23739614 -0.1481156 0.30990222
0.18957293 0.110840805 -0.38079447 -0.20272194 -0.08956381 -0.47518426 0.00952985 -0.52201587
-0.10737712 -0.6706618 0.020862238 -0.2592501 -0.005426515 0.040058214 -0.47740823 0.026042383
0.0120700495 -0.23153916 0.099358015 0.26460177 -0.056470636 -0.07587822 -0.0012863835 -0.10794041
0.16631053 -0.05380045 -0.38742507 -0.037675064 -0.22861402 0.41125885 0.3465908 0.08782149
0.49431935 0.068673946 0.13460167 0.35922384 -0.012374378 0.28383172 0.23654751 -0.07296392
0.36299795 0.32281676 -0.29459575 0.079528704 0.008306092 -0.22166498 0.18637212 0.027559008
-0.3848482 0.3872246 -0.1132911 0.03790521 0.50824076 0.33006486 -0.086699076 -0.054852962
-0.18634225 -0.14578757 0.04595429 -0.03172755 -0.11933187 -0.23436803 0.46086636 0.18832305
-0.00043437284 -0.22949669 -0.059596352 -0.14281572 -0.35481927 0.1979202 0.1046541 0.21429132
-0.1328695 -0.13691121 0.3016773 -0.049036536 0.12305308 0.16740574 0.13988028 -0.23318423
0.105402 -0.34249833 -0.32718053 -0.06300299 -0.28816956 0.35674995 0.08820307 -0.029903216
-0.11414404 -0.06231633 0.31953138 -0.05700653 -0.24685508 -0.1222754 0.09300546 0.012691372
0.54817927 0.20828947 0.21636218 0.39255512 -0.056333978 -0.35330898 0.039554194 0.28692794
0.41023093 -0.20797443 -0.25617078 0.10895132 0.48488313 0.19003876 0.3185808 -0.042386565
-0.27112734 -0.175061 0.09610952 -0.101436235 0.41074023 0.15942176 -0.12870279 0.22127505
0.041021436 -0.07588068 -0.13700344 0.16848347 -0.016957292 0.0616494 0.040807612 0.4442593
-0.008992524 -0.3773653 -0.0862155 0.086904295 0.059338965 0.43675977 0.0806777 -0.13883251
0.15228553 -0.12309122 0.23801415 -0.34163824 -0.08955701 -0.054279972 -0.3656465 0.18398447
-0.307733 -0.021482725 -0.1360966 0.42699274 -0.0050551104 -0.17262405 0.2040997 0.13005266
00000000: 83e0 c3be a976 40be 66d8 a03e 8bcc 3cbe
00000010: 9167 863e ca12 81be 9ff3 95bd 537b d13d
00000020: 65aa a2be 8d8c b6be 7e2e 323c 2079 cfbd
00000030: fc9b 0e3e 13b9 cabe 72f9 613e e405 443e
00000040: 461a c0be 7722 1fbe 58b3 7fbe a9d3 28be
00000050: 286c f03d f441 e6bd 72ee 76be 0494 66bd
00000060: 5e39 d83e 3876 193e 4bec 433c 6970 d63d
00000070: cf68 8e3e 8057 a33d e6bc 9e3d ea04 c33e
00000080: f83f 853d d95f aa3d 1efe 04be d1df 113e
00000090: df30 b43b 22fb ab3e 33ec b4be 1203 013f
000000a0: e2bb 103f 49c8 bfbe bc92 8bbe 771b 3fbe
000000b0: 540d a53e 11b1 c0bd 01e5 87bd f07a 1b3e
000000c0: 6804 86bd dfc3 e0bd 953a 8abd 5b33 473e
000000d0: a546 dcbd 12e3 a03d 2d31 1cbe 03a7 6b3b
000000e0: 6dac 203d 4c81 633d 0fea 363e bb13 23be
000000f0: eaa4 41bd 64b5 a9bd f9c3 523d ccc9 2c3f
00000100: 66ee b6bc 8a41 4dbe d962 c8be 019a 91bd
00000110: ef1c 82be d337 8a3e b2e3 a8bd 64f1 a73e
00000120: 9b2e 013d b5fc 393e ece5 59bc b48a d53d
00000130: 7b51 8cbd 964a f23d 9cbe c63d 99af 9cbd
00000140: 8688 a4bd 5eb5 59be 34c4 9bbd 34bc 2a3e
00000150: c628 1f3e ee1b 303e 23e5 d83d 606b 913e
00000160: 568f 3d3c 7ec7 0cbd 7df7 aabd 4229 0dbd
00000170: 762b 613e 874a 91be 1aa7 dc3e 74e9 c13d
00000180: 2bfb 1dbd 37e5 093f 6f97 53bd d65f 5b3e
00000190: c5f3 ed3b f917 733e 9eab 17be 81ab 9e3e
000001a0: 681f 423e 8100 e33d 7ef7 c2be 5796 4fbe
000001b0: 3b6d b7bd 5a4b f3be 1723 1c3c d5a2 05bf
000001c0: 89e8 dbbd 7eb0 2bbf 49e7 aa3c 6ebc 84be
000001d0: e8d0 b1bb 1514 243d da6e f4be d656 d53c
000001e0: 75c1 453c 9a18 6dbe 377c cb3d e279 873e
000001f0: c14d 67bd 0a66 9bbd de9b a8ba dd0f ddbd
00000200: 4f4d 2a3e dc5d 5cbd 945c c6be 2b51 1abd
00000210: cb19 6abe 8590 d23e 5974 b13e c1db b33d
00000220: 6d17 fd3e eda4 8c3d 05d5 093e 30ec b73e
00000230: e7bd 4abc 6452 913e 8339 723e 1c6e 95bd
00000240: deda b93e 3d48 a53e 41d5 96be f2df a23d
00000250: 4616 083c 25fc 62be 55d8 3e3e 6ec3 e13c
00000260: d30a c5be 4e42 c63e 2a05 e8bd 7e42 1b3d
00000270: 111c 023f 43fe a83e 498f b1bd 80ad 60bd
00000280: 81d0 3ebe 5649 15be 913a 3c3d bff4 01bd
00000290: 4464 f4bd 2cfe 6fbe adf6 eb3e c2d7 403e
000002a0: 89bc e3b9 2e01 6bbe 4e1b 74bd 493e 12be
000002b0: dfaa b5be 98ab 4a3e e454 d63d 2f6f 5b3e
000002c0: f10e 08be 7432 0cbe 7275 9a3e 89da 48bd
000002d0: 4103 fc3d 696c 2b3e c73c 0f3e d9c7 6ebe
000002e0: 01dd d73d f15b afbe 3584 a7be b607 81bd
000002f0: f68a 93be eea7 b63e d0a3 b43d 97f7 f4bc
00000300: 5ac4 e9bd 683f 7fbd 9e99 a33e ae7f 69bd
00000310: 94c7 7cbe 866b fabd a679 be3d 79ef 4f3c
00000320: 7a55 0c3f d649 553e 0c8e 5d3e fcfc c83e
00000330: 75be 66bd eae4 b4be 9403 223d 38e8 923e
00000340: ca09 d23e 40f7 54be d128 83be df21 df3d
00000350: 9a42 f83e 8599 423e 061d a33e 899d 2dbd
00000360: 34d1 8abe 3143 33be 11d5 c43d cdbd cfbd
00000370: 8b4c d23e 753f 233e aaca 03be ed95 623e
00000380: 1806 283d 5467 9bbd a14a 0cbe ee86 2c3e
00000390: 05ea 8abc 1584 7c3d e225 273d f475 e33e
000003a0: 6155 13bc 0636 c1be c191 b0bd e1fa b13d
000003b0: 6a0d 733d fa9e df3e 5a3a a53d 1c2a 0ebe
000003c0: bdf0 1b3e 4017 fcbd fbb9 733e 35eb aebe
000003d0: aa69 b7bd ad54 5ebd 0536 bbbe 6d66 3c3e
000003e0: 2e8f 9dbe 8afc afbc e85c 0bbe cb9e da3e
000003f0: 57a5 a5bb 5cc4 30be 83ff 503e 862c 053e

linear4.bias f4 [20]
0.5637958 -1.984635 -1.0170485 0.37933558 -0.5616767 -1.1591187 -0.36574307 0.113933474
-0.5888004 -0.15041853 -0.035311185 -0.30972716 -2.486089 1.5077039 0.58599573 0.3097533
0.38537514 1.26638 -0.41321874 -0.4138195
00000000: ec54 103f 8508 febf a52e 82bf 4638 c23e
00000010: 0bca 0fbf 005e 94bf ad42 bbbe f455 e93d
00000020: 9fbb 16bf 5107 1abe 76a2 10bd 8f94 9ebe
00000030: 151c 1fc0 71fc c03f d103 163f fc97 9e3e
00000040: e44f c53e bd18 a23f 6891 d3be 26e0 d3be

linear5.weight f4 [1, 20]
-0.039667826 0.33453292 -0.13256027 0.044276826 0.1680137 -0.11875095 0.17282936 -0.25729692
-0.3453239 -0.014428818 -0.058109567 0.059132595 0.3468428 0.13192888 0.4407856 -0.39534488
-0.4396014 -0.17302424 0.23162271 -0.0018125359
00000000: bb7a 22bd e647 ab3e e1bd 07be 9e5b 353d
00000010: c90b 2c3e b333 f3bd 2efa 303e 6cbc 83be
00000020: 4bce b0be d966 6cbc 4c04 6ebd 0535 723d
00000030: 6195 b13e 5d18 073e a6ae e13e a56a cabe
00000040: 6f13 e1be 442d 31be 812e 6d3e 9d92 edba
