KINN/Plate_hole/BINN_plate_hole/output/BIE_kanBEAM_kongban.pt (torch, 10902 bytes, 16 tensors)

layers.0.base_weight f4 [5, 2]
00000000: 2cf7 123e 83dd 173f 9e9a 183f f77c f5be
00000010: 7db6 1dbf 3055 9bbe 87d7 f9be d016 613e
00000020: 4c99 09be 8ea4 9d3e
0.14352101 0.59322375 0.5961093 -0.47946903 -0.6160658 -0.3033843 -0.48797247 0.21981359
-0.13437384 0.30789608

layers.0.spline_weight f4 [5, 2, 13]
00000000: 6294 6ebc 264c 3abd 5c7f 4dba e499 3e3f
00000010: b2ce 183f e83f c8be 632d 36be 7195 803c
00000020: 887b c7bb 8a85 ecbd 052b 86bd 4680 d53d
00000030: 8861 263e 86c9 623e 7c3e abbd 0d75 90be
00000040: 29ee 763e efe8 abbe cd9b 88be 85ff 023d
00000050: 490f babd 3900 c33d e98b 403e 90a3 293e
00000060: 2acc 4dbe c13d bdbe 97c4 063e aa34 eebc
00000070: b22b 0c3d fa80 0ebe 656a 63be 71ea ebbe
00000080: 0a63 11be fd81 283e 298c b53e 6e36 cb3e
00000090: ec01 4b3e d0ea 973d e516 3b3d 5a96 59bc
000000a0: 5c71 3a3e 1b41 e3bb e496 9b3c 9d37 473e
000000b0: 2289 353d 2630 0f3e 10d0 663e 5938 c53d
000000c0: fa19 0d3e 3f32 8dbe 10e5 96be fe3d 0f3e
000000d0: a59e 023e b063 85be a405 34be 69f2 093f
000000e0: fa0b 01bf 7b1c 4abf e171 5cbe 8d96 15bd
000000f0: bf81 c8bc a5db a3bc 01cc 3fbd 2960 7abd
00000100: 2280 8abd 232e 073e 3b20 4abf 0569 3a3d
00000110: a133 143f ddd3 51be 320b 2fbe 0f21 4fbd
00000120: 7ae1 f3bd 9574 26be e85b dfbd b698 94bb
00000130: 1381 ca3d 6fc7 bf3d 8b17 eebd c348 05be
00000140: 46a6 e63d e536 943e 868b d4bb a9cd 31be
00000150: 3d50 07bf f4bc 2cbf efd5 2bbf 7810 4abf
00000160: d1dc f13d e01e 96bd 6518 01be 9d4a 89bd
00000170: 865b d8be 2b1d 323e 427d a73c f6ea 4e3e
00000180: 331a f43e 2200 823e a021 773e 263c 8bbc
00000190: 94b3 21be 442c 46be 7912 15bd 2d48 99bd
000001a0: 6881 edbd f4dd 1c3e 93c9 b33d 3c4b a53d
000001b0: c863 f2bd 0ab7 1abe 2a08 8dbe 8e07 f7bd
000001c0: 21f2 213e 25aa 183e 5f8a c73c e433 ba3d
000001d0: 8936 d63d e986 a9bd c448 e43d 3488 973d
000001e0: 4be0 9a3c 8b33 9b3e 4cdc af3e ab8d 723e
000001f0: c5ff 8c3e 7eb8 46be 37fa b9be f2fe 18be
00000200: 98aa d1bc eb5e 71bd
-0.014561744 -0.045482777 -0.00078391074 0.7445357 0.5969039 -0.39111257 -0.17790751 0.01569626
-0.006087724 -0.11548908 -0.06551174 0.10424857 0.16248143 0.22147188 -0.08361527 -0.28214303
0.24114288 -0.33576152 -0.26681367 0.031981964 -0.09084947 0.09521527 0.18803371 0.165663
-0.20097414 -0.36961177 0.1316093 -0.029077847 0.03422136 -0.13916388 -0.22208555 -0.46077302
-0.14197937 0.16455837 0.35458496 0.39689964 0.19824952 0.07417834 0.04567613 -0.0132804755
0.18207306 -0.0069352514 0.018992849 0.19454809 0.044320233 0.13983211 0.22540307 0.09629888
0.1377944 -0.27577397 -0.29471636 0.13988492 0.1275583 -0.26052618 -0.17580277 0.53885514
-0.504089 -0.7894971 -0.21527816 -0.03652053 -0.02447593 -0.020002196 -0.046825413 -0.06112686
-0.06762721 0.13201194 -0.7895543 0.04551031 0.5789128 -0.20490976 -0.17094114 -0.050568637
-0.119082406 -0.1625541 -0.109062016 -0.004534806 0.098879 0.09364211 -0.11625584 -0.13016038
0.11262183 0.2894813 -0.006486359 -0.1736361 -0.5285681 -0.6747582 -0.6712331 -0.7893138
0.118096955 -0.07330108 -0.12606962 -0.067036845 -0.42257327 0.17393939 0.02044547 0.20206818
0.47676238 0.25390726 0.2413392 -0.016996454 -0.1579116 -0.19352823 -0.03639457 -0.074844696
-0.11596948 0.15319043 0.087786816 0.080709904 -0.11835438 -0.15108886 -0.2754529 -0.12061988
0.15815021 0.14908655 0.024357973 0.090919286 0.104596205 -0.08277685 0.111466914 0.073990256
0.01890578 0.30312762 0.3434776 0.23686855 0.27538887 -0.19406316 -0.3632371 -0.14941004
-0.02559404 -0.05892841

layers.0.spline_scaler f4 [5, 2]
00000000: 5077 373f c352 8fbf d52c 82bf 4c99 1dbf
00000010: edc2 533f ddad 1f3f 59a2 cdbe 497d 5e3f
00000020: 70e6 18bf 0585 283f
0.7166643 -1.1197132 -1.0169932 -0.6156204 0.8271931 0.6237467 -0.40162924 0.8690992
-0.5972662 0.6582797

layers.0.grid f4 [2, 17]
00000000: 0000 c0c0 0000 80c0 0000 00c0 0000 0000
00000010: 0000 0040 0000 8040 0000 c040 0000 0041
00000020: 0000 2041 0000 4041 0000 6041 0000 8041
00000030: 0000 9041 0000 a041 0000 b041 0000 c041
00000040: 0000 d041 0000 c0c0 0000 80c0 0000 00c0
00000050: 0000 0000 0000 0040 0000 8040 0000 c040
00000060: 0000 0041 0000 2041 0000 4041 0000 6041
00000070: 0000 8041 0000 9041 0000 a041 0000 b041
00000080: 0000 c041 0000 d041
-6.0 -4.0 -2.0 0.0 2.0 4.0 6.0 8.0
10.0 12.0 14.0 16.0 18.0 20.0 22.0 24.0
26.0 -6.0 -4.0 -2.0 0.0 2.0 4.0 6.0
8.0 10.0 12.0 14.0 16.0 18.0 20.0 22.0
24.0 26.0

layers.1.base_weight f4 [5, 5]
00000000: 807c 3f3d 2da2 d93c d523 cebe 5187 dd3e
00000010: b719 4e3e aaf4 3cbe ccbf bc3e 4452 c3be
00000020: 4ad0 7f3e dbb6 7e3e b461 aebd 356a e1bd
00000030: 6b8a 9abd 43a1 87be edfb 25be 11c5 45bd
00000040: 732a 7dbe 7f86 9bbe 6edd ab3e 7c9a 063f
00000050: db40 983e f348 093e 3cfe 8e3e 0a4b 0fbe
00000060: aa5a 533e
0.04674959 0.02656659 -0.40261713 0.432673 0.20126997 -0.18452707 0.3686508 -0.381487
0.249818 0.24874441 -0.08514729 -0.110065855 -0.075459324 -0.2649022 -0.16209383 -0.04828364
-0.24723224 -0.3037605 0.33567375 0.52579474 0.2973698 0.13406734 0.2792834 -0.13993469
0.20640054

layers.1.spline_weight f4 [5, 5, 13]
00000000: 7325 ab3d a42c 443d 691f 7cbd ff37 ae3d
00000010: 8ce1 283e 2a1a 663e 4286 a93c ae81 893e
00000020: 3ec7 f63e c2dc 5f3e 5257 cebe 6622 d63b
00000030: 5b6b 293b 7a53 c8bd fe83 05be effd a9bd
00000040: d880 823d 014f 92be d815 c9be 0757 d1be
00000050: 341f 3dbe c5cd 88bd 08aa 11bd 99a6 963a
00000060: 0000 0000 0000 0000 ed4d 053e f1d1 ea3d
00000070: 035f 023d 4f02 5cbb 00d8 09b7 fe90 003c
00000080: 5daa 10bc 2627 6e3b 849b 0439 c8ce 1d3a
00000090: a9e6 9139 0000 0000 0000 0000 6236 4fbe
000000a0: cce3 e9bc 9c17 56bd 9778 613d c04e c63d
000000b0: 1644 0bbc 3c5f 5eba 3411 c6ba 6c53 09bb
000000c0: 8a0a c7ba dadd 94b9 0000 0000 0000 0000
000000d0: e5e6 cabd a69d 19be 69c3 ccbc cbf9 3abd
000000e0: 426f 38be 3288 473d 9d43 883d 805e 5a39
000000f0: bc80 d5bb 20ac ce3b 1983 0f3b 0000 0000
00000100: 0000 0000 18e5 93bc 7d8a 1ebe b42b 493e
00000110: 5a6a b03e 432b 023e c9a2 ad3d de49 713e
00000120: 963e 863b 339b 9fbf 2c4a 57c0 9ef7 b0be
00000130: 5ce7 f73b 8501 203b d4ff cd3d 33bc 3d3e
00000140: f81c c83a c322 2fbf 02a4 d43d c6a0 503e
00000150: fc80 c03e 15ca 59bb 8a22 883c 25ca 1e3d
00000160: c2a3 413b 0000 0000 0000 0000 ec17 4c3e
00000170: 22bf 6ebb 6814 bcbe be8c ad3b ee9d 81bb
00000180: 9a37 f4ba 526d 933b f0df 13ba e286 f6bb
00000190: 4e04 0e3c 7b55 393b 0000 0000 0000 0000
000001a0: 077d 503e b89b 63bd 3e18 0bbe f534 6e3d
000001b0: 5008 b63d 4f63 bcbd 0098 e43b b1ea 02bb
000001c0: 1594 8d3b 7fc7 ad3b f464 863a 0000 0000
000001d0: 0000 0000 6768 60bd c15a 173d a4b5 64bd
000001e0: 470f f43b 3e42 38be cdc3 bd3c 8ed5 723d
000001f0: 2a21 013c cc77 0abb 970e 88bb f19a 4bba
00000200: 0000 0000 0000 0000 4f00 9a3d a727 293f
00000210: 9654 7a3f f887 5d3e 8eee 11bf a67f 52bf
00000220: 2478 36bf 50b8 4a3f 4aac 963f 91d4 0340
00000230: 1d6f ecbe 6b7b d43b be08 c33a d1d4 ab3e
00000240: de9b 913f 5e25 313f fd35 d8be 1ca9 7fbf
00000250: 6afc 4bbf f17f 2bbf 3ed8 fc3e 5104 4a3f
00000260: c525 113d cdfb 2e3b 0000 0000 0000 0000
00000270: 1ec3 683f 7c54 e2be 5b13 1bbf 100a 70bb
00000280: 1130 1b3c 28a6 05bc 8af0 f83b 84aa 6b3a
00000290: 5cc5 3e3b 56e4 f3b6 b801 82b9 0000 0000
000002a0: 0000 0000 122a f8be bb77 67be 686d 9c3e
000002b0: e52f 0cb9 a7c8 f4be 0af5 f2be c0f5 bdbb
000002c0: aabb a0bb bb8c 07bb 8910 083b 4d33 283a
000002d0: 0000 0000 0000 0000 8e7d 223f b8f7 6bbd
000002e0: ea9e ba3d 97c8 393e dd64 c5bd 907a e83d
000002f0: ad41 3f3d 94e5 b93a 2561 4e3b dfa2 95ba
00000300: 74d2 00ba 0000 0000 0000 0000 7f12 1abf
00000310: 5e29 673e 5bee 2b3f e5f1 fc3e 7de2 1abe
00000320: 770e 83be 4f77 00be 4ae6 5cbd 9087 b8be
00000330: 91c0 aabf 5c23 0dbe a3e4 4dbb b4e5 a5ba
00000340: cc1c 213d c232 963e eda4 073e 8391 7d3f
00000350: 1f42 2b3f 3fec 323d 74a8 81bf 9b88 6bbc
00000360: caf2 623e 2fb8 0dbd ce70 d738 0000 0000
00000370: 0000 0000 d620 ccbd 929d 91be ab0a a3be
00000380: 3800 093c ae39 e2bb 823e c83b 5aec f0bb
00000390: 52cc 7b3b 3888 b23b 1147 123b fb60 ad39
000003a0: 0000 0000 0000 0000 9c9c 253e 4650 d2bc
000003b0: 4616 b93d 6531 ba3d 0d32 973d 8f77 5e3e
000003c0: 545e 76bb ccc0 123b e458 09bb ed7c d23b
000003d0: ba43 fb3a 0000 0000 0000 0000 5486 1abe
000003e0: 15bb 013f 650c 193f 8bea 633d f601 dfbd
000003f0: c18b a43c 897b 9e3d c8e4 c93b eede 17bc
0.08356752 0.047894135 -0.061553393 0.08506774 0.1649229 0.22470918 0.020693902 0.2685675
0.48198885 0.21861556 -0.40300995 0.0065348623 0.0025851342 -0.09781547 -0.13038632 -0.08300387
0.06372231 -0.285759 -0.39274478 -0.4088671 -0.18468934 -0.066798724 -0.035562545 0.0011493742
0.0 0.0 0.13018008 0.114658244 0.03182889 -0.0033570712 -8.216128e-06 0.007847069
-0.00882968 0.0036339252 0.00012646435 0.00060198875 0.0002782841 0.0 0.0 -0.20235589
-0.028551005 -0.05226861 0.055046644 0.09682989 -0.00850012 -0.0008482819 -0.0015111328 -0.0020954264
-0.0015185636 -0.00028394052 0.0 0.0 -0.09907321 -0.15001544 -0.024995523 -0.045648377
-0.18011191 0.04871387 0.06653521 0.00020825304 -0.0065155905 0.00630714 0.0021898209 0.0
0.0 -0.018053576 -0.15482517 0.19645578 0.3445614 0.12711816 0.084783144 0.23563334
0.0040968163 -1.2469238 -3.363902 -0.34563917 0.007565422 0.0024414968 0.10058561 0.18528824
0.0015267422 -0.6841242 0.103828445 0.2037383 0.37598407 -0.0033232023 0.016618032 0.038767
0.002954707 0.0 0.0 0.19931 -0.0036429842 -0.3673432 0.005296319 -0.0039555943
-0.0018632293 0.004499116 -0.0005640974 -0.0075234035 0.0086680185 0.002827971 0.0 0.0
0.20360194 -0.055568427 -0.13583466 0.058155973 0.08888304 -0.09198629 0.0069761276 -0.0019976313
0.0043206313 0.005303323 0.0010253475 0.0 0.0 -0.054787066 0.036951784 -0.05583729
0.0074481103 -0.1799402 0.023164654 0.059285693 0.007881442 -0.0021128533 -0.00415213 -0.00077669235
0.0 0.0 0.0751959 0.6607613 0.9778532 0.21633899 -0.5700463 -0.82226026
-0.7127707 0.7918749 1.1771328 2.059849 -0.46178523 0.006484439 0.0014879925 0.33560804
1.1375692 0.6919764 -0.4222869 -0.99867415 -0.7968203 -0.669921 0.4938373 0.78912836
0.03543641 0.0026700378 0.0 0.0 0.90922725 -0.4420508 -0.6057641 -0.0036627091
0.009471909 -0.0081572905 0.007597034 0.00089899474 0.0029109335 -7.268546e-06 -0.00024796813 0.0
0.0 -0.48469597 -0.22604267 0.3055222 -0.00013369283 -0.47809336 -0.47452575 -0.005797118
-0.004905184 -0.0020683247 0.002076181 0.0006416336 0.0 0.0 0.6347283 -0.05760929
0.09112342 0.18142925 -0.09638379 0.11351502 0.046693493 0.00141828 0.0031491008 -0.0011416337
-0.00049141725 0.0 0.0 -0.6018447 0.22574374 0.67160577 0.494033 -0.15125461
-0.25596973 -0.12545513 -0.05393056 -0.36040926 -1.3340017 -0.1378302 -0.0031416796 -0.0012656958
0.039334103 0.293356 0.13246508 0.9905016 0.6689777 0.043682333 -1.0129533 -0.014375831
0.22162929 -0.03459948 0.000102730104 0.0 0.0 -0.099672005 -0.2844053 -0.31844077
0.008361869 -0.0069038486 0.006110967 -0.007352394 0.0038421345 0.0054483674 0.002232019 0.00033069387
0.0 0.0 0.16173023 -0.025673043 0.090374514 0.090914525 0.07382593 0.21725295
-0.0037592845 0.0022392748 -0.0020957524 0.0064235837 0.0019169964 0.0 0.0 -0.15090305
0.5067609 0.5978454 0.0556436 -0.10889046 0.020086171 0.07738406 0.006161306 -0.009269459

layers.1.spline_scaler f4 [5, 5]
00000000: 7367 11bf 20b5 8f3e 9930 f43e d77c d03e
00000010: 0197 043f 901a 86be 2a60 35bf 3c9c 343f
00000020: b71d 6a3e 29df 063f 8f1e 893f 7cf0 8abf
00000030: 9d27 d1bf 0ce7 413f e16f 7c3f 9841 463f
00000040: a3b1 febe 8ba1 1abf ef80 f93e e645 4d3f
00000050: 471e 10bf 1005 c9be 8362 233f 1653 e2be
00000060: bde6 163f
-0.56798476 0.28067875 0.47693327 0.40720245 0.51792914 -0.2619214 -0.7084986 0.70550895
0.22862898 0.52684265 1.0712451 -1.085464 -1.6340214 0.75743175 0.98608214 0.7744384
-0.497449 -0.60402745 0.4873118 0.8018478 -0.562962 -0.39261675 0.6382219 -0.44204015
0.5894583

layers.1.grid f4 [5, 17]
00000000: 0000 c0c0 0000 80c0 0000 00c0 0000 0000
00000010: 0000 0040 0000 8040 0000 c040 0000 0041
00000020: 0000 2041 0000 4041 0000 6041 0000 8041
00000030: 0000 9041 0000 a041 0000 b041 0000 c041
00000040: 0000 d041 0000 c0c0 0000 80c0 0000 00c0
00000050: 0000 0000 0000 0040 0000 8040 0000 c040
00000060: 0000 0041 0000 2041 0000 4041 0000 6041
00000070: 0000 8041 0000 9041 0000 a041 0000 b041
00000080: 0000 c041 0000 d041 0000 c0c0 0000 80c0
00000090: 0000 00c0 0000 0000 0000 0040 0000 8040
000000a0: 0000 c040 0000 0041 0000 2041 0000 4041
000000b0: 0000 6041 0000 8041 0000 9041 0000 a041
000000c0: 0000 b041 0000 c041 0000 d041 0000 c0c0
000000d0: 0000 80c0 0000 00c0 0000 0000 0000 0040
000000e0: 0000 8040 0000 c040 0000 0041 0000 2041
000000f0: 0000 4041 0000 6041 0000 8041 0000 9041
00000100: 0000 a041 0000 b041 0000 c041 0000 d041
00000110: 0000 c0c0 0000 80c0 0000 00c0 0000 0000
00000120: 0000 0040 0000 8040 0000 c040 0000 0041
00000130: 0000 2041 0000 4041 0000 6041 0000 8041
00000140: 0000 9041 0000 a041 0000 b041 0000 c041
00000150: 0000 d041
-6.0 -4.0 -2.0 0.0 2.0 4.0 6.0 8.0
10.0 12.0 14.0 16.0 18.0 20.0 22.0 24.0
26.0 -6.0 -4.0 -2.0 0.0 2.0 4.0 6.0
8.0 10.0 12.0 14.0 16.0 18.0 20.0 22.0
24.0 26.0 -6.0 -4.0 -2.0 0.0 2.0 4.0
6.0 8.0 10.0 12.0 14.0 16.0 18.0 20.0
22.0 24.0 26.0 -6.0 -4.0 -2.0 0.0 2.0
4.0 6.0 8.0 10.0 12.0 14.0 16.0 18.0
20.0 22.0 24.0 26.0 -6.0 -4.0 -2.0 0.0
2.0 4.0 6.0 8.0 10.0 12.0 14.0 16.0
18.0 20.0 22.0 24.0 26.0

layers.2.base_weight f4 [5, 5]
00000000: dc6c eabd faf1 bf3d eed2 9fbe ee82 efbe
00000010: 91fe 973e 8fd7 5bbe 4539 c3be c314 e0be
00000020: e46b 9d3e 940a 0e3e 095d c7be cde6 60be
00000030: ff80 58bd b43e 4fbe 7d73 16be 1dcb eabd
00000040: f753 09be f64f d1bd a902 1f3f 4e20 91be
00000050: 5cd0 ca3e ca42 6f3e 6c5e 723d f55f 403e
00000060: 4a0a 0ebf
-0.114465445 0.09372325 -0.31215614 -0.4677958 0.29686406 -0.21468948 -0.3812963 -0.4376584
0.30746377 0.13871223 -0.38938168 -0.21963044 -0.052857395 -0.20238763 -0.14692493 -0.11464522
-0.13410936 -0.102203295 0.62113434 -0.2834496 0.3961209 0.23365322 0.05917208 0.18786605
-0.5548445

layers.2.spline_weight f4 [5, 5, 13]
00000000: d2f9 6b3e a99f 653e b55d bf3e 185d 683e
00000010: bb5a 3bbd 131e b7bd ea28 7bba ea8f 16bb
00000020: 9bb5 3f3b e8bc 23bb e035 04bb a140 b13b
00000030: 9e5d c83a 3439 9b3c 3050 293e e922 39bf
00000040: 51ed 81be c8bf b9bc f863 573d 1b2a 723a
00000050: 5036 3aba 99d0 bebb de82 f0ba baa9 a7b8
00000060: 0000 0000 0000 0000 9292 dfbe 8117 8fbe
00000070: 822f 673e 5dfb 4040 a810 0e3c b884 b6bb
00000080: cdcf 97bb 40ac 273b 0466 ce3b 044b 75bb
00000090: 449c b6ba 0000 0000 0000 0000 f3a8 2abf
000000a0: 581c 81be bef4 a43e 07d4 b8be 4482 133e
000000b0: fc99 8c3e 48a7 b23b 32b4 d93b 75d6 e8bb
000000c0: 67c7 3ab9 d24e 0f3a 0000 0000 0000 0000
000000d0: 29a5 77be 34b8 98be df9d 9abe 04d3 c4be
000000e0: 2c43 963e 12ee fe3f e7cc 093c e0aa 23bb
000000f0: 7484 793b 083b 6abb fa5b afba 0000 0000
00000100: 0000 0000 a949 893e 0f57 dc3c 03f1 94be
00000110: 8032 bfbe 1269 9ebd 42a2 8dbd cc4b 4fbb
00000120: 3253 9339 0e9d af3a 9e7a e73a 1366 bbbb
00000130: 76a9 7a3b 50e2 bf3a 7f6b 663e c3e3 b93d
00000140: f2c8 d23c 0095 833f d4d8 e7bd 8f36 fcbc
00000150: 3021 093b 9a7c c33b d832 c23a 5983 cf3b
00000160: 2ff9 de3a 0000 0000 0000 0000 b03d f13d
00000170: a61d d9be c306 17bf 5710 26c0 53bd 5b3b
00000180: e00c b0bb beab a6bb 9933 083c e8ce 15bb
00000190: ec48 4dba 18d9 0939 0000 0000 0000 0000
000001a0: 6980 4e3e 36d2 d93e cd1f 9fbe c3e9 d3be
000001b0: 2414 13bf 6c35 d3be 00d1 83b9 910c 00bc
000001c0: 6826 1b3c 2971 abba 9a11 99ba 0000 0000
000001d0: 0000 0000 3bea d23e 68af 06be e49a f0be
000001e0: 5d70 c5be 6d68 18be 47eb 57be 5b0e 283b
000001f0: 38c9 61bb 6a84 94bb 2f09 84bb d992 5bba
00000200: 0000 0000 0000 0000 ff35 06be 8507 fbbd
00000210: 62f1 46bc c59e 25be 0870 8f3d 5979 c33d
00000220: 74ba f33b ee67 12bc f221 0f3c 2bf1 40bc
00000230: fe88 113c 82b7 1a3b c4f8 98b9 5450 113e
00000240: 6c21 dd3c 26be 213e c126 063e 0285 b13c
00000250: 3d8f e13c a0ab e83a e2e8 01bc dbec 823b
00000260: d96c ad3b 21db 7a3a 0000 0000 0000 0000
00000270: b791 b5bd ab10 b5bd 6621 89be fd0a 5b3d
00000280: 30da 7fbb f632 e43b e07f f6b9 dc9b 093c
00000290: 2aec 01bc a8c3 333b 76f4 c13a 0000 0000
000002a0: 0000 0000 23f3 1f3e e495 e33d e91f 93be
000002b0: 4d98 93bd c522 c33d 6b93 aabe 92b0 123c
000002c0: 1598 eabb a4e2 98ba d248 c6bb e8ce e3ba
000002d0: 0000 0000 0000 0000 7b42 bf3d 8d5b 713d
000002e0: a855 183e 6f06 613f 9e4f 433f 7671 29c0
000002f0: 7d3f 9dbb 2fbe 203c 9f91 a5bb e510 d63a
00000300: 2f8e 843a 0000 0000 0000 0000 6ccb f23c
00000310: f935 013d bf9c 2b3e ccd9 b43c b6b1 b73d
00000320: d148 d83d 69a1 8e3a 9eb7 4dbb 0cf8 d4ba
00000330: 14da ffba b3c2 573b 1c86 cc3b 5fbd b73a
00000340: 89bf b73e e6e4 0e3e 0090 353e b3ed 353e
00000350: 0073 cdbd bb26 8cbb 416a 3bbb cc29 b6ba
00000360: f687 863b 01db 253b 2ddd bd39 0000 0000
00000370: 0000 0000 9320 493e 70c7 febe 1906 2bbf
00000380: 034b 4bbf d6e9 98bb 239d 08bc 0c9e 163c
00000390: 802c f4b8 ec40 cebb ff29 91bb 7310 50ba
000003a0: 0000 0000 0000 0000 25ef 90bd 11c9 a6be
000003b0: f1ab 153f b006 213e b292 66be 016d fe3e
000003c0: 77e3 a93b 73a8 15bc 59b5 fd3b 8387 7b3b
000003d0: 16fd 8f39 0000 0000 0000 0000 4dff 21be
000003e0: bc5e 85be ba5e 023e eabf a53e e22f 6abf
000003f0: 4d04 ccbe 8f4f eb3b e4ee b2bb fda9 c03b
0.23044518 0.22424187 0.3737618 0.22691762 -0.045740824 -0.08941283 -0.0009580987 -0.0022973963
0.0029252532 -0.0024984423 -0.0020173714 0.0054093157 0.0015286689 0.018948175 0.16534495 -0.72318894
-0.2537637 -0.022674456 0.052585572 0.00092378416 -0.000710343 -0.0058232066 -0.0018349548 -7.9947946e-05
0.0 0.0 -0.43666512 -0.2794762 0.22576717 3.015342 0.008670963 -0.0055700205
-0.004632926 0.0025584847 0.0062987823 -0.0037428746 -0.0013932069 0.0 0.0 -0.66664046
-0.25216937 0.32217973 -0.36099264 0.14405161 0.2746123 0.0054520704 0.0066437954 -0.0071056434
-0.00017812625 0.0005466762 0.0 0.0 -0.24184097 -0.29828036 -0.3019857 -0.38442242
0.29348123 1.9916403 0.008410669 -0.0024973676 0.0038073333 -0.0035740752 -0.0013378852 0.0
0.0 0.2681401 0.026896982 -0.29090127 -0.37343216 -0.07734884 -0.06915714 -0.0031630872
0.0002810001 0.0013398246 0.0017660444 -0.0057189553 0.003824798 0.001463959 0.22501944 0.09076645
0.025730584 1.0279846 -0.113206536 -0.030787734 0.0020924322 0.0059657814 0.0014816178 0.0063327965
0.0017011518 0.0 0.0 0.11779344 -0.42405432 -0.5899469 -2.5947473 0.0033529594
-0.0053726286 -0.0050863912 0.008313083 -0.0022858921 -0.00078309956 0.00013146212 0.0 0.0
0.20166172 0.4254319 -0.3107895 -0.41389284 -0.5745261 -0.41251695 -0.00025141984 -0.007815496
0.009469606 -0.0013079989 -0.0011678219 0.0 0.0 0.4119433 -0.1315285 -0.46993172
-0.3856229 -0.14883585 -0.21085845 0.0025643322 -0.003445221 -0.0045323865 -0.004029415 -0.0008376069
0.0 0.0 -0.13106535 -0.122572936 -0.012142511 -0.16173847 0.0700379 0.095446296
0.0074379984 -0.008935912 0.008736121 -0.011776249 0.008882759 0.0023607914 -0.00029177044 0.14190799
0.026993476 0.15795192 0.13100721 0.021669868 0.027534122 0.0017751344 -0.007929059 0.0039955205
0.0052925167 0.0009569396 0.0 0.0 -0.088656835 -0.0884107 -0.26783293 0.053477276
-0.0039039962 0.006964083 -0.0004701605 0.008398976 -0.007929841 0.0027429853 0.0014797586 0.0
0.0 0.15620093 0.11112574 -0.28735283 -0.072067834 0.09528116 -0.33315596 0.00895323
-0.007159243 -0.0011664224 -0.0060511613 -0.0017380388 0.0 0.0 0.09338852 0.0589252
0.14876425 0.8790044 0.7629336 -2.64755 -0.004798828 0.009810968 -0.00505276 0.0016331939
0.0010113175 0.0 0.0 0.029638015 0.031545613 0.16759013 0.02207651 0.089694425
0.105607636 0.0010881844 -0.0031389962 -0.001624824 -0.0019519948 0.0032922446 0.006241573 0.0014018229
0.35888317 0.13954505 0.17730713 0.17766456 -0.100317 -0.004277078 -0.0028597268 -0.0013897954
0.0041055633 0.0025307538 0.00036213678 0.0 0.0 0.19641332 -0.49761534 -0.6680618
-0.79411334 -0.0046665473 -0.008338246 0.009192955 -0.000116431154 -0.0062943604 -0.004430055 -0.00079370214
0.0 0.0 -0.07076863 -0.32575276 0.58465487 0.15725207 -0.22516897 0.49692538
0.0051845866 -0.0091344 0.0077425656 0.0038380332 0.0002746365 0.0 0.0 -0.15820046
-0.2604884 0.12731448 0.3237298 -0.91479313 -0.3984703 0.007181115 -0.005460607 0.005879639

layers.2.spline_scaler f4 [5, 5]
00000000: fe7f 563f 8fa6 91bf c261 6abf 384a 6ebf
00000010: f741 8abf ac73 36bf 3a48 783f d88b 99bf
00000020: d73c 68bf a4fe 7abf f831 afbe 041c 0b3f
00000030: d6d6 03bf fcbd 183f 8730 bc3e 7a58 ac3e
00000040: e20d 903e 1ce4 4cbf a5b7 443f 3265 04bf
00000050: 5bf1 d53e c4ca 7a3e bf7d 84bf bb73 0ebf
00000060: ec54 b13e
0.8378905 -1.1378955 -0.91555417 -0.93082 -1.0801381 -0.7127025 0.9698521 -1.1995802
-0.90717834 -0.980448 -0.3421781 0.54339623 -0.5149969 0.59664893 0.36755773 0.33661252
0.28135592 -0.8003557 0.7684272 -0.5171691 0.41785702 0.24491411 -1.0350875 -0.5564534
0.34635103

layers.2.grid f4 [5, 17]
00000000: 0000 c0c0 0000 80c0 0000 00c0 0000 0000
00000010: 0000 0040 0000 8040 0000 c040 0000 0041
00000020: 0000 2041 0000 4041 0000 6041 0000 8041
00000030: 0000 9041 0000 a041 0000 b041 0000 c041
00000040: 0000 d041 0000 c0c0 0000 80c0 0000 00c0
00000050: 0000 0000 0000 0040 0000 8040 0000 c040
00000060: 0000 0041 0000 2041 0000 4041 0000 6041
00000070: 0000 8041 0000 9041 0000 a041 0000 b041
00000080: 0000 c041 0000 d041 0000 c0c0 0000 80c0
00000090: 0000 00c0 0000 0000 0000 0040 0000 8040
000000a0: 0000 c040 0000 0041 0000 2041 0000 4041
000000b0: 0000 6041 0000 8041 0000 9041 0000 a041
000000c0: 0000 b041 0000 c041 0000 d041 0000 c0c0
000000d0: 0000 80c0 0000 00c0 0000 0000 0000 0040
000000e0: 0000 8040 0000 c040 0000 0041 0000 2041
000000f0: 0000 4041 0000 6041 0000 8041 0000 9041
00000100: 0000 a041 0000 b041 0000 c041 0000 d041
00000110: 0000 c0c0 0000 80c0 0000 00c0 0000 0000
00000120: 0000 0040 0000 8040 0000 c040 0000 0041
00000130: 0000 2041 0000 4041 0000 6041 0000 8041
00000140: 0000 9041 0000 a041 0000 b041 0000 c041
00000150: 0000 d041
-6.0 -4.0 -2.0 0.0 2.0 4.0 6.0 8.0
10.0 12.0 14.0 16.0 18.0 20.0 22.0 24.0
26.0 -6.0 -4.0 -2.0 0.0 2.0 4.0 6.0
8.0 10.0 12.0 14.0 16.0 18.0 20.0 22.0
24.0 26.0 -6.0 -4.0 -2.0 0.0 2.0 4.0
6.0 8.0 10.0 12.0 14.0 16.0 18.0 20.0
22.0 24.0 26.0 -6.0 -4.0 -2.0 0.0 2.0
4.0 6.0 8.0 10.0 12.0 14.0 16.0 18.0
20.0 22.0 24.0 26.0 -6.0 -4.0 -2.0 0.0
2.0 4.0 6.0 8.0 10.0 12.0 14.0 16.0
18.0 20.0 22.0 24.0 26.0

layers.3.base_weight f4 [2, 5]
00000000: b407 703e 002b d1be df8e 28bf b1ad 0ebf
00000010: 3e3b d4be b3e6 b13e 436d 9bbe aa0c c03d
00000020: 102b a13d 8800 ed3e
0.23440439 -0.4085312 -0.65843004 -0.5573378 -0.41451448 0.34746322 -0.30356798 0.093774155
0.07869542 0.46289468

layers.3.spline_weight f4 [2, 5, 13]
00000000: 05ad 393e ccdb e93e a4df 283f 9e26 863f
00000010: dec9 30c0 0d26 cbbb ad25 dd3b 2560 e1bb
00000020: b49c a6bb ecef f43b ab71 873b fe17 8ebb
00000030: bf94 aaba 239c 0b3f 4ccc 0b3f 1cbd 27be
00000040: 8282 aebe d9f4 a13e e872 913b 38eb 173a
00000050: 6cc2 d5bb 6b7e 9d3b f47c b53b 4f47 853a
00000060: 0000 0000 0000 0000 ffa7 ee3e b726 f93e
00000070: b0f0 4d3d ca7d 50be 0894 d4bb be61 0cbb
00000080: b803 9ebb ce8e 6b3b 74c9 a03b a0d2 89ba
00000090: 289f 0dba 0000 0000 0000 0000 5b5a f23e
000000a0: 511b e93e 30e7 a3be dbe0 49bf c0fb dfb8
000000b0: de57 d03a b666 97ba 2420 2d3b 1d4d d8bb
000000c0: d1f8 6a3b 76a7 c33a 0000 0000 0000 0000
000000d0: 7aab da3e 60b2 d13e 6ac9 df3d dcb0 b9bd
000000e0: 9a4f d6bd c2a8 d4bb 8e78 1b3c 38d2 ceba
000000f0: 32e2 c63b b3e2 70bb b66b c5ba 0000 0000
00000100: 0000 0000 de23 36be ebcf c7bd 87c3 9abd
00000110: 2227 60bf 804c e43f 1579 fabb 7a82 8abb
00000120: 66a1 f73b 6d1a e73a 2436 a8bb 1b04 b33b
00000130: c409 1d3b 0d65 2039 a963 403e a689 143f
00000140: 8708 383e 97cf dcbd e4a4 8dbe a0e4 9139
00000150: 76e5 43bb 1570 f33b 4fe3 11bc bfa6 bc3b
00000160: 7569 193b 0000 0000 0000 0000 9d0e 39be
00000170: a35c 1fbd 3ab0 7e3e 4f9d 7b3e c505 aa3b
00000180: c4b0 abbb 6e63 0d3c fb0e 1abb 56c8 283b
00000190: 1f2e c03b 0faa a83a 0000 0000 0000 0000
000001a0: 33a6 983e 79cb 3d3e 001a cb3e 20e0 6e3f
000001b0: 6b86 093c d2cb cdbb 8094 973b 9804 bd3a
000001c0: 54b7 d3bb 5e15 77b9 a8f6 cd39 0000 0000
000001d0: 0000 0000 d0b1 703e 8078 713e 7845 a93d
000001e0: 7894 a2bd 55ca c6bd 8a67 c23b 5a73 8ebb
000001f0: 43b9 e53b 0a03 58bb 2b2a 43bb b174 ceb9
00000200: 0000 0000 0000 0000
0.18132408 0.45675504 0.6596625 1.0480535 -2.762321 -0.0061996044 0.006748876 -0.0068779164
-0.0050845984 0.00747489 0.0041334233 -0.004336356 -0.00130143 0.5453512 0.5460861 -0.16380733
-0.34083945 0.31632116 0.0044387467 0.0005795243 -0.006523421 0.00480633 0.005538577 0.0010168346
0.0 0.0 0.46612546 0.4866235 0.050278366 -0.20360485 -0.0064873733 -0.0021420564
-0.0048222207 0.0035943273 0.0049068276 -0.0010515042 -0.0005402439 0.0 0.0 0.4733456
0.45528653 -0.3201232 -0.7885873 -0.00010680361 0.0015895327 -0.0011550996 0.0026416862 -0.0066009895
0.0035853873 0.0014927227 0.0 0.0 0.4270895 0.40956402 0.109270886 -0.090669364
-0.104644015 -0.006489844 0.009489192 -0.0015779203 0.006069445 -0.0036756217 -0.0015062008 0.0
0.0 -0.1778712 -0.09756454 -0.07556825 -0.8755971 1.7835846 -0.0076438286 -0.00422698
0.007557082 0.0017631777 -0.005133407 0.005463136 0.002396212 0.00015296433 0.18788017 0.58022535
0.17972003 -0.10781782 -0.27664864 0.00027826894 -0.0029891408 0.0074291327 -0.008904292 0.0057571824
0.0023408805 0.0 0.0 -0.18071981 -0.038906705 0.24871913 0.24571727 0.005188676
-0.005239578 0.008629663 -0.0023507464 0.0025754175 0.005864873 0.0012868064 0.0 0.0
0.298143 0.1853465 0.39668274 0.9331074 0.008393864 -0.006280401 0.004625857 0.0014420925
-0.0064610634 -0.00023563716 0.0003928442 0.0 0.0 0.2350533 0.23581123 0.08265203
-0.079384744 -0.097065605 0.005932753 -0.004347247 0.0070106103 -0.0032960796 -0.0029779773 -0.00039378324
0.0 0.0

layers.3.spline_scaler f4 [2, 5]
00000000: 9ed0 323f 0c88 253f 5aa6 233f bc35 3b3f
00000010: bcf4 533f 9e8d 2d3f bf01 00bf 5ad4 073f
00000020: fe7d e8be 58e8 e8be
0.69849575 0.64660716 0.6392571 0.7312887 0.8279531 0.67794216 -0.50002664 0.530584
-0.45408624 -0.45489764

layers.3.grid f4 [5, 17]
00000000: 0000 c0c0 0000 80c0 0000 00c0 0000 0000
00000010: 0000 0040 0000 8040 0000 c040 0000 0041
00000020: 0000 2041 0000 4041 0000 6041 0000 8041
00000030: 0000 9041 0000 a041 0000 b041 0000 c041
00000040: 0000 d041 0000 c0c0 0000 80c0 0000 00c0
00000050: 0000 0000 0000 0040 0000 8040 0000 c040
00000060: 0000 0041 0000 2041 0000 4041 0000 6041
00000070: 0000 8041 0000 9041 0000 a041 0000 b041
00000080: 0000 c041 0000 d041 0000 c0c0 0000 80c0
00000090: 0000 00c0 0000 0000 0000 0040 0000 8040
000000a0: 0000 c040 0000 0041 0000 2041 0000 4041
000000b0: 0000 6041 0000 8041 0000 9041 0000 a041
000000c0: 0000 b041 0000 c041 0000 d041 0000 c0c0
000000d0: 0000 80c0 0000 00c0 0000 0000 0000 0040
000000e0: 0000 8040 0000 c040 0000 0041 0000 2041
000000f0: 0000 4041 0000 6041 0000 8041 0000 9041
00000100: 0000 a041 0000 b041 0000 c041 0000 d041
00000110: 0000 c0c0 0000 80c0 0000 00c0 0000 0000
00000120: 0000 0040 0000 8040 0000 c040 0000 0041
00000130: 0000 2041 0000 4041 0000 6041 0000 8041
00000140: 0000 9041 0000 a041 0000 b041 0000 c041
00000150: 0000 d041
-6.0 -4.0 -2.0 0.0 2.0 4.0 6.0 8.0
10.0 12.0 14.0 16.0 18.0 20.0 22.0 24.0
26.0 -6.0 -4.0 -2.0 0.0 2.0 4.0 6.0
8.0 10.0 12.0 14.0 16.0 18.0 20.0 22.0
24.0 26.0 -6.0 -4.0 -2.0 0.0 2.0 4.0
6.0 8.0 10.0 12.0 14.0 16.0 18.0 20.0
22.0 24.0 26.0 -6.0 -4.0 -2.0 0.0 2.0
4.0 6.0 8.0 10.0 12.0 14.0 16.0 18.0
20.0 22.0 24.0 26.0 -6.0 -4.0 -2.0 0.0
2.0 4.0 6.0 8.0 10.0 12.0 14.0 16.0
18.0 20.0 22.0 24.0 26.0
