KINN/Plate_hole/BINN_plate_hole/output/BIE_kanBEAM_slender1.pt (torch, 15662 bytes, 10 tensors)

linear1.weight f4 [30, 2]
00000000: e212 dc3e 4224 363e e984 bfbe dc34 49be
00000010: 7e08 3dbe 65bf 18be 9ed1 0ebd c1eb 09be
00000020: 5161 9dbe 5826 64be 5b31 c2bc 0c42 08be
00000030: 9a1c 07be d484 c7bd f506 e9bd c58a 9bbe
00000040: 0ad2 6c3d b4ea 0d3e 40f6 ddbe 9810 a6be
00000050: 7be8 383e 7c1f c93e 55b7 8bbe b436 ca3d
00000060: a4f5 9fbe a5fb 223e a9fa 1fbd d806 363f
00000070: f051 043e 07be b5bd 7805 b3bd a330 0bbe
00000080: e425 eb3d b3ae 673e 35e2 39be f336 29bd
00000090: 0ef3 013e 035b b03e 9744 f33e e9a8 dc3e
000000a0: 7e47 0b3e 9224 343d c5f3 f9bd 78a1 dabe
000000b0: 0a7d 58bd 853d 5e3e 0c8f 953e 043d 44be
000000c0: 74f0 6f3e 0b9e 21be 393f 45be 5839 923e
000000d0: ef7b 66be c6c7 4d3e 9ae9 7ebe de68 c43d
000000e0: 2fb2 9cbc 1bbb b9be ee6a a1bd 48aa 6a3c
0.42983156 0.17787269 -0.3740609 -0.1964907 -0.18460271 -0.14916761 -0.034867875 -0.13468839
-0.3073831 -0.22280252 -0.023705175 -0.13306445 -0.13194504 -0.09742132 -0.1137828 -0.3037931
0.057817496 0.13859063 -0.43351936 -0.32434535 0.18057434 0.39281833 -0.2728831 0.09873715
-0.31242096 0.15916307 -0.039057408 0.7110419 0.12921882 -0.088741355 -0.087412775 -0.13592772
0.114818364 0.22625236 -0.18152697 -0.04131217 0.12690374 0.34444436 0.47513267 0.43097618
0.13601491 0.04398019 -0.122046985 -0.42701316 -0.05285362 0.21703155 0.292107 -0.191639
0.2343157 -0.15782945 -0.19262399 0.28559375 -0.22508214 0.20095739 -0.248938 0.09590314
-0.019127933 -0.36275563 -0.07881723 0.014322825

linear1.bias f4 [30]
00000000: 9087 c23f a6eb 8c3f 633b 2cbf f074 85bf
00000010: d4aa f53f cf00 8e3f 580b 06be 3785 d5bf
00000020: 0944 14be 1e89 bfbe b51d 28bd 6a4d fd3e
00000030: fb2a 64bf 7c75 3040 cdcb 9d3d 7276 e6bf
00000040: d727 343f 81a0 5a3f 1dc1 b6bf 73d9 b4bf
00000050: 9dc5 dfbf f4fb a8bf 6731 b43f cf94 1ec0
00000060: 9f92 333f cc57 913f da03 8ebf ca0e 31bf
00000070: d155 ccbf 6df1 b23f
1.519762 1.1009414 -0.67278117 -1.0426311 1.9192758 1.1093997 -0.13090265 -1.6681279
-0.14479078 -0.374093 -0.041043956 0.49473125 -0.89128083 2.7571707 0.077048875 -1.8004897
0.7037329 0.8540116 -1.4277683 -1.412886 -1.7482182 -1.320189 1.4077576 -2.4778326
0.701456 1.1354918 -1.1094925 -0.6916319 -1.5963689 1.3979927

linear2.weight f4 [30, 30]
00000000: f0d1 543e 4b8d a03d a5aa fdbd 7bdb 4ebe
00000010: 1e83 26be f578 f33c 5f7c e1bd 6b94 dc3e
00000020: 57de 973d 29d5 c7bd ebdc fcbd 4e41 83bc
00000030: d8e9 29bc 5587 8fbd 15fc 183e 0cbf 8c3e
00000040: 8c1f 5bbe 02b4 8d3d 2a76 a4be 5aaf 00be
00000050: 81b6 22be e6d4 ce3d 7d20 67be 1099 6dbe
00000060: 4603 e0bd 85a6 e53d 6c1d 383e c343 59be
00000070: 9e3f f1bd b6a4 1b3e fc7e 92be 79bc 5f3e
00000080: 6399 ba3d 80d3 893e f3e6 e53d 889a 88bd
00000090: 2846 023e fe87 fd3b 5c53 14bf 1429 8c3d
000000a0: 5617 ef3c 4af8 29be 23c5 bc3e 6178 64bd
000000b0: c119 05bd 1401 2a3e 14fe 52be 982c 3dbe
000000c0: a0a6 153e 2951 08bd 74ef 8f3e 691a d7bd
000000d0: 452e 813e 7fd9 833d 38c1 ccbc b510 54be
000000e0: c902 ebbc f74e fd3d 5376 afbe 96b0 7f3d
000000f0: d44c 2abe c897 99bc 4dd7 1abe c971 ea3d
00000100: be64 853d e75a 093d edaa f2be 605b a23d
00000110: 19b9 8b3e b99b ecbd d4d5 0abd f024 5abe
00000120: 8bda 573e 69ac 5e3e bcce 91be 2528 303e
00000130: 6442 7d3e 581c c9bd 92fe 73be b3dc 0fbd
00000140: 19a0 49be 9cc8 7b3e ec11 863e c2c6 62bd
00000150: 20d9 9e3d 93a4 3bbe 5047 61be 150a 9d3d
00000160: 2e04 47be 06d8 d2bd 05d2 90be 5ef1 fabd
00000170: a2bc e2bc a50d 843c 65b9 c03d 256c 81be
00000180: 4062 7e3c 32c8 85be c60f 8dbb 656c 613b
00000190: 5108 e53d dee3 a43c 7eb1 a03d ab90 f63c
000001a0: 9e31 913d 7f32 8abe 62bc 9fbc 52fa 1f3e
000001b0: a99d 23bd 7a8d 823e 233e 21be 76a9 b7be
000001c0: 5a37 9a3d 80f2 0fbe 0555 a4be 4930 423e
000001d0: 291e 8fbe 8795 d6bc 4c8e 6bbd 10ac 0e3e
000001e0: 3219 c5bc 7bcb 82be 3f2c 9abe 88dc f03d
000001f0: 414e 79be a997 b7bd 09b5 183e 171e 83bc
00000200: 0996 91bd ad5f 783c 4d32 f03d ab3e b3bc
00000210: 32bf 83bd 860e 413e 39d6 7bbe e8af 95bc
00000220: abe6 e5bd f90c c13b 5b98 57be 1081 cc3d
00000230: a9f8 75bd a70e 80be 8ec8 883e 2d99 243e
00000240: 43fe 053e 7408 2d3d 34a5 33be 4154 ccbc
00000250: dad6 9cbd 9aa2 a4bd 2318 543e ecec d0bd
00000260: 9f1e 37be e783 eebc d20d bbbc 1b4f d5bc
00000270: b87a 693e 235a cc3d e561 333e ee64 04bf
00000280: 18fa 703d 0062 34bd 3127 7abe ee81 853e
00000290: c833 f43d 40dc f2be 9c32 1bbe 0973 51be
000002a0: 2918 eebd 6b79 61be 0219 33be 3e84 dc3d
000002b0: 5165 acbd 1ce8 463e dc88 ccbd 42c0 223d
000002c0: 4fe1 d9bd 4528 4b3d 4e6c 35be 9586 0ebd
000002d0: 67ac 98be b531 153f 4afd 073e 3fed e23b
000002e0: 39d3 4cbe 1ad9 d4be df5b 103e a0ad 63bc
000002f0: 0f8e b83e 9486 2e3e 60e6 03bd 39d6 913e
00000300: ae00 a03e 7ef8 d6bd 4c02 233e 8676 43be
00000310: 41ed c23c 7a40 b63d 42f9 bf3c 0ff2 0fbe
00000320: 81b3 323d 1c0e 0c3e 3956 be3d e305 583d
00000330: c31c 883e 3f9e e33c a5ad c73e 0865 9b3e
00000340: 39ac fabc 002b 80be 2e78 5b3e 2075 a2be
00000350: d521 43be 951e 0ebd 2598 793d b00a fe3d
00000360: ba0c 183d 5b3d 95bd cf53 9ebe 0fb2 9dbd
00000370: 420c 5b3d a579 bc3e b7fe 07bf 79b6 0c3e
00000380: 3217 a3bd 5073 a23e 3084 71be b88c fcbd
00000390: 58e4 0c3e 0270 d23d efa7 b63d b0c2 c8bc
000003a0: 8c40 503e 06ae 44be 7c49 213e 0882 26be
000003b0: 2d4a 143e 3244 e2bd b5ed 663e 73aa 4c3d
000003c0: e7ba 80be c6b5 10bd 968c e63d d61e 953e
000003d0: 9250 603e 4277 bbbb 22a0 22be dfd5 ae3c
000003e0: 6c8a 413e a2ed 813e e26b b9bd e045 38be
000003f0: 4109 01bd 255e ea3c a2f4 3cbe fd8e 9bbe
0.2078321 0.078394495 -0.123860635 -0.20200913 -0.16260955 0.029720763 -0.1101005 0.43081984
0.07415455 -0.09757454 -0.12346824 -0.01602235 -0.010370694 -0.070082344 0.14939912 0.27489507
-0.21398753 0.069190994 -0.32121402 -0.12566891 -0.15889932 0.10099201 -0.22570987 -0.2320292
-0.10938124 0.11213402 0.17979974 -0.21217255 -0.11779712 0.15199551 -0.28612506 0.2184924
0.091112874 0.26919174 0.11225691 -0.066700995 0.12722075 0.007737159 -0.57939696 0.068437725
0.029185932 -0.16598621 0.36869153 -0.055778865 -0.032495264 0.16601974 -0.20604736 -0.18474042
0.14614344 -0.033280525 0.28112376 -0.10503084 0.25230613 0.064379685 -0.024994478 -0.20709498
-0.028687852 0.12368577 -0.34269962 0.062424265 -0.1663087 -0.018749133 -0.15121193 0.11447484
0.06513356 0.033533957 -0.4739603 0.07927585 0.27289656 -0.11553139 -0.03389533 -0.21303153
0.21079461 0.21745457 -0.28478038 0.17202814 0.24732357 -0.09819859 -0.2382758 -0.035122585
-0.19689979 0.24588245 0.26185548 -0.05536533 0.07756257 -0.18324499 -0.2199986 0.076679386
-0.19435188 -0.102951095 -0.28285232 -0.122530684 -0.027677838 0.016119787 0.09410361 -0.2527782
0.015526354 -0.261293 -0.004304859 0.0034396884 0.11183227 0.020128187 0.07846354 0.03009828
0.07089542 -0.2699165 -0.019499008 0.15622833 -0.03994528 0.25498563 -0.1574636 -0.35871476
0.07530089 -0.1405735 -0.32096115 0.18963732 -0.27952698 -0.026194347 -0.05750875 0.13932824
-0.024059866 -0.25545868 -0.30111882 0.11760813 -0.24346258 -0.08964474 0.1491281 -0.016005559
-0.07108695 0.01515953 0.11728344 -0.021880468 -0.06432952 0.18853197 -0.24593438 -0.018272355
-0.11225637 0.005891439 -0.21054213 0.09985554 -0.060051594 -0.2501118 0.2671551 0.16074057
0.13085274 0.04224439 -0.17543489 -0.02494252 -0.07658167 -0.08038826 0.20712332 -0.10201439
-0.17882775 -0.02911563 -0.022833738 -0.026038697 0.2280072 0.0997813 0.17517813 -0.51716506
0.058832258 -0.044038773 -0.24429013 0.2607569 0.11923939 -0.47433662 -0.15156025 -0.20454039
-0.11625702 -0.22018974 -0.17490008 0.10767411 -0.08417762 0.1942448 -0.09987041 0.039734133
-0.10638677 0.04959895 -0.17717096 -0.034796316 -0.29819033 0.5827897 0.13280216 0.0069252546
-0.2000245 -0.41571885 0.14097546 -0.013896376 0.36045882 0.17043525 -0.032202125 0.2848375
0.3125052 -0.10496615 0.15918845 -0.19088182 0.023794772 0.08899017 0.023434285 -0.14057182
0.04362822 0.13677257 0.092937894 0.05273999 0.26584443 0.027785419 0.38999668 0.30350518
-0.0305997 -0.25032806 0.21432564 -0.31729984 -0.19055875 -0.034697134 0.060936112 0.12404382
0.037121512 -0.07287093 -0.30923316 -0.076999776 0.053478487 0.36811557 -0.5312304 0.13741483
-0.079634085 0.317286 -0.23585582 -0.123315275 0.13758981 0.1027527 0.089187495 -0.024506897
0.20337123 -0.1920701 0.15750688 -0.1626054 0.14481421 -0.110481635 0.22551616 0.04996724
-0.25142595 -0.035329603 0.112572834 0.29125088 0.21905735 -0.0057210037 -0.15881398 0.021342216
0.1890046 0.25376612 -0.0905378 -0.17995405 -0.031502966 0.028609345 -0.18452695 -0.3038253

linear2.bias f4 [30]
00000000: f46d 87be 9021 68be c38d 0f3f 6825 ea3e
00000010: 0aa5 3d3e ff26 a13e 18be d83d 5282 223f
00000020: 3339 a6bd 290f 87bf 131c ab3f b3a5 81bf
00000030: 7551 9c3f 7130 f7bd 94ab fa3e 9d6d 813f
00000040: 4965 1d3f 2238 853f cf42 53bf 4325 893f
00000050: cfd0 7c3d 95b2 743e 1e24 28bd c5fd a7bf
00000060: fa61 51bf ce73 f43e 5981 83bd 9509 ef3f
00000070: d23e 9f3f 3e41 75bf
-0.26451075 -0.22669053 0.56075686 0.45731664 0.18519989 0.31475064 0.105831325 0.63480103
-0.08116379 -1.0551502 1.3367943 -1.0128692 1.2212359 -0.12069786 0.4895903 1.0111576
0.61482674 1.0407755 -0.82523817 1.0714496 0.061722573 0.23896249 -0.04105007 -1.3124319
-0.81790125 0.47744602 -0.064211555 1.8674799 1.2441046 -0.95802677

linear3.weight f4 [30, 30]
00000000: bf44 673e 6cb0 4e3d 244b b2bd 8c48 063d
00000010: 564d 99be 2839 b43d c979 2c3e a532 15be
00000020: 476a 993d bdca 0b3e 9f15 3c3e a209 ba3e
00000030: 78d8 c53e f4df de3c 880e 98be 1577 e33d
00000040: a7fa d0bc bdba 46be dd4a 323d 0c09 9abd
00000050: a0a9 dbbd 9c28 b3bd a6f4 953d 8d81 51bd
00000060: b31a fbbc 5fef 09bd 59ad 233e 5dfb eabd
00000070: 34a7 2c3e e0cd 75be b282 9d3e 930a d13d
00000080: a757 1f3d 3a65 5b3d 50ee 14be 7e0a 0fbe
00000090: 18c4 dbbd 0c43 3fbe ae93 ebbc 0a04 95be
000000a0: 3fa1 60bd 188d 42bb cb71 2cbe be7b cb3c
000000b0: ddfc dabd 520e 81be 78d8 02bd e877 fabe
000000c0: 580c e6be 9dba dcbe 498f 41be 9cf2 003f
000000d0: ee8a 453e dd70 813e 36a4 5b3e e888 883e
000000e0: d043 70be 6f54 08be 4a66 70be d9e2 8bbd
000000f0: 2c1c d6bd 0e1d ae3d 11c2 703e 9511 463e
00000100: 5de8 3c3e 36aa f73d 3cca 4c3e a395 d93d
00000110: 894f 003e 2f12 83bd 8776 e8bd 7372 e83d
00000120: bc43 613e ed3c a43b 5ee7 ebbd 685e a73d
00000130: 0b7e e8be f9e9 f33d 9d3b 533d 59bf ad3c
00000140: 854d bebd a9a6 3e3e dbf7 97bd 6fac dcbd
00000150: 525c 5a3e 56f8 20be 0004 a3bd dd5a adbe
00000160: 07b3 52be d021 233d 4578 5f3e 2b46 a33e
00000170: 7b3c 423d bffc c73e 416e 0ebe b2a9 513d
00000180: 68a2 9f3e 9dad 6a3d 6240 a63e 79f4 bc3c
00000190: f89b a3bd db62 3e3c a682 a43d 52a1 0abe
000001a0: b5db b23c 89a9 3dbe a56c 78be 67e3 a73b
000001b0: cc39 b8be 7c34 babe f858 56be c451 c13e
000001c0: 754c 60bc 70ff 8a3e 4ea0 22be 0e12 273e
000001d0: 15b7 96bc 105b 573e 47b3 1d3e 268a a33d
000001e0: c9ce c53e 3b75 3e3e bcf7 81be 1e92 543e
000001f0: 2677 893d b00a 3b3e a773 3bbe 06cb bf3d
00000200: 83ed 84bb 41bd 9cbd 2a6c 473e 4ff9 84bd
00000210: 1612 80be 34f1 85be f4b6 c63c b59b f4bd
00000220: c331 623d 5a81 2c3e 8a4b fdbd 2343 193d
00000230: 6f2b b8be 7703 533e bc82 85bd 48bb 2c3e
00000240: 54cc cdbe 791f 553d 5c65 733e 27b4 5abd
00000250: f24b 4dbe c15a 7d3d 3b26 18be b1e5 073e
00000260: 7c0a adbe bd19 a3be 959f ddbe a539 6d3e
00000270: e136 4e3e 4863 b6be 9eab f5bd 51c3 393d
00000280: 5102 9a3c 01af 633e 7336 29be 8760 783e
00000290: d77d 1bbe ac04 ef3d b020 a33e 80c2 09be
000002a0: f1ec 853e 3fe2 ccbe 1691 20be 4700 863c
000002b0: 06c6 0dbe 7a2b bf3e 1f59 5fbe bf66 82bd
000002c0: 748d f7be 8567 4c3e d48a 6dbc 414d 2b3e
000002d0: 3dbc fbbd e7b4 2dbd bd26 6b3e 60b5 b13c
000002e0: 6d39 3ebc f339 b3bd 2ae1 003d 3b88 0c3e
000002f0: 0a1e 04be c470 a9be 1564 1e3e 3e98 ff3d
00000300: 9701 983d 8c3e 17be e206 703e 3552 193e
00000310: 3513 19bd 543e 95be b072 49be 88a9 b3bd
00000320: ea0d 3d3d 0e69 debd 6660 19be e0f1 a33d
00000330: 3cba 133e d3d8 f7bb 3376 3ebe 20e0 23be
00000340: 9b00 7cbd f282 82be f230 12be 6c7f 71be
00000350: 20c0 25bd 7088 2fbe cb86 8ebe 5e2b 01be
00000360: 44f3 d73d 2e43 cebd c313 8fbe 7873 c7bd
00000370: c57f 863e 4b52 5ebe 67f9 313e c313 0e3c
00000380: 6f7e 6f3e 89a9 15be e180 eebe 2f78 69be
00000390: 559e 223c 718a 78be b7e5 683e c8b7 633d
000003a0: 80ec 9d3e 15a5 febd ba7e fb3d c382 e83c
000003b0: 1840 8fbe e486 443a b5be b63e e1b1 fe3d
000003c0: f94b 8dbe da13 1e3e 3233 e4bd 8ca0 0dbe
000003d0: 7870 4abd 8478 46bd 93bf a1be 1402 a1bd
000003e0: c1fe 23bd 41ef 94be bc44 e7bd c739 693d
000003f0: aa96 abbe ee5a 293c 0a4d 37be ed4b f03d
0.22584818 0.050461218 -0.08705738 0.03278403 -0.29941815 0.08799964 0.16843332 -0.145701
0.07490974 0.13651557 0.18367623 0.36335474 0.38641715 0.027206399 -0.29698586 0.111066975
-0.025510145 -0.19407173 0.043528426 -0.07521257 -0.10725713 -0.0874798 0.073220536 -0.05114894
-0.03065238 -0.033675548 0.15984096 -0.11473725 0.16860658 -0.24004316 0.30763775 0.10207095
0.03890195 0.053563334 -0.14544034 -0.13968846 -0.10730761 -0.1867792 -0.028756943 -0.29104644
-0.054841276 -0.002968615 -0.16840284 0.024839278 -0.10692761 -0.25206238 -0.031944722 -0.48919606
-0.44931293 -0.43111125 -0.18902315 0.5037019 0.19291279 0.2528142 0.2144936 0.2666695
-0.23463368 -0.13313459 -0.2347652 -0.06830377 -0.10454592 0.085016355 0.2351153 0.19342645
0.18448015 0.12093012 0.19999021 0.10624244 0.1253034 -0.063999526 -0.11350732 0.113499545
0.21998495 0.0050121457 -0.11518739 0.081723034 -0.45408663 0.11909861 0.051570524 0.021209406
-0.092921294 0.18618263 -0.074203216 -0.107750766 0.2132428 -0.15719733 -0.07959747 -0.33858386
-0.20576106 0.039827168 0.21823223 0.3188947 0.04742096 0.39060017 -0.13909246 0.051187225
0.31178594 0.057294477 0.32470995 0.023065792 -0.07988733 0.011620249 0.08032732 -0.13538101
0.02183328 -0.18521704 -0.24260195 0.005123544 -0.35981596 -0.36368167 -0.20932376 0.37757695
-0.013690104 0.27148008 -0.15881464 0.16315481 -0.018397847 0.21030831 0.1540042 0.07985334
0.38634327 0.18599407 -0.2538432 0.20758864 0.06712179 0.18265796 -0.18305837 0.093648955
-0.004056634 -0.07653285 0.19474855 -0.06492864 -0.25013798 -0.26160586 0.02425716 -0.11943761
0.055223238 0.16846219 -0.123679236 0.037417542 -0.35970637 0.2060679 -0.06519076 0.16868317
-0.40194952 0.052031968 0.23769134 -0.053394463 -0.20048502 0.061854128 -0.14858334 0.13271214
-0.3379706 -0.31855574 -0.43285814 0.23166521 0.20138122 -0.3562262 -0.11995624 0.045352284
0.018799933 0.22234727 -0.16524677 0.24255572 -0.15184723 0.11670813 0.31860876 -0.13453102
0.26157334 -0.40016362 -0.15680346 0.016357554 -0.13845071 0.37337857 -0.21811341 -0.063672535
-0.48350108 0.19961365 -0.014498431 0.16728689 -0.12291763 -0.04240885 0.22963996 0.021692932
-0.011610371 -0.08751287 0.031464733 0.13723843 -0.12902084 -0.33093846 0.15467866 0.1248021
0.07422178 -0.14769953 0.23440126 0.14972766 -0.037371833 -0.29149115 -0.19672656 -0.0877257
0.046155848 -0.10859881 -0.1497818 0.08005118 0.14426512 -0.0075636893 -0.18599777 -0.16003466
-0.061524015 -0.25490528 -0.14276484 -0.23583764 -0.040466428 -0.1714189 -0.27837214 -0.126142
0.10544446 -0.10071407 -0.27944764 -0.09738821 0.26269355 -0.2171108 0.17380296 0.008671704
0.23388074 -0.14615454 -0.46582702 -0.22799753 0.009925445 -0.24271561 0.2274388 0.05559519
0.30844498 -0.12433831 0.122800305 0.028382665 -0.27978587 0.0007496907 0.35692373 0.124362715
-0.27597025 0.1543726 -0.11142577 -0.13830775 -0.049423665 -0.048454776 -0.31591472 -0.078617245
-0.040037874 -0.29088786 -0.11292407 0.056939866 -0.33513385 0.010336621 -0.17900482 0.11733232

linear3.bias f4 [30]
00000000: dfc9 da3d 55f3 3540 e417 2bbf 43ec 153e
00000010: 0209 d53e 78ed 713e 7aeb 99bf da23 14c0
00000020: cc34 8a3f 5828 b3be bfbe 613f b2f5 5b3e
00000030: e1e6 c5be a9f0 b23e 0155 ae3e 8ec5 02c0
00000040: b40d afbf 4456 c83f 5db5 5ebe d065 f53e
00000050: 5bed 703e 62ba 31bf 328e 37bf 52cf 6fbf
00000060: 0d5c 21c0 482d fbbf 3689 74bf b57d 763e
00000070: a9c4 9c3f 437b f4bf
0.10683035 2.8429768 -0.6683333 0.14640908 0.41608435 0.23625743 -1.2024987 -2.3146882
1.0797362 -0.34991717 0.8818168 0.21480444 -0.3865271 0.34949234 0.34049228 -2.0433078
-1.3676057 1.5651326 -0.21748872 0.4792924 0.23528044 -0.6942502 -0.7170135 -0.9367572
-2.5212433 -1.9623194 -0.9552187 0.24071391 1.2247516 -1.9100116

linear4.weight f4 [30, 30]
00000000: 8e8e 383d 5f77 e8bd 21a4 a7be bd9c 8dbc
00000010: 31cf f13d 6b2b 16be 5e71 38be 25ab 943d
00000020: 195c 9a3d 6c01 593e 4ed2 be3b 395c 8dbd
00000030: 4c49 473d d492 893d 90f8 96bd f953 6f3e
00000040: bdb8 b63d 7b42 8fbd c529 cd3e 1f95 0c3e
00000050: 814b 89be 7d8e 88be ee4a 1c3e 1ef1 a8bd
00000060: cd54 263e ed8f d7be ccbb 913e 8d7f 093e
00000070: 098b 753d 872d d93c b83e fbbc cf95 5fbe
00000080: c79b 49bd 1c5c 96bd 244f 503e 0463 ff3d
00000090: c94d 47be 4c83 7fbc c881 52bd 6789 eabd
000000a0: 52e3 3e3e 53e5 cdbd 0d62 013d b344 9d3d
000000b0: 4609 17bd 507a 953d f53b 373e eee5 ef3c
000000c0: 6fa6 83bd 8a51 e7ba b538 3dbe b39f 5fbd
000000d0: 287e 663e 5d09 b73e 5993 a63b a251 9abd
000000e0: 9b0e 8cbd 4fe1 c7be 16f0 28bd 35fd a33d
000000f0: 77c6 61bd 3a3c f03d 2b62 d0bd 0fbb 993d
00000100: 9916 89be 986d 903d 8c4b 12be 88c6 7cbe
00000110: fda8 2dbd e80f 0dbe 78af 2f3d 2076 893d
00000120: cc6c d1be 94d2 253e 58e1 72bd 61ec b8bd
00000130: 0a36 153c f8ad 833e c7d0 f93c 2cdc 4e3d
00000140: 26b3 b73e b5ae 563e 64ba 8a3d a54b dabd
00000150: a9f0 b63e 6360 343b 107d b23d debf a23d
00000160: bc81 27be 3042 01be c9e2 d33d b5db 8a3c
00000170: 4317 433e aa08 2bbe 8d0f 98bd 1fff 703e
00000180: 877e 963e 53e5 79bd 49b7 afbd 1458 22bd
00000190: 154f f2bc 7978 033f cc72 873e 6c3b d13d
000001a0: 9955 9b3d 9496 e23d b464 9cbd 44c3 c3bd
000001b0: 5856 bfbe 896b 4b3e ad2a 10be d094 de3d
000001c0: 1e91 f13d 7815 c0be dd9d 673c 7ffe 403e
000001d0: cb78 313c ebfd d4bc 61dd 30be 6ce6 3e3d
000001e0: 33e5 b53c a7d0 953d 1efa 573d 0bf5 813c
000001f0: 4963 3c3e 2b02 4abd 593d 91bb 6aec 093e
00000200: e361 21bd 14d1 a5bd fb7c 3a3e 5554 0f3e
00000210: 8b74 15be 3d70 d83e 4df2 3ebe 0006 70be
00000220: 9d0d 07bd 78d3 f0bc 7127 e8bd b5c1 9fbc
00000230: dd89 6f3e 44ac 15bd d036 23be 49a8 14be
00000240: 8e8c 873d 52fe 463d d611 e1bd 945e ce3d
00000250: 05e0 10be 8baf 31bd e605 8fbe 9c0e fd3d
00000260: 751b 44be 3663 5fbc 1ca0 a33d 8646 0e3c
00000270: d306 b33e 4d26 5e3e 801d f43c b6fc d13e
00000280: 21f0 aebe cd95 d63d d0c3 32be 5fe1 37bd
00000290: 7267 a9be 6bfc 1cbd dc19 5d3d efef 0dbd
000002a0: ecf1 db3d 979a 40be 2928 ffbd 339b d2bd
000002b0: 1e59 c83d e1f9 783e e922 213d 03ef f7bd
000002c0: 128d 813d 9dd2 96bd 2e34 393e b04d 95be
000002d0: b2da 60be 3471 85be b962 963d a3e1 08bd
000002e0: 5d7f 253e e82a 0b3e 33ae 4c3e bdf2 653c
000002f0: 7286 10be 7165 8a3d d721 483b d7bb 02bd
00000300: dfe1 ac3e 89d7 68be e41b f83b ea06 df3c
00000310: 4977 f83d 0e61 0ebe 7d18 0cbe f38e ef3d
00000320: 964c 44be 2267 9cbe b4e8 fa3d 5821 473d
00000330: 114e 7bbe f5b4 7abd bda8 5e3d 578b 20be
00000340: 299a 27be 1baf f83d 126e fa3d cc6f a9bd
00000350: d969 a5bd 7625 ddbc c7fb 4d3d 8552 eebd
00000360: b66f 483d dd83 ee3d 4098 433e e85d b03d
00000370: 9094 243e c382 f5bc 9373 a9be a059 39bc
00000380: 2a64 053e c1a1 94bd fe73 ffbd 8832 0bbe
00000390: df66 8b3e e16e dabd 63a4 9c3e c51f 383d
000003a0: 5cef dd3d 8a7e 64be 0b40 febd 8805 08be
000003b0: 9f33 19bd f189 cb3c a2d0 59be 926a 963d
000003c0: 1aa3 dd3d 05d1 46be c477 a83e 7fd7 833c
000003d0: 62ed 1f3d c057 68be a4ea 3c3e 193d ce3e
000003e0: a038 843d 84fd 223c f3ca 38be 5f5c 5abd
000003f0: aa0d 213b d015 5b3d a5a5 08be 6b75 643d
0.045057826 -0.11350893 -0.32742408 -0.017286653 0.11807097 -0.14665 -0.18011996 0.07259206
0.075370975 0.21191949 0.00582341 -0.06902356 0.048653886 0.06717458 -0.07371628 0.23371877
0.08921955 -0.06995102 0.4007093 0.1372876 -0.26815417 -0.2667121 0.15262958 -0.082491145
0.16243286 -0.42101994 0.2846359 0.13427563 0.059947047 0.026510967 -0.030669555 -0.21834491
-0.049220826 -0.07341787 0.2034269 0.124700576 -0.19463266 -0.015595268 -0.0513933 -0.11451989
0.18641403 -0.10053506 0.03158765 0.07679119 -0.03687408 0.0729872 0.17893966 0.029284444
-0.06428229 -0.0017648202 -0.18478663 -0.05459566 0.22509062 0.3574933 0.005083483 -0.075351015
-0.06838723 -0.39039084 -0.04124459 0.0800728 -0.05512091 0.11730237 -0.10174974 0.07506382
-0.26775053 0.07052153 -0.14286631 -0.24685109 -0.042397488 -0.13775599 0.04289195 0.06711984
-0.40903318 0.1619361 -0.059296936 -0.09029461 0.009107122 0.25718665 0.03049506 0.05050294
0.35878867 0.20965083 0.067738324 -0.10658959 0.35730484 0.0027523271 0.0871526 0.07946752
-0.16358083 -0.12622905 0.1034599 0.016950468 0.19051842 -0.16702524 -0.07424841 0.23534821
0.29393408 -0.061009716 -0.08579881 -0.03963478 -0.029578725 0.513557 0.2645477 0.10216412
0.07584686 0.11063877 -0.07636395 -0.09558728 -0.37370563 0.1986524 -0.1407878 0.108682275
0.11795257 -0.3751638 0.014136759 0.18847083 0.010832022 -0.025999984 -0.1727195 0.046606466
0.022204017 0.07315188 0.052728765 0.015863916 0.1839725 -0.049318474 -0.004432362 0.13469091
-0.039399993 -0.08096519 0.18211739 0.13997014 -0.14595239 0.4227313 -0.18647118 -0.23439789
-0.032971967 -0.029397711 -0.11335648 -0.019501546 0.23392434 -0.03654124 -0.15938878 -0.1451732
0.066186056 0.048582383 -0.1098973 0.10076633 -0.14147957 -0.0433803 -0.27934188 0.12356302
-0.19151099 -0.013634494 0.07989523 0.008683806 0.34966144 0.21694298 0.029799223 0.41013116
-0.3416758 0.10477791 -0.17457509 -0.044892665 -0.33086735 -0.038326662 0.05397974 -0.034652647
0.10739502 -0.18808971 -0.12458832 -0.10283508 0.09782623 0.24314071 0.039339934 -0.12106135
0.06325735 -0.0736439 0.18086311 -0.29160833 -0.21958426 -0.2606293 0.073430486 -0.03341831
0.16161866 0.13590586 0.19988327 0.014034924 -0.14113787 0.0675763 0.0030537748 -0.03191742
0.33766076 -0.2273847 0.007571684 0.027224977 0.12132127 -0.13904211 -0.13681217 0.11697187
-0.1916984 -0.30547434 0.12251416 0.048615783 -0.24541499 -0.06120773 0.05436014 -0.15678154
-0.16367401 0.12142774 0.122280255 -0.08273277 -0.080768295 -0.026995402 0.05028894 -0.11636833
0.04893466 0.11646245 0.19101048 0.08611661 0.16072297 -0.029969579 -0.3309599 -0.011312872
0.13026491 -0.072574146 -0.12473296 -0.13593495 0.27226922 -0.1066568 0.30594167 0.044952173
0.1083667 -0.22313896 -0.12414559 -0.1328336 -0.037402745 0.024846049 -0.21270993 0.073445454
0.10822125 -0.19415672 0.32903874 0.016093967 0.039044745 -0.22689724 0.18448883 0.4028099
0.06456113 0.009948138 -0.18046169 -0.05331075 0.0024574795 0.0534876 -0.13344438 0.05577604

linear4.bias f4 [30]
00000000: 24a2 9bbf e24b d83e 1d3d 883d 2a6f 35bf
00000010: 7060 91bf b637 a8bf ecf9 a83e eaac 0140
00000020: 26cf 393e 2f85 65be 4c5f e43e 2188 8dbf
00000030: 6276 d93e db74 5e3f 4af3 a93e 56d1 523f
00000040: 7219 8abe b934 0dc0 e6d5 92bf e44e 01bf
00000050: c130 1340 9f76 e0bf d6c0 15be 2980 233e
00000060: 69ee ad3c 3be2 cb3d 88f8 7e3f c7a5 503e
00000070: ea8e 0c3f 85ad f63e
-1.2158856 0.42245394 0.066522814 -0.7087275 -1.1357555 -1.3142002 0.33003175 2.0261788
0.18145427 -0.22414087 0.44603956 -1.1057168 0.4247313 0.8689706 0.33193427 0.8235067
-0.26972538 -2.206343 -1.1471527 -0.50511 2.2998507 -1.75362 -0.14624342 0.15966858
0.021231847 0.099552594 0.9959798 0.20375739 0.5490557 0.4817926

linear5.weight f4 [2, 30]
00000000: 631c 66be d88a 58be 8061 4abe 9f97 ab3c
00000010: 8b70 71be b8d2 5cbe 103e 5dbc cbef 8b3d
00000020: b876 14be f0f9 8e3d 4ab4 7e3e 47b3 0c3f
00000030: 86f0 6a3e dcb9 74be 41ed 9bbe 2be4 56be
00000040: 2746 05bd b764 343e efa1 49be 4bde 9d3e
00000050: b8ea 243e 3b86 50bc 9caa 8fbe d72c 2dbe
00000060: 4d03 0a3e 5354 07bf 3912 6d3e 307c d53d
00000070: d076 85be 2ce8 3f3e 26f4 4c3e 4264 853d
00000080: 6db1 e33d b778 e73e eee3 80be 2f83 0d3d
00000090: 61de 93be 5fbe 28be 03f5 2ebe de99 abbe
000000a0: 210a ba3e d615 10bd 9837 78bd 008e 34be
000000b0: aa31 cebe 0cd4 63be 3089 513d 57bd 563e
000000c0: af67 6dbd 026c 53be 7757 1bbe 2c7b 933c
000000d0: 1e6b 84be 66ab 2fbe bd14 75bb adf2 c5bc
000000e0: 5699 dd3e 35c7 5fbe 8b13 403c f258 fe3e
-0.22471766 -0.21146715 -0.19763756 0.020946322 -0.23578088 -0.21564758 -0.013503566 0.06832846
-0.14498413 0.069812655 0.24873462 0.54961056 0.22943315 -0.23899025 -0.30454448 -0.20985477
-0.032537606 0.17616545 -0.19690679 0.3083366 0.16105163 -0.012727316 -0.28059852 -0.16911636
0.13477822 -0.52863044 0.23151483 0.104240775 -0.2606721 0.1874091 0.2001501 0.06513263
0.11117826 0.45209286 -0.25173897 0.034548935 -0.288806 -0.16478871 -0.17085652 -0.3351583
0.36335853 -0.035177074 -0.060599893 -0.17632294 -0.40272266 -0.22248858 0.051156223 0.20970665
-0.05796021 -0.2064667 -0.15170084 0.018003069 -0.25862974 -0.17155227 -0.0037396394 -0.024163568
0.4328105 -0.21853335 0.011723409 0.49677235

linear5.bias f4 [2]
00000000: 4eac 2c3f ce06 90bf
0.67450416 -1.1252077
