KINN/Plate_hole/BINN_plate_hole/output/BIE_kanlinear.pt (torch, 19029 bytes, 12 tensors)

FC1.weight f4 [30, 2]
0	0xbf263992	-0.64931595
1	0x3e24bbac	0.16087216
2	0x3ec10e39	0.37706164
3	0x3d976669	0.0739258
4	0xbeb6b430	-0.35684347
5	0x3f24de17	0.6440138
6	0xbee26396	-0.44216603
7	0x3f257aa9	0.6464029
8	0xbeb736c9	-0.35783985
9	0x3ec27290	0.3797803
10	0xbe8471e4	-0.25868142
11	0x3f20f203	0.6286928
12	0x3f26d7a2	0.6517278
13	0xbeddc2db	-0.43312725
14	0xbf22497f	-0.63393396
15	0x3ebac2b6	0.36476678
16	0x3d550a8f	0.052012023
17	0xbeb563b7	-0.3542764
18	0x3ea17aa3	0.31538877
19	0x3f1f1e41	0.6215554
20	0x3ed2026f	0.41017482
21	0x3ebb0bf5	0.3653256
22	0xbf243a2f	-0.6415128
23	0x3ebf4c84	0.37363064
24	0xbea0a51e	-0.31375974
25	0x3ef1ba17	0.47212288
26	0x3f078891	0.5294276
27	0xbef09ad2	-0.4699312
28	0x3ec5af9d	0.38610545
29	0xbf2deff7	-0.6794428
30	0xbddc9787	-0.10771089
31	0xbe8b88ce	-0.2725281
32	0x3ebff808	0.3749392
33	0xbeced19b	-0.4039429
34	0xbf133974	-0.5750954
35	0xbac20d11	-0.001480492
36	0xbe663d54	-0.22484332
37	0x3f003cbf	0.5009269
38	0xbf0bac59	-0.54559857
39	0x3e35b732	0.17745665
40	0x3ec890f2	0.39173084
41	0xbed77dcd	-0.42088166
42	0x3e0af30e	0.1356928
43	0x3f2ff2a9	0.68729645
44	0xbdd5fe1a	-0.10448857
45	0x3e28cfb2	0.1648548
46	0xbf037b62	-0.5136014
47	0x3f0c6e3f	0.5485572
48	0x3f2df591	0.6795283
49	0x3ee4ea66	0.44710082
50	0xbf03b375	-0.51445705
51	0xbe98a8a2	-0.29816157
52	0xbf174b7d	-0.5909956
53	0xbd59c251	-0.05316383
54	0xbf0e3a43	-0.5555765
55	0x3f0954a5	0.5364478
56	0x3f0526f8	0.52012587
57	0x3f181bb8	0.59417295
58	0xbed02da4	-0.4065982
59	0x3dc9c2e9	0.09851629

FC1.bias f4 [30]
0	0xbf0aa890	-0.54163456
1	0xbde67df4	-0.112544924
2	0xbe2dbded	-0.16966982
3	0xbe59e5e6	-0.21279106
4	0x3dadaf59	0.084807105
5	0x3f1a7b29	0.6034418
6	0xbeddf345	-0.43349662
7	0x3f1b1b8a	0.60588896
8	0x3e4a66f2	0.19765833
9	0xbedf4df4	-0.4361416
10	0x3ea1830a	0.31545287
11	0x3f06f484	0.5271685
12	0x3ebb2ade	0.36556143
13	0x3e6da44b	0.23207204
14	0xbf08fc92	-0.5351039
15	0x3da68565	0.08130912
16	0x3eea3db7	0.4575021
17	0x3bc81223	0.0061056777
18	0xbea8eb39	-0.3299196
19	0x3d86df20	0.065855265
20	0xbd00b3a8	-0.031421334
21	0x3f26d74e	0.6517228
22	0x3ea97704	0.33098614
23	0x3edf982a	0.4367078
24	0x3f132812	0.5748302
25	0xbc8032e6	-0.01564927
26	0x3e18b1b7	0.14911543
27	0x3e4e2fd5	0.20135434
28	0xbeb9ad33	-0.36264953
29	0xbcdabf9c	-0.026702695

FC2.weight f4 [30, 30]
0	0xbdd6f953	-0.104967736
1	0x3d2f1b5d	0.042750705
2	0xbd572dae	-0.052533798
3	0x3da66687	0.08125024
4	0xbdd10e4f	-0.10207807
5	0xbe1c7176	-0.15277657
6	0xbd854036	-0.06506388
7	0xbe0aa7ed	-0.13540621
8	0xbdb0afcd	-0.08627281
9	0xbd3e2350	-0.046420395
10	0x3d9cdc1a	0.076591685
11	0x3da9e99a	0.08296509
12	0xbdee86de	-0.116468176
13	0x3e256566	0.16151962
14	0xbd8ea12f	-0.06964337
15	0xbba1b70c	-0.004935151
16	0xbdfc320c	-0.12314233
17	0xbe0faf3d	-0.14031692
18	0x3e3cd1a2	0.18439344
19	0x3d744505	0.059636135
20	0xbb0f3453	-0.0021851256
21	0xbe17462d	-0.14772864
22	0xbe09d16f	-0.13458799
23	0x3e2d9dcb	0.16954724
24	0x3cd09aaf	0.025464384
25	0xbe2a19df	-0.16611432
26	0xbdbccb29	-0.09218437
27	0x3d2309e0	0.03980434
28	0x3e230dc0	0.15923214
29	0x3d35fea5	0.0444323
30	0xbc0f3778	-0.008741252
31	0xbde7e9f9	-0.113239236
32	0xbde4039e	-0.111335024
33	0x3caa367b	0.020777931
34	0xbe1175cb	-0.1420509
35	0x3dbd4e64	0.092434675
36	0x3c86fcfc	0.016478054
37	0xbc354543	-0.011063877
38	0x3e0e18d6	0.13876662
39	0x3d3d6450	0.046238244
40	0xbd5b2fcf	-0.05351239
41	0x3dccf6e4	0.10008028
42	0x3e216e70	0.15764785
43	0x3dcf3e66	0.101193234
44	0xbe2ff637	-0.17183767
45	0xbcf333b0	-0.029687732
46	0xbe21a731	-0.15786435
47	0x3d7dc219	0.061952684
48	0x3e0029b0	0.12515903
49	0x3deca9cc	0.11555824
50	0xbcaffbe9	-0.021482425
51	0x3d96cb30	0.07362974
52	0xbd099f62	-0.033599265
53	0x3da1bccb	0.078973375
54	0x3e1cd23b	0.15314572
55	0xbdd08246	-0.10181098
56	0xbe19af8a	-0.15008369
57	0xbcef073e	-0.029178258
58	0xbd5a540c	-0.05330281
59	0x3e2106cf	0.15725254
60	0xbde2fdef	-0.1108359
61	0xbccf303a	-0.02529155
62	0x38acdae8	8.2423736e-05
63	0xbd126228	-0.03573814
64	0x3dfdeff0	0.1239928
65	0x3daf0bc4	0.08547166
66	0x3d9112fe	0.070837006
67	0xbdce41aa	-0.10071118
68	0xbd527efd	-0.051390637
69	0xbe04d2f1	-0.12971093
70	0x3db53c8f	0.08849441
71	0x3d300de1	0.042981986
72	0xbcc04418	-0.02346997
73	0xbd9ff1a1	-0.07809759
74	0x3de2d831	0.110763915
75	0xbd9052ff	-0.0704708
76	0x3e24fdfb	0.16112511
77	0xbdaad2a0	-0.08340955
78	0x3d143277	0.03618094
79	0x3e2d0dc3	0.16899781
80	0x3d523e6d	0.051329065
81	0x3e3dc007	0.18530284
82	0xbe18392c	-0.1486556
83	0xbe0f4db8	-0.13994491
84	0xbd69fc91	-0.05712563
85	0x3e013269	0.12616886
86	0x3e1fbcda	0.15599385
87	0x3d4fa1dd	0.050691474
88	0x3d73c95d	0.059518207
89	0x3e057e46	0.1303645
90	0x3d81f1cc	0.06344947
91	0xbe3caccf	-0.18425296
92	0x3d9465d6	0.07245986
93	0x3ddb35df	0.107036345
94	0x3dace8b6	0.084428236
95	0xbe232d1a	-0.15935174
96	0x3d49a925	0.049233574
97	0x3e166206	0.1468583
98	0x3e21ba48	0.15793717
99	0x3dcdde99	0.10052223
100	0x3e235233	0.15949325
101	0x3e40820d	0.1879961
102	0x3e3f8fae	0.18707153
103	0x3dd07102	0.101778045
104	0x3d63a657	0.055578556
105	0x3d968173	0.07348909
106	0xbcdc08f2	-0.026859734
107	0xbe27824e	-0.16358301
108	0xbdf435b1	-0.11924303
109	0xbdb99d9b	-0.09063264
110	0xbdf889b7	-0.12135642
111	0xbd2b9e04	-0.041898742
112	0xbdae7bf7	-0.08519738
113	0xbe0e1ad8	-0.13877428
114	0x3daac229	0.08337814
115	0x3b7be2aa	0.0038434663
116	0xbda99a53	-0.08281388
117	0xbc1cc94f	-0.00956948
118	0xbdadaec2	-0.08480598
119	0xbcf8a27e	-0.03035092
120	0x3d15b9ef	0.036554273
121	0xbd1c948f	-0.038227614
122	0x3e2624ab	0.16224925
123	0x3de5a2b5	0.112126745
124	0x3e169f6d	0.14709254
125	0x3e26ae32	0.16277388
126	0xbe3ef0a8	-0.1864649
127	0xbe30984e	-0.172456
128	0xbd92ed38	-0.07174152
129	0xbcad888a	-0.021183271
130	0x3c9b73e7	0.018976165
131	0xbdeb2bd6	-0.114829704
132	0x3e289b5c	0.16465515
133	0x3de16e9d	0.11007426
134	0x3dc9436b	0.09827312
135	0x3da0eae6	0.07857303
136	0x3e09a41f	0.13441513
137	0xbd5c9f84	-0.053863063
138	0xbdc2b0ce	-0.09506379
139	0x3e41e321	0.18934299
140	0xbe260f38	-0.16216743
141	0x3dfe366b	0.12412723
142	0x3df987d2	0.12184109
143	0x3e141e3f	0.14464663
144	0x3e33c79c	0.17556614
145	0x3ddbe2dc	0.10736629
146	0x3e19d5b0	0.15022922
147	0x3d9bd9c8	0.07609898
148	0x3d121c00	0.035671234
149	0x3d958f3a	0.07302709
150	0xbdbb5def	-0.09148776
151	0x3c85e9bd	0.016346807
152	0xbd3417f5	-0.04396816
153	0x3d7ed032	0.06221027
154	0xbc77e8a8	-0.015131153
155	0xbd24d99e	-0.0402466
156	0xbdc88383	-0.09790709
157	0x3e2e1ec0	0.17003918
158	0x3d1723ce	0.03689938
159	0xbe1501a3	-0.14551406
160	0xbae9aba1	-0.0017827639
161	0x3be34d1e	0.0069366833
162	0xbadd68d2	-0.0016892201
163	0x3b203ad0	0.0024449117
164	0x3c49d496	0.012318751
165	0xbd84dee3	-0.06487825
166	0xbe0bed59	-0.1366476
167	0x3dadda82	0.08488943
168	0x3de46ad9	0.11153192
169	0x3c7bdcec	0.015372496
170	0x3e305fed	0.17224093
171	0xbd3272ea	-0.04356662
172	0x3cff9fea	0.031204183
173	0x3e014d93	0.12627248
174	0x3dfc2867	0.12312394
175	0x3d1d228e	0.038363032
176	0x3d927104	0.07150462
177	0xbdd64748	-0.104628146
178	0xbd70c54c	-0.058781907
179	0x3dcb76a8	0.09934741
180	0x3c1c0856	0.009523472
181	0xbc21ddab	-0.00987951
182	0xbde73d03	-0.11290934
183	0xbd82d572	-0.06388368
184	0x3da77b0f	0.081777684
185	0x3c93ca9b	0.018040946
186	0xbe12aebc	-0.14324468
187	0x3d10e6ee	0.03537648
188	0xbe25388f	-0.16134857
189	0xbd858290	-0.065190434
190	0xbe2ec5bc	-0.17067617
191	0x3dd7cb15	0.10536782
192	0x3dbdfd6e	0.092768535
193	0xbd899935	-0.06718675
194	0xbd20f53d	-0.039296377
195	0xbd807467	-0.06272202
196	0xbd1ae2fc	-0.037814125
197	0xbd81287d	-0.06306551
198	0x3dbc7702	0.092023864
199	0xbdce1719	-0.10062999
200	0xbd912026	-0.0708621
201	0xbdbb1511	-0.091348775
202	0xbda14b89	-0.07875735
203	0x3e2db046	0.16961774
204	0xbd242896	-0.04007777
205	0x3e2fb346	0.17158231
206	0xbe2562e6	-0.16151008
207	0x3dcb4f44	0.09927228
208	0xbe0aff0f	-0.1357386
209	0x3da34768	0.07972604
210	0xbdec6a55	-0.11543719
211	0xbe4232fc	-0.18964761
212	0x3de16fc4	0.11007646
213	0x3e3c3e03	0.1838303
214	0xbccac60d	-0.024752641
215	0x3dc21366	0.09476356
216	0xbe07cace	-0.13260958
217	0xbdac9b29	-0.08428032
218	0xbd1c567a	-0.038168408
219	0xbe0868cf	-0.13321231
220	0xbd02021c	-0.031740293
221	0xbdb4e5af	-0.08832871
222	0xbcbca691	-0.023028644
223	0x3c005b21	0.007834227
224	0xbdc47655	-0.095928825
225	0xbc239a78	-0.009985559
226	0xbe351f59	-0.1768774
227	0xbdbe3702	-0.09287836
228	0xbe19f301	-0.15034105
229	0xbda93600	-0.08262253
230	0x3da1e920	0.07905793
231	0x3d0299d0	0.03188497
232	0xbd44854d	-0.047978688
233	0xbd7e4b21	-0.062083367
234	0x3cf83330	0.030297846
235	0xbdfaa443	-0.12238362
236	0x3e043af4	0.12913114
237	0x3e2e4e46	0.17022046
238	0x3e254464	0.1613937
239	0xbd1199c2	-0.035547026
240	0x3dc27cfc	0.09496495
241	0xbe059f61	-0.1304908
242	0x3d1fb905	0.038994808
243	0x3e0b3926	0.13596019
244	0x3e19af57	0.15008293
245	0xbcbfc582	-0.023409609
246	0xbc1907ff	-0.009340285
247	0x3dc8fbae	0.09813629
248	0xbe1c9aaa	-0.15293375
249	0xbc8563ed	-0.016283
250	0x3d86a6b9	0.065747686
251	0x3d2af4cf	0.041737374
252	0xbda82ebb	-0.08212038
253	0xbd46eca4	-0.04856552
254	0x3e25f583	0.16206937
255	0x3c27e769	0.010248044

FC2.bias f4 [30]
0	0xbdbfaeb9	-0.093594976
1	0xbe38d097	-0.1804832
2	0x3e10d324	0.14143044
3	0xbd0acdd9	-0.033887718
4	0x3e14c890	0.14529634
5	0x3e2111a2	0.15729383
6	0x3deed579	0.116618104
7	0xbad397f3	-0.0016143307
8	0xbda1302e	-0.07870518
9	0x3e0730e7	0.13202249
10	0xbdbe2537	-0.09284442
11	0xbc485aca	-0.012228677
12	0xbe2ae181	-0.16687585
13	0xbd051b73	-0.03249688
14	0x3ccd0a12	0.025029216
15	0x3e570061	0.20996238
16	0xbdaa1f9a	-0.08306809
17	0x3d91b20f	0.0711404
18	0x3e263e56	0.16234717
19	0xba33cbc7	-0.00068586733
20	0x3cd32dde	0.025778707
21	0xbc0c94f1	-0.008580432
22	0x3c50d19f	0.01274529
23	0x3e4b259c	0.19838566
24	0x3c6ab76d	0.014325959
25	0xbe483d58	-0.19554651
26	0x3caff19e	0.021477517
27	0x3e05b9f5	0.13059218
28	0x3dcea6b7	0.10090392
29	0xbdde19c0	-0.10844755

FC3.weight f4 [30, 30]
0	0x3dee5f59	0.1163928
1	0xbe0d08ad	-0.13772841
2	0xbe187a98	-0.14890516
3	0x3d7345be	0.059392683
4	0xbd3e5d4b	-0.04647569
5	0xbe2647c1	-0.1623831
6	0x3d32ffe9	0.043701086
7	0xbe300d83	-0.17192654
8	0xbdc2d463	-0.09513166
9	0x3adf89aa	0.0017054577
10	0x3e2df7f6	0.16989121
11	0xbc806afe	-0.015676018
12	0x3c957e52	0.01824871
13	0x3e364939	0.1780137
14	0xbdb636f2	-0.08897199
15	0x3cb27637	0.021784885
16	0xbdf5b95e	-0.119982466
17	0xbc817827	-0.015804363
18	0xbdf74609	-0.12073905
19	0x3d74cfa4	0.059768334
20	0x3e160e48	0.14653885
21	0x3e1c2464	0.15248257
22	0x3e0362fa	0.12830725
23	0x3d0c343f	0.034229513
24	0xbe3fc0db	-0.18725912
25	0xbe02880d	-0.12747212
26	0x3e236bda	0.15959111
27	0xbcf98897	-0.030460639
28	0x3e352159	0.17688502
29	0xbe40f4be	-0.18843362
30	0xbc2f8296	-0.010712286
31	0xbdb82dbc	-0.08993098
32	0x3c597492	0.013272421
33	0x3e1fec24	0.15617424
34	0xbdad2425	-0.0845416
35	0xbdc9fb1d	-0.09862349
36	0xbda3a633	-0.07990684
37	0xbe40e6b6	-0.18838009
38	0xbde6f766	-0.11277656
39	0x3d865fc2	0.06561233
40	0x3b0539ad	0.0020328567
41	0xbe0641b1	-0.13110997
42	0xbd1e990d	-0.03872018
43	0xbe399eed	-0.18127032
44	0x3e02122c	0.12702245
45	0xbdd07287	-0.10178094
46	0x3e4a3096	0.19745097
47	0x3e180b2c	0.14848012
48	0x3e828b5c	0.25496948
49	0xbdc902c3	-0.0981498
50	0x3d825d04	0.063653976
51	0xbdb99647	-0.09061866
52	0x3e0d8403	0.1381989
53	0x3db1b873	0.08677759
54	0xbdff8fc8	-0.12478596
55	0xbe173ecb	-0.14770047
56	0xbe40be96	-0.18822703
57	0x3c633da3	0.013869676
58	0x3df0b3ba	0.1175303
59	0x3ddca271	0.10773171
60	0x3d602d37	0.05473062
61	0xbdb269bc	-0.087115735
62	0xbba7abf9	-0.0051169363
63	0xbd1a5436	-0.037677966
64	0x3dd9fb4c	0.10643634
65	0x3e14c246	0.14527234
66	0x3e21f8d3	0.15817575
67	0xbdab6319	-0.08368511
68	0x3cbe4477	0.023226006
69	0xbd4bc61a	-0.04974947
70	0x3cec2b2c	0.02882918
71	0xbd839a07	-0.06425863
72	0xbd8c2752	-0.06843437
73	0x3b095b0d	0.0020958812
74	0x3dfafb1b	0.12254926
75	0xbe4e236f	-0.20130704
76	0xbdcb5279	-0.0992784
77	0xbe06f1a2	-0.13178113
78	0xbdec5181	-0.11538983
79	0x3b9b66bd	0.004742472
80	0x3d391549	0.045186315
81	0xbdf4d138	-0.11953968
82	0x3e2dcfef	0.16973852
83	0x3e022085	0.12707718
84	0xbba42513	-0.0050093024
85	0x3e19ac4e	0.15007135
86	0x3e195484	0.14973646
87	0x3e26b335	0.162793
88	0x3c7ee2b5	0.015556981
89	0xbd094b7f	-0.033519264
90	0x3e0cee2b	0.13762729
91	0x3cebae2f	0.02876958
92	0xbd31b7c6	-0.04338815
93	0xbd44978f	-0.0479961
94	0xbe133065	-0.1437393
95	0xbe3c3ebc	-0.18383306
96	0xbdcdbf25	-0.100462236
97	0x3d8927dd	0.066970564
98	0xbdd753ca	-0.10514028
99	0x3da45602	0.08024217
100	0x3d823c9b	0.06359216
101	0x3d731771	0.059348527
102	0x3df0f5ea	0.117656544
103	0xbd81fa08	-0.06346518
104	0x3dc3e54e	0.09565221
105	0xbe0bb3f6	-0.13642868
106	0xbe2c7c13	-0.16844206
107	0x3da4c12a	0.080446556
108	0x3d667abe	0.0562694
109	0xbd808c4f	-0.06276762
110	0x3d8507a4	0.06495598
111	0x3cb8a2ce	0.022538569
112	0xbde6ad89	-0.11263568
113	0x3d599486	0.05312016
114	0x3d706551	0.058690373
115	0xbda8e195	-0.08246151
116	0x3dc97170	0.098360896
117	0xbddd4b12	-0.10805334
118	0x3e0f6e7b	0.14006989
119	0xbc68d3fb	-0.014210696
120	0x3d1b4215	0.037904818
121	0xbe15c0c4	-0.14624316
122	0x3e2f0efc	0.1709556
123	0x3d0e1478	0.03468749
124	0xbe1f51ee	-0.15558597
125	0xbdae0740	-0.084974766
126	0x3d9e4d47	0.07729583
127	0xbde247c1	-0.11048842
128	0xbd5db849	-0.054130826
129	0xbd463b32	-0.048396297
130	0x3d1d22ea	0.038363375
131	0x3da26f39	0.0793137
132	0x3b59b81d	0.0033221312
133	0xbe18cece	-0.1492264
134	0x3da9ccd5	0.08291022
135	0x3daa25d4	0.083079964
136	0xbd08223b	-0.03323577
137	0x3cc3e628	0.023913458
138	0x3dd6b8ee	0.10484491
139	0xbd5d2856	-0.053993545
140	0xbda8590b	-0.082201086
141	0xbe0f148f	-0.13972686
142	0xbd99fa02	-0.07518388
143	0x3d2bc38b	0.04193453
144	0xbd8c72ef	-0.06857859
145	0x3e37501c	0.17901653
146	0xbe333813	-0.1750186
147	0x3dcdcbc3	0.1004863
148	0x3d547dd5	0.051877815
149	0xbd4dd69d	-0.0502535
150	0x3b69f542	0.0035699164
151	0x3da48ef4	0.08035079
152	0x3e0d11a0	0.13776255
153	0xbd4f6ad3	-0.050638985
154	0xbc42aafc	-0.011881586
155	0x3dda3df0	0.10656345
156	0xbcf1a623	-0.029498165
157	0x3cc659f8	0.024212822
158	0x3d16c4c1	0.036808733
159	0x3dba6446	0.09101157
160	0x3d9d5a19	0.076832004
161	0x3d7126a2	0.058874734
162	0x3db10fb9	0.08645577
163	0x3e28f613	0.1650012
164	0x3aa226ba	0.001237116
165	0xbdf3241a	-0.1187212
166	0xbe2b6ff2	-0.16741922
167	0xbd47017d	-0.048585404
168	0xbd4e1dbb	-0.050321322
169	0x3d95df95	0.073180355
170	0x3dad86df	0.0847299
171	0x3c0562f5	0.008141269
172	0x3de3f5ba	0.11130853
173	0xbcfac1b2	-0.03060994
174	0x3df4d094	0.119538456
175	0x3e0cd6c4	0.13753802
176	0xbde84562	-0.11341359
177	0xbdb2bd12	-0.087274686
178	0x3e36f143	0.17865472
179	0xbe0783a7	-0.13233815
180	0xbe346855	-0.17617925
181	0xbdcb246e	-0.09919058
182	0xbdd66ccb	-0.10469969
183	0x3e0fec3a	0.14054957
184	0x3da7b575	0.08188907
185	0xbccb6274	-0.02482722
186	0xbdf138bb	-0.117783986
187	0x3e1f2924	0.15543038
188	0x3e2cef78	0.16888225
189	0x3dd7f2fd	0.10544393
190	0xbe130497	-0.1435722
191	0x3df09d3f	0.11748742
192	0xbd6f3c8d	-0.058407355
193	0xbddcd888	-0.107834876
194	0x3b9b0458	0.0047307424
195	0x3c17f6bf	0.009275137
196	0xbe24c465	-0.16090544
197	0x3e267c91	0.16258456
198	0x3dea2578	0.11432928
199	0x3d12981b	0.03578959
200	0xbd98d420	-0.07462335
201	0xbe1f3122	-0.15546086
202	0x3e13f0eb	0.14447372
203	0xbe419187	-0.1890317
204	0x3acf3033	0.0015807211
205	0xbe28fb43	-0.16502099
206	0xbe0fa4ee	-0.1402776
207	0x3dc2011d	0.094728686
208	0x3d3abbb5	0.045589168
209	0x3dcc213c	0.099672765
210	0xbc2cb653	-0.010541516
211	0x3df97b6a	0.121817425
212	0xbe294b6b	-0.16532676
213	0xbd45bdbe	-0.048276655
214	0x3e073f9a	0.13207856
215	0xbded9482	-0.11600591
216	0xbd7705e9	-0.06030837
217	0x3dcc518b	0.099764906
218	0xbccb5551	-0.024820955
219	0xbcf68e74	-0.030097224
220	0x3d5e8b2d	0.054331947
221	0xbe0f2401	-0.13978578
222	0xbd24c023	-0.0402223
223	0xbd8f7ba4	-0.070060045
224	0xbdfa0d15	-0.122095264
225	0xbd693c4a	-0.05694226
226	0x3df96675	0.12177745
227	0x3d3cddbb	0.046109896
228	0x3dc17c3d	0.09447525
229	0xbd9f91a4	-0.077914506
230	0xbdb6176c	-0.08891186
231	0x3e06d97c	0.13168901
232	0x3e16d3f7	0.14729296
233	0x3df9c368	0.12195474
234	0xbe116ba7	-0.14201222
235	0xbd400d3e	-0.04688763
236	0x3ddaafad	0.10678039
237	0x3e11827b	0.1420993
238	0x3e17e3f1	0.14833046
239	0x3cf97d5f	0.03045529
240	0x3e0e502b	0.13897769
241	0x3d298b64	0.0413927
242	0xbe0e70e8	-0.13910258
243	0xbe2d3a22	-0.16916707
244	0x3d4ce98b	0.05002741
245	0xbdd2bd14	-0.1028997
246	0x3e336765	0.1751991
247	0x3d2909b4	0.04126902
248	0x3db4c223	0.08826091
249	0xbe1f234d	-0.1554081
250	0x3c8932f8	0.016747937
251	0xbc252f7d	-0.010082123
252	0x3d88f4de	0.0668733
253	0x3dfa6596	0.12226407
254	0xbc59483e	-0.013261853
255	0xbdeb6425	-0.114937104

FC3.bias f4 [30]
0	0xbd71b151	-0.059006993
1	0x3db82712	0.08991827
2	0xbe1d258b	-0.15346353
3	0xbc5379fb	-0.0129075
4	0x3dfc7357	0.12326687
5	0xbe270f7c	-0.163145
6	0xbddd71e9	-0.10812742
7	0x3c469b07	0.012121922
8	0xbe44ffce	-0.19238207
9	0x3e3bc1f2	0.18335703
10	0x3d267278	0.04063651
11	0xbdb38523	-0.08765628
12	0x3e317c19	0.17332496
13	0x3ddaf8d1	0.10691989
14	0xbde7bff3	-0.11315908
15	0xbd892c8a	-0.06697948
16	0xbdc152d6	-0.09439628
17	0xbdb72cf4	-0.08944121
18	0xbe0b5330	-0.13605952
19	0x3dade07e	0.08490084
20	0x3d6a3060	0.05717504
21	0xbc517cde	-0.012786118
22	0x3d9f1b77	0.077689104
23	0xbc3159bf	-0.01082462
24	0x3e26e5c4	0.16298586
25	0xbd2c85c0	-0.04211974
26	0xbd289127	-0.041154053
27	0xbe2694ea	-0.16267744
28	0x3d37ef6b	0.04490606
29	0x3d7bb150	0.061448395

FC4.weight f4 [30, 30]
0	0xbe0dd335	-0.138501
1	0xbb9e5284	-0.004831614
2	0x3d7b76fc	0.06139277
3	0xbdb2e371	-0.08734787
4	0x3d09dd20	0.033658147
5	0xb977811f	-0.00023603857
6	0xbda14df3	-0.07876196
7	0xbdf7127a	-0.12064071
8	0x3deb3462	0.114846006
9	0xbe26fe80	-0.16308022
10	0x3e24aa4f	0.16080593
11	0xbd852bf0	-0.06502521
12	0xbdfbae0b	-0.122890554
13	0x3e01fcd5	0.12694104
14	0xbdd83334	-0.10556641
15	0xbd8731a1	-0.06601263
16	0x3e1cd253	0.15314607
17	0x3df515cf	0.1196705
18	0xbcc4280d	-0.023944879
19	0xbcc45dc1	-0.023970487
20	0x3d82cf5f	0.06387209
21	0x3e1c5a83	0.15268902
22	0x3d5dad56	0.054120384
23	0x3dd8254c	0.10553989
24	0xbde550d9	-0.11197061
25	0x3dfe06ac	0.12403616
26	0x3d84ca12	0.06483854
27	0xbe2096bd	-0.15682502
28	0x3c324256	0.0108800735
29	0x3dbc9637	0.09208339
30	0x3e019f30	0.12658381
31	0x3d05d574	0.032674268
32	0x3c28d4e1	0.010304661
33	0x3d8a6600	0.06757736
34	0xbdc28a7b	-0.09499069
35	0xbe417e39	-0.18895806
36	0x3dad3092	0.0845653
37	0xbe160c52	-0.14653137
38	0xbdc6d161	-0.097079046
39	0x3c57b910	0.013166681
40	0xbafd78e3	-0.0019338395
41	0x3e31f132	0.17377165
42	0x3e07f566	0.13277206
43	0x3dbd40e9	0.09240896
44	0xbd792496	-0.060825907
45	0xbd32ea92	-0.043680735
46	0xbe276175	-0.1634577
47	0x3e3852f4	0.18000394
48	0xbdc2a52c	-0.0950416
49	0x3c8b37be	0.016994353
50	0xbdcbd20d	-0.099521734
51	0xbc519de4	-0.012793992
52	0x3de6ea49	0.11275155
53	0x3da6097f	0.0810728
54	0x3e03db12	0.12876537
55	0xbe264485	-0.16237076
56	0xbcfa37c4	-0.03054417
57	0x3e368ae6	0.17826423
58	0xbc5fea82	-0.013666751
59	0x3e04dc4a	0.12974659
60	0xbb819bfc	-0.0039553624
61	0xbe045710	-0.12923837
62	0xbe1658d8	-0.14682329
63	0xbd289c72	-0.041164823
64	0x3da17ca8	0.078851044
65	0xbdf88f84	-0.121367484
66	0xbd91abce	-0.07112847
67	0x3dac2371	0.084051974
68	0xbde296ac	-0.11063895
69	0xbe153789	-0.14571966
70	0xbe3ec5f0	-0.18630195
71	0xbe015cfc	-0.12633127
72	0x3dd58140	0.10425043
73	0xbdcd2578	-0.10016912
74	0x3e3a307f	0.18182562
75	0xbd8ea86e	-0.06965719
76	0x3d965bcb	0.07341727
77	0x3db13549	0.086527415
78	0xbe3fca8a	-0.18729606
79	0x3dc695e3	0.096965574
80	0x3d63edb5	0.055646617
81	0x3ddaed1d	0.10689757
82	0xbd83045f	-0.06397318
83	0x3e08efb0	0.13372684
84	0xbdedb02e	-0.11605869
85	0x3de6cda3	0.11269691
86	0x3d67fede	0.056639545
87	0xbd79f687	-0.061026122
88	0x3cc91bc8	0.02454938
89	0x3db52f9b	0.08846971
90	0x3d910a91	0.070820935
91	0x3e32203c	0.17395109
92	0x3cfd8871	0.03094885
93	0x3e14391e	0.14474913
94	0x3cf46942	0.029835347
95	0x3dc138ac	0.094346374
96	0x3d9d42c0	0.07678747
97	0x3d98cdfc	0.074611634
98	0x3e157f95	0.1459945
99	0xbd92d4de	-0.071695074
100	0xbdab26b9	-0.08356995
101	0xbdd3de76	-0.103451654
102	0x3df13ab8	0.11778778
103	0xbd419885	-0.047264595
104	0x3de6591c	0.11247465
105	0x3e045356	0.12922415
106	0x3e2ea3b4	0.17054635
107	0x3e0d2f48	0.13787568
108	0xbe022bd7	-0.12712036
109	0x3e2da29f	0.16956566
110	0x3e2337d9	0.15939273
111	0x3dc5bf98	0.09655684
112	0x3d87d29b	0.06631967
113	0xbe024faa	-0.12725702
114	0x3e263a8e	0.16233274
115	0x3e1e4a8a	0.15458122
116	0xbd069047	-0.032852437
117	0xbdc54204	-0.09631732
118	0x3dbba460	0.091622114
119	0xbcc769b1	-0.02434239
120	0x3da72312	0.08160986
121	0xbdfa8d0a	-0.12233932
122	0xbdafac2a	-0.085777596
123	0xbde06332	-0.1095642
124	0x3d9b07dc	0.075698584
125	0xbe041515	-0.12898667
126	0xbe20e691	-0.15712954
127	0x3e14affd	0.14520259
128	0xbd5ad69d	-0.053427327
129	0x3d54b087	0.051926162
130	0xbd104477	-0.035221543
131	0xbd02d562	-0.03194178
132	0x3dff0972	0.124529734
133	0x3cff3b0f	0.031156091
134	0x3db8c056	0.0902106
135	0xbddfd267	-0.10928803
136	0x3dc3cc06	0.09560399
137	0x3e296152	0.16541031
138	0xbe06d5e9	-0.13167538
139	0xbcae9824	-0.02131278
140	0xbda2045e	-0.07910989
141	0xbcd55c36	-0.026044946
142	0xbd843d9e	-0.06457065
143	0xbdfd4a96	-0.12367742
144	0xbd96ee97	-0.07369726
145	0xbc94de57	-0.018172426
146	0xbe131d02	-0.14366534
147	0x3e1726b3	0.14760856
148	0x3e0f3f11	0.13988902
149	0x3e079eef	0.13244222
150	0x3d9ac7fa	0.07557674
151	0x3d9c95de	0.076457724
152	0xbd0f7212	-0.035020895
153	0xbca64b21	-0.020299496
154	0xbd990765	-0.074721135
155	0x3e122314	0.14271194
156	0xbd9ef2a7	-0.07761126
157	0x3e184ce7	0.14873086
158	0xbe06deb1	-0.13170888
159	0x3d92c4f9	0.07166476
160	0xbdfa3866	-0.122177884
161	0x3dd46bf6	0.103721544
162	0x3e137d3b	0.1440324
163	0x3e3db15d	0.1852469
164	0x3e1dbc7e	0.15403935
165	0x3d9d2832	0.07673682
166	0x3e10dad8	0.14145982
167	0x3da386f6	0.07984726
168	0xbdf694d7	-0.12040108
169	0x3e04af98	0.12957609
170	0x3e2fdf80	0.17175102
171	0x3e3584d6	0.17726454
172	0x3d6fb817	0.05852517
173	0xbd69ed8a	-0.0571113
174	0x3e4ebcdf	0.20189236
175	0x3d909bb8	0.07060951
176	0x3c990eee	0.018683877
177	0xbe362428	-0.1778723
178	0x3d33157c	0.04372166
179	0x3da42321	0.08014513
180	0xbe2ffbca	-0.17185894
181	0x3dae7c48	0.085197985
182	0xbdf7bd02	-0.12096597
183	0x3d5c0645	0.053716917
184	0xbdce9f82	-0.100890175
185	0x3c689891	0.014196531
186	0x3e09a5f7	0.13442217
187	0xbdc47136	-0.09591906
188	0xbc1c701e	-0.009548215
189	0x3e259a33	0.16172104
190	0xbe482fe5	-0.1954952
191	0xbd6aeb2e	-0.05735319
192	0xbe25767e	-0.16158482
193	0xbd742b12	-0.059611388
194	0xbdda9006	-0.106720015
195	0x3e0584f6	0.13039002
196	0xbd812b03	-0.06307032
197	0x3e26c046	0.16284284
198	0x3e2d2bbc	0.16911215
199	0xbe0d68ab	-0.13809459
200	0xbddd342f	-0.10800969
201	0x3cb2ee76	0.021842223
202	0xbe46b37f	-0.1940441
203	0x3e0874ea	0.13325849
204	0x3d7c97bf	0.061668154
205	0x3d7cf7d6	0.061759792
206	0xbbed89d3	-0.007249096
207	0xbc395e8b	-0.011314045
208	0xbd15576b	-0.03646032
209	0xbe3e8933	-0.18607025
210	0x3e15f891	0.14645602
211	0xbe22adfb	-0.15886681
212	0x3e098570	0.13429809
213	0xbda0ddf0	-0.07854831
214	0x3dd20051	0.102539666
215	0x3df7d3e4	0.12100962
216	0x3da8db74	0.08244982
217	0xbdb835c5	-0.08994631
218	0xbd27025f	-0.040773746
219	0xbd9be1fd	-0.07611463
220	0x3d9800f1	0.074220546
221	0xbda6bcdf	-0.08141493
222	0xbd2a3dd3	-0.041562866
223	0x3df084ae	0.11744057
224	0xbd44ccea	-0.048046984
225	0xbde9a2ab	-0.114079796
226	0x3e05dd61	0.1307273
227	0xbe078e52	-0.13237885
228	0xbdc94bd2	-0.09828915
229	0x3daca95e	0.08430742
230	0x3dfceefc	0.1235027
231	0xbca065a3	-0.019579714
232	0x3d1f1895	0.038841803
233	0xbc7e1726	-0.015508449
234	0xbcbe23e6	-0.023210477
235	0x3e0b2ea1	0.13592006
236	0x3d0e743e	0.034778826
237	0xbd607c0a	-0.054805793
238	0xbd279eed	-0.040923048
239	0xbdaec905	-0.08534435
240	0xbe240833	-0.16018753
241	0xbde4ff3e	-0.11181496
242	0xbd3294ba	-0.043598868
243	0x3cbbf547	0.022944106
244	0xbdd9a917	-0.106279545
245	0xbd76b74d	-0.060233403
246	0xba91a5d1	-0.0011112039
247	0x3cf8f71f	0.030391274
248	0xbd3ccb7e	-0.046092503
249	0x3dd5599d	0.10417483
250	0xbe2dac29	-0.16960205
251	0x3cef42c9	0.02920665
252	0xbdd360ef	-0.10321223
253	0xbdc27a49	-0.0949598
254	0xbdd956b4	-0.106122404
255	0xbdd3e724	-0.10346821

FC4.bias f4 [30]
0	0xbdc2f6e1	-0.09519745
1	0xbe2af88d	-0.16696377
2	0xbdd8cc92	-0.10585894
3	0xbe08f2f1	-0.13373925
4	0x3dfcbdac	0.123408645
5	0x3c82e814	0.015979804
6	0xbd9c2d9e	-0.07625888
7	0x3d964ff3	0.07339468
8	0x3d7cf70d	0.061759043
9	0xbcdb1455	-0.026743094
10	0x3a0acc1e	0.0005294698
11	0xbdcb9671	-0.09940804
12	0x3cabb3cd	0.02095976
13	0xbe20ced1	-0.15703894
14	0xbcb816da	-0.022471834
15	0xbd167d6c	-0.036740705
16	0x3e2f6dfc	0.171318
17	0x3e1f5abe	0.15561959
18	0x3df7e224	0.1210368
19	0x3e3a7c3a	0.18211451
20	0xbd2bdbbc	-0.041957602
21	0xbd8079e0	-0.06273246
22	0x3e1125ab	0.14174525
23	0x3ca85f10	0.020553142
24	0xbe45e878	-0.19326961
25	0xbc3f89d7	-0.011690578
26	0xbcdca3d9	-0.026933597
27	0xbca12bfb	-0.019674292
28	0xbe049f90	-0.12951493
29	0xbcf48159	-0.029846834

FC5.weight f4 [30, 30]
0	0xbdb55384	-0.0885382
1	0x3ba0ac5a	0.0049033584
2	0x3d6aeeeb	0.057356756
3	0x3e3caae4	0.18424565
4	0xbc5237e2	-0.012830706
5	0xbdcca0ed	-0.09991632
6	0x3d96b787	0.07359224
7	0x3dae8931	0.08522261
8	0x3da599ed	0.08086
9	0x3d715710	0.05892092
10	0xbddae47c	-0.10688111
11	0x3df1bde3	0.11803796
12	0x3cdc04cd	0.026857758
13	0x3cac6399	0.021043586
14	0x3e08cfae	0.13360474
15	0xbe1042c5	-0.1408797
16	0xbe25b1be	-0.16181085
17	0x3e0b356f	0.13594602
18	0x3d11d48d	0.035603095
19	0xbdc2fa6d	-0.09520421
20	0xbc6b5d80	-0.014365554
21	0x3da81fb2	0.082091704
22	0xbc34716e	-0.011013372
23	0x3c834025	0.016021797
24	0xbd07a6a6	-0.033117913
25	0x3d5fb4e3	0.054615866
26	0xbca4c6fb	-0.020114413
27	0xbd972f26	-0.0738204
28	0x3e074e53	0.13213472
29	0xbe1a0dd6	-0.1504434
30	0xbdd78291	-0.105229504
31	0xbd7cffff	-0.061767574
32	0x3d958d20	0.07302308
33	0xbdf3047f	-0.11866092
34	0xbd30147a	-0.042988278
35	0xbda020c5	-0.0781875
36	0x3cf6525a	0.030068565
37	0xbd8f6591	-0.07001794
38	0xbdecee78	-0.11568922
39	0xbdfbe47b	-0.122994386
40	0xbdc4c316	-0.09607522
41	0xbdd08b23	-0.10182788
42	0x3c2a662b	0.010400335
43	0x3d1bd820	0.03804791
44	0x3bab3f5c	0.005226059
45	0x3e1418b6	0.14462551
46	0x3daa7d1b	0.08324643
47	0x3d477529	0.048695717
48	0xbd904728	-0.07044822
49	0xbdfae319	-0.12250347
50	0xbdc4df53	-0.09612908
51	0xbca9da5e	-0.020734008
52	0xbdbd268f	-0.0923587
53	0x3d1508f4	0.03638549
54	0xbcbf4604	-0.023348816
55	0x3e071d46	0.1319476
56	0x3d78ce64	0.060743704
57	0xbdecf2bf	-0.11569738
58	0xbe03c94a	-0.12869754
59	0x3ce3b968	0.02779837
60	0xbdc2a192	-0.09503473
61	0x3d93c70e	0.07215701
62	0x3d995e82	0.07488729
63	0x3d91e379	0.07123465
64	0x3e0d3caf	0.1379268
65	0x3e1e4002	0.15454105
66	0xbca5d676	-0.020243865
67	0xbbdc4839	-0.006722477
68	0xbd6881a2	-0.056764252
69	0x3df629ac	0.12019667
70	0x3d910d49	0.07082612
71	0xbc4a76f7	-0.012357465
72	0xbd81380f	-0.063095205
73	0x3aac6469	0.0013152483
74	0x3e1aaab0	0.15104175
75	0x3b05a9da	0.002039543
76	0x3e12dc6a	0.14341894
77	0x3da51c2e	0.080620155
78	0xbdcff891	-0.10154832
79	0x3dda7504	0.1066685
80	0x3e0d2713	0.13784437
81	0x3d81608e	0.063172445
82	0xbe29e158	-0.16589868
83	0x3e113b75	0.14182837
84	0x3d567861	0.052360896
85	0xbe1cd2ea	-0.15314832
86	0xbdbb6436	-0.09149973
87	0x3d92c397	0.07166212
88	0xbd018061	-0.031616572
89	0x3dcb8c1d	0.09938834
90	0x3e3ffef5	0.18749602
91	0x3da78fb2	0.081817046
92	0x3d5ffb3b	0.05468295
93	0x3e14dd66	0.14537582
94	0xbccb15be	-0.02479064
95	0x3de968af	0.1139692
96	0x3cc247db	0.023715904
97	0xbc92c4bf	-0.017916081
98	0x3d8920ec	0.066957325
99	0xbdf35cc2	-0.118829265
100	0xbe21a819	-0.1578678
101	0xbdbc0065	-0.09179763
102	0x3e25cbb9	0.16190995
103	0xbdf03c3e	-0.1173024
104	0x3e0c5c94	0.13707191
105	0x3de2f523	0.11081912
106	0x3e0e570c	0.13900393
107	0xbd970be3	-0.07375314
108	0xbce57e58	-0.028014347
109	0xbbb7b2dc	-0.0056060385
110	0xbe229bed	-0.15879793
111	0x3dbb5cd4	0.09148565
112	0x3c8b844f	0.017030863
113	0xbd471454	-0.04860337
114	0x3dc5eafe	0.09663962
115	0xbdcce279	-0.10004134
116	0xbd08ecf5	-0.033429105
117	0xbd7731fb	-0.0603504
118	0xbd7b943e	-0.06142067
119	0x3e142457	0.14466988
120	0x3cc4f6b2	0.024043415
121	0xbe0713a7	-0.1319109
122	0x3dbefea3	0.09325912
123	0x3e0d0be0	0.13774061
124	0x3abe5e04	0.0014523868
125	0x3c71bb31	0.014754103
126	0xbd990ba9	-0.07472927
127	0x3e2d3172	0.16913393
128	0x3dc13f47	0.09435897
129	0x3dab230d	0.08356295
130	0xbda78e61	-0.081814535
131	0x3e04eec7	0.12981711
132	0xbdd9ae99	-0.10629005
133	0xbc57eefd	-0.013179538
134	0x3c482568	0.01221595
135	0x3d12dd2c	0.035855457
136	0xbdbf25ce	-0.093333825
137	0xbe31a8bb	-0.17349522
138	0xbe2ad982	-0.16684535
139	0xbc9da052	-0.019241486
140	0xbe23d8fe	-0.16000745
141	0xbd0f7a40	-0.035028696
142	0xbe14a882	-0.14517406
143	0x3c843a07	0.01614095
144	0x3e004339	0.12525643
145	0x3d7240fa	0.059143998
146	0xbdcb4b2f	-0.099264495
147	0x3e3845fe	0.1799545
148	0x3da7fa5d	0.0820205
149	0xbc05d649	-0.008168765
150	0xbdef319a	-0.116793826
151	0x3dd910a6	0.105988786
152	0xbd22687e	-0.039650433
153	0xba840e73	-0.0010075107
154	0xbd36c0a4	-0.04461731
155	0x3c473245	0.012157981
156	0x3d3c8dbb	0.046033602
157	0x3de25ff2	0.11053456
158	0x3cdc0b90	0.026860982
159	0x3e25588b	0.16147058
160	0xbdf9548e	-0.12174331
161	0x3d50b648	0.050955087
162	0x3e289304	0.16462332
163	0xbd407839	-0.046989653
164	0x3dafab4d	0.08577595
165	0x3d6cf6fc	0.05785273
166	0x3d19587b	0.037437897
167	0xbd5c51b8	-0.05378887
168	0xbdb51cab	-0.088433586
169	0x3df805b2	0.12110461
170	0x3d7710e7	0.060318854
171	0xbc0ff4c6	-0.008786386
172	0x3cf888b4	0.030338623
173	0xbcede00b	-0.029037496
174	0x3e1120e5	0.14172705
175	0xbcc2110b	-0.023689767
176	0x3dbe7839	0.093002744
177	0xbd42af0e	-0.047530226
178	0x3e100d7c	0.14067644
179	0x3d971c1f	0.073784105
180	0xbdc883bb	-0.097907506
181	0x3df7cb58	0.120993316
182	0x3e150146	0.14551267
183	0xbaa18058	-0.0012321575
184	0xbd0e30df	-0.034714576
185	0xbdd53e21	-0.10412241
186	0x3e051bf4	0.12998945
187	0xbe0791b1	-0.1323917
188	0x3db84548	0.08997589
189	0x3d85b801	0.065292366
190	0xbe307a9d	-0.17234273
191	0xbe068a6f	-0.13138746
192	0x3cd4a9e4	0.025959916
193	0x3d364937	0.044503417
194	0x3d97a859	0.07405157
195	0x3d2a149f	0.041523572
196	0x3e159526	0.14607677
197	0xbd9e0673	-0.07716074
198	0x3c4603cb	0.012085865
199	0xbdbd2fa4	-0.09237602
200	0x3d82c793	0.06385722
201	0xbd600812	-0.054695196
202	0xbc3eda0f	-0.011648669
203	0x3e146690	0.1449225
204	0x3e226e12	0.15862301
205	0xbd872c1a	-0.066002086
206	0xbd176dc7	-0.036969926
207	0x3e0d6c0f	0.13810752
208	0x3d0b8fe9	0.03407279
209	0xbe3d1d9e	-0.1846833
210	0xbd3f9003	-0.0467682
211	0xbe0e2281	-0.1388035
212	0x3dc3d6b2	0.09562434
213	0x3da593bc	0.08084819
214	0x3d75a77e	0.059974186
215	0xbca0dbef	-0.019636123
216	0xbdcc6606	-0.09980397
217	0xbe2fc57b	-0.17165177
218	0xbe336367	-0.17518388
219	0x3e2e2c2b	0.17009036
220	0x3e2ce817	0.1688541
221	0xbcefcfd0	-0.029273897
222	0x3b748a40	0.0037313849
223	0x3df30757	0.11866634
224	0xbd5a2dd8	-0.053266376
225	0x3e0c64b3	0.13710289
226	0xbe0bf301	-0.13666917
227	0x3da0ea20	0.07857156
228	0x3e47fe29	0.19530548
229	0xbbdc34e0	-0.0067201704
230	0x3e0c3fb7	0.1369618
231	0xbe13045c	-0.14357132
232	0xbe2ecde9	-0.17070736
233	0xbcc48322	-0.02398831
234	0x3e152856	0.14566168
235	0x3d71a251	0.058992688
236	0x3d506bda	0.050884105
237	0xbdf75a1e	-0.12077735
238	0xbddfb320	-0.10922837
239	0xbdfcbbaa	-0.123404816
240	0xbe1a72a0	-0.15082788
241	0xbdcdfa01	-0.1005745
242	0x3cd19f1d	0.025588566
243	0x3d248c53	0.040172886
244	0x3c815f77	0.015792591
245	0x3d41330a	0.047167815
246	0xbe166067	-0.14685212
247	0x3d06836a	0.03284017
248	0xbe11e3a5	-0.14246996
249	0xbc90cfb0	-0.017677158
250	0x3db5b012	0.08871473
251	0x3c1825ed	0.009286386
252	0x3e0c1128	0.1367842
253	0xbd7d273d	-0.061805
254	0xbe1001dc	-0.1406321
255	0x3e1e0650	0.15432096

FC5.bias f4 [30]
0	0x3dbeffe2	0.093261495
1	0x3d5f811c	0.054566488
2	0xbdc202cf	-0.09473192
3	0xbe36af81	-0.17840387
4	0x3dece437	0.11566966
5	0xbdc64ba9	-0.096824
6	0xbe443dbf	-0.1916418
7	0x3db09aa6	0.08623247
8	0x3dddb4cb	0.10825499
9	0x3e449d58	0.19200647
10	0x3d928393	0.07154002
11	0xbc5db7cf	-0.013532593
12	0xbdea7d91	-0.11449731
13	0x3df9deb9	0.12200684
14	0xbdd6a613	-0.10480895
15	0x3d1f3673	0.038870286
16	0x3d327de2	0.043577082
17	0x3cb3a4c7	0.021929158
18	0x3dde77c9	0.10862691
19	0x3e444808	0.19168103
20	0x3d452932	0.04813499
21	0xbdc98c2d	-0.098411895
22	0x3e039094	0.12848121
23	0xbe1da813	-0.15396146
24	0xbdd78552	-0.10523476
25	0x3dcd16b2	0.100140944
26	0x3df54ef3	0.11977949
27	0xbe0addb4	-0.13561136
28	0xbddd67eb	-0.108108364
29	0x3c01e45b	0.007927979

Net2.weight f4 [2, 30]
0	0x3c5e294c	0.013559651
1	0x3d8a6d96	0.06759183
2	0x3dbb03f3	0.09131613
3	0x3cdd767c	0.027034037
4	0x3e1dedd3	0.15422754
5	0xbccfb66c	-0.02535554
6	0xbddf4397	-0.109015636
7	0x3d8854a9	0.06656773
8	0xbd232ba2	-0.039836533
9	0x3d7ca260	0.06167829
10	0x3c0aca43	0.0084710745
11	0xbe312386	-0.17298707
12	0xbd9cd52a	-0.07657845
13	0xbcd6cd3a	-0.026220907
14	0x3e267e37	0.16259085
15	0xbdb70f41	-0.08938456
16	0x3dac3328	0.08408195
17	0x3de35423	0.11100032
18	0x3dca518d	0.09878836
19	0x3d9cadb7	0.07650321
20	0x3e3c2cd5	0.18376477
21	0x3d3f5452	0.046711273
22	0x3e0e7504	0.13911825
23	0xbd96200a	-0.0733033
24	0xbe1d08a6	-0.1533533
25	0xbd6422f4	-0.055697396
26	0x3d9545bd	0.07288692
27	0x3d002169	0.031281862
28	0x3d81a33e	0.06329964
29	0xbd57de21	-0.052702073
30	0xbe0eedcc	-0.139579
31	0xbc89e502	-0.016832832
32	0x3e20ce4d	0.15703698
33	0xbe1d79a8	-0.1537844
34	0x3df3ee6e	0.11910711
35	0x3cda3883	0.026638275
36	0xbd7635b3	-0.060109805
37	0x3e0b0dcc	0.13579482
38	0x3b9020b5	0.00439843
39	0xbd3451f6	-0.044023477
40	0xbda140ff	-0.07873725
41	0xbd3c682b	-0.04599778
42	0xbd9985d6	-0.0749623
43	0xbcce0835	-0.025150398
44	0xbdc53345	-0.096289195
45	0xbddddec6	-0.10833506
46	0xbd47c64c	-0.048773095
47	0x3d6df129	0.058091316
48	0xbd991583	-0.07474806
49	0xbd331e4d	-0.04373007
50	0x3e1ea1e6	0.15491447
51	0x3c0d315e	0.008617727
52	0xbdc83b05	-0.09776882
53	0xbdde6413	-0.108589314
54	0xbde191d7	-0.11014145
55	0x3dc2edf2	0.09518041
56	0xbdf6405c	-0.12023994
57	0xbdeeb2dc	-0.116552085
58	0x3d79c905	0.060982723
59	0xbd92ad92	-0.07162012

Net2.bias f4 [2]
0	0x3e03d42a	0.12873903
1	0x3d6a0114	0.057129934
