KINN/Plate_hole/PINNs/model/model2_kan.pth (torch, 7522 bytes, 12 tensors)

layers.0.base_weight f4 [5, 2]
-0.5132777 0.8653043 0.60659796 0.20491865 0.5420922 0.746075 -0.6314209 -0.11065752
0.6170002 -0.69000745
00000000: 2b66 03bf 9584 5d3f 014a 1b3f 32d6 513e
00000010: 8ec6 0a3f c5fe 3e3f cda4 21bf 69a0 e2bd
00000020: baf3 1d3f 54a4 30bf

layers.0.spline_weight f4 [5, 2, 13]
0.26805732 0.3240667 0.26051715 0.18416719 0.18477215 0.08875845 0.039569095 0.0035886362
-0.054777324 -0.14387462 -0.20836556 -0.24159221 -0.24652684 -0.31972346 -0.11608463 -0.10959728
-0.095897116 -0.054940548 -0.0054085185 0.07192322 0.14316149 0.17702651 0.19365866 0.20500153
0.23225425 0.24447376 -0.17449111 -0.23653637 -0.20404789 -0.14274448 -0.13477132 -0.037822977
0.028911136 0.06884424 0.097225055 0.1052413 0.13876027 0.20693783 0.3044907 0.5321705
0.09157112 -0.016075816 0.09259756 0.17339113 0.15288791 0.117899664 0.044471174 -0.056158416
-0.17233634 -0.26620966 -0.35717258 -0.534927 -0.1827518 -0.18019557 -0.1653365 -0.14221068
-0.11648975 -0.097731136 -0.06933258 -0.05153708 -0.013069788 0.029197304 0.1022431 0.18218336
0.24728373 -0.21312968 -0.15714262 -0.15992382 -0.05480152 0.074558794 0.11890039 0.12654214
0.12081936 0.13389923 0.13097356 0.13353692 0.13917176 0.14517957 -0.19616856 -0.16366917
-0.1824404 -0.037121825 0.14787778 0.16380492 0.066996396 -0.011479804 -0.049209673 -0.13240479
-0.17248686 -0.21093133 -0.26732945 0.45587233 0.112283185 0.00029658314 0.18003632 0.0960637
-0.04065406 -0.06410442 -0.11400898 -0.12017153 -0.11873463 -0.09028046 -0.09860426 -0.1544854
0.19903535 0.21768898 0.17745394 0.113991655 -0.020124553 -0.07700551 -0.10800518 -0.13266365
-0.14881511 -0.16860871 -0.17625493 -0.19745795 -0.2238966 -0.23538205 -0.18328567 -0.1591474
-0.14488848 -0.14952275 -0.10210554 -0.041827273 0.03080446 0.050734922 0.055909604 0.059135616
0.054329965 0.03989697
00000000: cf3e 893e 12ec a53e 8162 853e 5396 3c3e
00000010: e934 3d3e fdc6 b53d 3413 223d 532f 6b3b
00000020: 305e 60bd de53 13be c85d 55be f363 77be
00000030: 8871 7cbe cbb2 a3be c7bd edbd 8a74 e0bd
00000040: b565 c4bd 5709 61bd f139 b1bb 7b4c 933d
00000050: ed98 123e 7046 353e 754e 463e eceb 513e
00000060: 0fd4 6d3e 5457 7a3e ccad 32be 9736 72be
00000070: eef1 50be 9c2b 12be 7e01 0abe 44ec 1abd
00000080: 0cd7 ec3c 35fe 8c3d ee1d c73d c088 d73d
00000090: 2c17 0e3e 83e7 533e 34e6 9b3e 533c 083f
000000a0: a489 bb3d 6eb1 83bc caa3 bd3d 728d 313e
000000b0: a68e 1c3e 6175 f13d 6827 363d 5e06 66bd
000000c0: f078 30be a24c 88be 53df b6be faf0 08bf
000000d0: 4a23 3bbe 3085 38be f94d 29be ad9f 11be
000000e0: 2e92 eebd 4327 c8bd 3dfe 8dbd 8c18 53bd
000000f0: aa22 56bc 2f2f ef3c d564 d13d 468e 3a3e
00000100: f237 7d3e ab3e 5abe ffe9 20be 12c3 23be
00000110: 8f77 60bd 48b2 983d 0c82 f33d 4394 013e
00000120: 2470 f73d e11c 093e ef1d 063e e7bd 083e
00000130: 0b83 0e3e f4a9 143e 69e0 48be e498 27be
00000140: a8d1 3abe 0e0d 18bd 466d 173e 7abc 273e
00000150: 6835 893d ca15 3cbc 1590 49bd 1f95 07be
00000160: 65a0 30be 62fe 57be 68df 88be 1968 e93e
00000170: baf4 e53d b77e 9b39 715b 383e 0cbd c43d
00000180: df84 26bd 2e49 83bd 8a7d e9bd 7e1c f6bd
00000190: 242b f3bd f6e4 b8bd 08f1 c9bd 6c31 1ebe
000001a0: eccf 4b3e dce9 5e3e 7cb6 353e 7574 e93d
000001b0: 3fdc a4bc 11b5 9dbd d231 ddbd fbd8 07be
000001c0: fd62 18be c3a7 2cbe 2c7c 34be 6b32 4abe
000001d0: 2645 65be fe07 71be 3daf 3bbe 89f7 22be
000001e0: a55d 14be 7e1c 19be b61c d1bd 1353 2bbd
000001f0: a359 fc3c 6ccf 4f3d 7801 653d 3038 723d
00000200: 1989 5e3d 016b 233d

layers.0.spline_scaler f4 [5, 2]
0.5355575 0.8091287 0.8353856 0.3525165 -0.51962453 0.77585274 -0.7836143 -0.73343915
-0.8207843 -0.6151133
00000000: 4c1a 093f 0f23 4f3f d5db 553f 0b7d b43e
00000010: 1d06 05bf 499e 463f f29a 48bf abc2 3bbf
00000020: eb1e 52bf 1178 1dbf

layers.0.grid f4 [2, 17]
-0.3 -0.2 -0.1 0.0 0.1 0.2 0.3 0.4
0.5 0.6 0.7 0.8 0.90000004 1.0 1.1 1.2
1.3000001 -0.3 -0.2 -0.1 0.0 0.1 0.2 0.3
0.4 0.5 0.6 0.7 0.8 0.90000004 1.0 1.1
1.2 1.3000001
00000000: 9a99 99be cdcc 4cbe cdcc ccbd 0000 0000
00000010: cdcc cc3d cdcc 4c3e 9a99 993e cdcc cc3e
00000020: 0000 003f 9a99 193f 3333 333f cdcc 4c3f
00000030: 6766 663f 0000 803f cdcc 8c3f 9a99 993f
00000040: 6766 a63f 9a99 99be cdcc 4cbe cdcc ccbd
00000050: 0000 0000 cdcc cc3d cdcc 4c3e 9a99 993e
00000060: cdcc cc3e 0000 003f 9a99 193f 3333 333f
00000070: cdcc 4c3f 6766 663f 0000 803f cdcc 8c3f
00000080: 9a99 993f 6766 a63f

layers.1.base_weight f4 [5, 5]
0.2006023 -0.18278298 0.55656105 -0.21118294 -0.42325822 0.25992534 0.16784775 0.32530895
-0.250129 -0.42878026 -0.2528383 0.36711627 0.31610197 0.15958682 0.08591976 0.2710145
-0.09231623 -0.38385925 -0.38029817 0.13109903 -0.478047 0.36620066 -0.37737036 0.45741218
0.36928633
00000000: b06a 4d3e 762b 3bbe c97a 0e3f 5740 58be
00000010: 4db5 d8be ef14 853e 48e0 2b3e e58e a63e
00000020: e910 80be 1689 dbbe 0674 81be aaf6 bb3e
00000030: 1ed8 a13e ba6a 233e b3f6 af3d 6ac2 8a3e
00000040: 4b10 bdbd 3389 c4be 71b6 c2be d33e 063e
00000050: 94c2 f4be a77e bb3e b036 c1be ee31 ea3e
00000060: 1913 bd3e

layers.1.spline_weight f4 [5, 5, 13]
0.121014245 0.10517974 0.08310567 -0.052023895 -0.16489977 -0.13566665 -0.2271514 -0.33110058
-0.49418 -0.61671567 -0.5492571 0.0 0.0 0.5241746 0.243477 0.15001023
0.12637942 0.07671054 -0.009932652 -0.074684575 -0.16932805 -0.3436868 -0.30217984 0.0010652542
0.0 0.0 -0.6554195 -0.045499086 0.18986394 0.12931256 0.14795762 0.13579476
0.17072767 0.2587017 0.15654658 -0.1633091 -0.21585922 0.0 0.0 -0.12931772
-0.25181997 -0.35064137 -0.32773596 0.014421369 -0.0013886923 -0.0055304356 0.0039860536 0.003504188
-0.0041870135 -0.0012695557 0.0 0.0 0.0064096996 0.121784866 0.21378128 0.22279555
0.18176466 0.26594335 0.19985114 0.08258565 -0.45209467 -0.021987384 -0.0026946976 0.0
0.0 -0.076982275 -0.046338607 -0.0025537887 0.06582302 0.119259186 0.12707765 0.2007689
0.30275515 0.41562495 0.5868455 1.2827313 0.0 0.0 -0.48669007 -0.23542996
-0.16146421 -0.1108892 -0.07366069 0.0050575235 0.07926313 0.13210331 0.23183662 0.24155138
0.0007631935 0.0 0.0 0.31476694 0.020088658 -0.089935705 -0.08322833 -0.10906101
-0.11351587 -0.121932626 -0.18071301 -0.12553817 0.14275 0.07801411 0.0 0.0
-0.12008284 -0.22667629 -0.3644053 -0.396322 0.17461336 0.0013354216 -0.005248757 -0.0014642971
-0.005888727 0.0048423344 0.001720338 0.0 0.0 -0.040144697 0.096728235 0.19693059
0.19821179 0.1516696 0.2516167 0.1656809 -0.048618425 -0.57502514 -0.022385588 0.001326171
0.0 0.0 -0.05958375 0.032988355 0.081152916 0.08405182 0.11262852 0.12250237
0.18647896 0.22612545 0.19387908 0.006639068 -0.97145164 0.0 0.0 -0.10546639
-0.1512863 -0.13435753 -0.12290118 -0.098830014 -0.0965751 -0.06546913 -0.13443662 -0.08679897
-0.20983154 0.0011642373 0.0 0.0 -0.7845824 -0.042366907 0.018913046 0.060951836
0.08741926 0.13637295 0.14423004 0.15994006 0.21967818 0.22178495 0.29768893 0.0
0.0 -0.11851069 -0.16195588 -0.33211935 -0.32527688 -0.30379602 0.005867122 -0.002361706
0.0024437946 -0.0071800495 0.0016386197 0.0010240081 0.0 0.0 0.08038324 0.062209137
-0.054942757 -0.1517279 -0.18344504 -0.16478467 -0.09750143 0.09001606 -0.68102133 -0.106117934
0.0003178142 0.0 0.0 0.008301624 0.007949211 -0.07900138 -0.07961898 -0.07802779
-0.08919023 -0.11683825 -0.08102914 0.10276757 0.04553422 0.31419557 0.0 0.0
-0.07822499 -0.09852097 -0.05736792 -0.06377657 -0.043213587 -0.053934723 -0.123304546 -0.21153758
-0.53948116 -0.2958757 -0.0003668932 0.0 0.0 -0.51393664 -0.052305482 -0.002550938
0.051225036 0.0271876 0.055939946 0.097225115 0.12036643 0.1304764 0.11972166 -0.0768609
0.0 0.0 -0.074327946 -0.116504595 0.005873824 -0.17433123 0.24155682 0.0015265513
0.007075588 -0.0042105755 0.0055175577 0.0011645812 -0.00020347978 0.0 0.0 0.095077656
0.0813533 -0.10769588 -0.21221255 -0.16549006 -0.2521837 -0.22722086 0.092167854 0.059057873
00000000: 51d6 f73d 7a68 d73d 4e33 aa3d 0217 55bd
00000010: 7cdb 28be 33ec 0abe 609a 68be 0486 a9be
00000020: 2905 fdbe 14e1 1dbf 1d9c 0cbf 0000 0000
00000030: 0000 0000 4e30 063f 0952 793e 489c 193e
00000040: 9b69 013e 6a1a 9d3d 90bc 22bc 3af4 98bd
00000050: 5564 2dbe b7f7 afbe 51b7 9abe 00a0 8b3a
00000060: 0000 0000 0000 0000 93c9 27bf 405d 3abd
00000070: b16b 423e 836a 043e 3482 173e c80d 0b3e
00000080: 3cd3 2e3e 8d74 843e bf4d 203e 803a 27be
00000090: 330a 5dbe 0000 0000 0000 0000 dd6b 04be
000000a0: 8cee 80be 4487 b3be 02cd a7be 9b47 6c3c
000000b0: c804 b6ba a838 b5bb 719d 823b 85a6 653b
000000c0: 3733 89bb 3867 a6ba 0000 0000 0000 0000
000000d0: 7508 d23b 586a f93d 7be9 5a3e 8424 643e
000000e0: 8420 3a3e ba29 883e c7a5 4c3e aa22 a93d
000000f0: f478 e7be e31e b4bc 8699 30bb 0000 0000
00000100: 0000 0000 e2a8 9dbd 8dcd 3dbd 775d 27bb
00000110: 38ce 863d 293e f43d a520 023e 5d96 4d3e
00000120: b902 9b3e cbcc d43e 823b 163f 8a30 a43f
00000130: 0000 0000 0000 0000 712f f9be 8d14 71be
00000140: e056 25be e019 e3bd 6adb 96bd 95b9 a53b
00000150: b554 a23d 1746 073e 9466 6d3e 3f59 773e
00000160: 0c11 483a 0000 0000 0000 0000 2229 a13e
00000170: f890 a43c 3630 b8bd 9d73 aabd 615b dfbd
00000180: 027b e8bd d0b7 f9bd d50c 39be 148d 00be
00000190: 0e2d 123e ddc5 9f3d 0000 0000 0000 0000
000001a0: feed f5bd d41d 68be 5593 babe b8ea cabe
000001b0: d8cd 323e 5009 af3a c4fd abbb a8ed bfba
000001c0: 39f6 c0bb 72ac 9e3b f77c e13a 0000 0000
000001d0: 0000 0000 c46e 24bd 7419 c63d 2ca8 493e
000001e0: 08f8 4a3e 474f 1b3e e7d3 803e 41a8 293e
000001f0: 1d24 47bd d934 13bf fb61 b7bc ead2 ad3a
00000200: 0000 0000 0000 0000 170e 74bd cc1e 073d
00000210: 8033 a63d 5c23 ac3d c8a9 e63d 86e2 fa3d
00000220: 57f4 3e3e 6e8d 673e 3d88 463e 8a8c d93b
00000230: 0eb1 78bf 0000 0000 0000 0000 c3fe d7bd
00000240: ccea 1abe 0595 09be 9db3 fbbd 6467 cabd
00000250: 2bc9 c5bd ae14 86bd c1a9 09be a9c3 b1bd
00000260: 14de 56be 5299 983a 0000 0000 0000 0000
00000270: 64da 48bf ec88 2dbd 88ef 9a3c a2a8 793d
00000280: de08 b33d 5aa5 0b3e 0ab1 133e 54c7 233e
00000290: 51f3 603e 981b 633e af6a 983e 0000 0000
000002a0: 0000 0000 bcb5 f2bd c3d7 25be 8c0b aabe
000002b0: b18a a6be 278b 9bbe fd40 c03b dac6 1abb
000002c0: 1228 203b 9f46 ebbb f4c6 d63a 0338 863a
000002d0: 0000 0000 0000 0000 f89f a43d 02cf 7e3d
000002e0: a80b 61bd 8f5e 1bbe 04d9 3bbe 50bd 28be
000002f0: d4ae c7bd 575a b83d 6a57 2ebf 5c54 d9bd
00000300: 4da0 a639 0000 0000 0000 0000 8903 083c
00000310: 683d 023c 7acb a1bd 470f a3bd 09cd 9fbd
00000320: 5ea9 b6bd e448 efbd 9bf2 a5bd ce77 d23d
00000330: 1782 3a3d 3ede a03e 0000 0000 0000 0000
00000340: 6c34 a0bd 5dc5 c9bd a0fa 6abd 4a9d 82bd
00000350: bb00 31bd a8ea 5cbd 1887 fcbd 4f9d 58be
00000360: 701b 0abf 057d 97be 925b c0b9 0000 0000
00000370: 0000 0000 5a91 03bf 463e 56bd a32d 27bb
00000380: 58d1 513d 88b8 de3c 4921 653d f61d c73d
00000390: ad82 f63d 9b9b 053e a130 f53d 3f69 9dbd
000003a0: 0000 0000 0000 0000 4039 98bd f699 eebd
000003b0: 3579 c03b e383 32be ac5a 773e 9016 c83a
000003c0: 56da e73b def8 89bb a1cc b43b dca4 983a
000003d0: 305d 55b9 0000 0000 0000 0000 13b8 c23d
000003e0: 8f9c a63d a88f dcbd 3f4e 59be 3a76 29be
000003f0: 391e 81be 96ac 68be 80c2 bc3d abe6 713d

layers.1.spline_scaler f4 [5, 5]
-0.22567855 0.6584316 0.17573482 -0.6824101 -0.2720355 0.5804144 -0.43199742 -0.4364079
-0.6512104 -0.27323395 0.36417255 -0.35573962 0.29189253 -0.4572084 0.35770154 0.3377951
0.3704366 -0.41222176 0.2619377 -0.39711595 0.34214103 0.5523691 0.44555613 0.41147402
-0.5138794
00000000: 4718 67be f98e 283f d4f3 333e 6eb2 2ebf
00000010: 3d48 8bbe 0a96 143f c42e ddbe db70 dfbe
00000020: bab5 26bf 52e5 8bbe d374 ba3e 8123 b6be
00000030: f072 953e 3817 eabe a824 b73e 7bf3 ac3e
00000040: dea9 bd3e bb0e d3be b31c 863e c852 cbbe
00000050: 1c2d af3e 1068 0d3f ef1f e43e b9ac d23e
00000060: 9a8d 03bf

layers.1.grid f4 [5, 17]
-0.3 -0.2 -0.1 0.0 0.1 0.2 0.3 0.4
0.5 0.6 0.7 0.8 0.90000004 1.0 1.1 1.2
1.3000001 -0.3 -0.2 -0.1 0.0 0.1 0.2 0.3
0.4 0.5 0.6 0.7 0.8 0.90000004 1.0 1.1
1.2 1.3000001 -0.3 -0.2 -0.1 0.0 0.1 0.2
0.3 0.4 0.5 0.6 0.7 0.8 0.90000004 1.0
1.1 1.2 1.3000001 -0.3 -0.2 -0.1 0.0 0.1
0.2 0.3 0.4 0.5 0.6 0.7 0.8 0.90000004
1.0 1.1 1.2 1.3000001 -0.3 -0.2 -0.1 0.0
0.1 0.2 0.3 0.4 0.5 0.6 0.7 0.8
0.90000004 1.0 1.1 1.2 1.3000001
00000000: 9a99 99be cdcc 4cbe cdcc ccbd 0000 0000
00000010: cdcc cc3d cdcc 4c3e 9a99 993e cdcc cc3e
00000020: 0000 003f 9a99 193f 3333 333f cdcc 4c3f
00000030: 6766 663f 0000 803f cdcc 8c3f 9a99 993f
00000040: 6766 a63f 9a99 99be cdcc 4cbe cdcc ccbd
00000050: 0000 0000 cdcc cc3d cdcc 4c3e 9a99 993e
00000060: cdcc cc3e 0000 003f 9a99 193f 3333 333f
00000070: cdcc 4c3f 6766 663f 0000 803f cdcc 8c3f
00000080: 9a99 993f 6766 a63f 9a99 99be cdcc 4cbe
00000090: cdcc ccbd 0000 0000 cdcc cc3d cdcc 4c3e
000000a0: 9a99 993e cdcc cc3e 0000 003f 9a99 193f
000000b0: 3333 333f cdcc 4c3f 6766 663f 0000 803f
000000c0: cdcc 8c3f 9a99 993f 6766 a63f 9a99 99be
000000d0: cdcc 4cbe cdcc ccbd 0000 0000 cdcc cc3d
000000e0: cdcc 4c3e 9a99 993e cdcc cc3e 0000 003f
000000f0: 9a99 193f 3333 333f cdcc 4c3f 6766 663f
00000100: 0000 803f cdcc 8c3f 9a99 993f 6766 a63f
00000110: 9a99 99be cdcc 4cbe cdcc ccbd 0000 0000
00000120: cdcc cc3d cdcc 4c3e 9a99 993e cdcc cc3e
00000130: 0000 003f 9a99 193f 3333 333f cdcc 4c3f
00000140: 6766 663f 0000 803f cdcc 8c3f 9a99 993f
00000150: 6766 a63f

layers.2.base_weight f4 [1, 5]
-0.33327362 -0.51266575 -0.48158085 0.30141833 0.6093392
00000000: d7a2 aabe 103e 03bf c491 f6be 8153 9a3e
00000010: a7fd 1b3f

layers.2.spline_weight f4 [1, 5, 13]
0.08896244 0.026882142 0.034199115 0.07862155 0.15003107 0.21897733 0.26290095 0.30603838
0.36032844 0.33507687 -0.20530371 0.0 0.0 0.04060158 0.0046200254 0.039478883
0.07492302 0.14221312 0.19904295 0.25360495 0.3333976 0.34409967 0.3906126 1.016104
0.0 0.0 -0.060844056 -0.098211005 -0.21287315 -0.22705767 0.28145444 0.26940805
0.08518765 -0.00077566813 -5.3185504e-06 0.0030605407 0.0007560074 0.0 0.0 -0.19797422
-0.08175986 -0.028519254 -0.072939426 0.20260416 -0.007972721 -0.0018766025 0.0015569071 -0.0043846206
0.0023169427 0.0009617043 0.0 0.0 -0.03508271 0.00820634 0.106277265 0.07708216
0.05826349 -0.107706055 -0.03068228 -0.0045660664 0.0035415585 0.0041589113 0.00073705846 0.0
0.0
00000000: f131 b63d f037 dc3c 5f14 0c3d 5604 a13d
00000010: bfa1 193e 983b 603e f49a 863e 10b1 9c3e
00000020: f87c b83e 328f ab3e 233b 52be 0000 0000
00000030: 0000 0000 d84d 263d 9563 973b 9cb4 213d
00000040: 3e71 993d 51a0 113e ead1 4b3e 82d8 813e
00000050: 17b3 aa3e d52d b03e 60fe c73e b20f 823f
00000060: 0000 0000 0000 0000 9e37 79bd da22 c9bd
00000070: 6bfb 59be ce81 68be cc1a 903e daef 893e
00000080: dd76 ae3d 3556 4bba 0076 b2b6 5a93 483b
00000090: cc2e 463a 0000 0000 0000 0000 c1b9 4abe
000000a0: b771 a7bd 36a1 e9bc 4461 95bd 7777 4f3e
000000b0: 04a0 02bc 55f8 f5ba 2211 cc3a ddac 8fbb
000000c0: d9d7 173b e21a 7c3a 0000 0000 0000 0000
000000d0: e3b2 0fbd e273 063c e5a7 d93d 40dd 9d3d
000000e0: b3a5 6e3d fe94 dcbd 6859 fbbc f19e 95bb
000000f0: 7e19 683b 7a47 883b 2837 413a 0000 0000
00000100: 0000 0000

layers.2.spline_scaler f4 [1, 5]
-0.3309327 -0.5380028 0.3074445 0.45296583 0.30774388
00000000: 0370 a9be 8dba 09bf 5e69 9d3e 23eb e73e
00000010: 9b90 9d3e

layers.2.grid f4 [5, 17]
-0.3 -0.2 -0.1 0.0 0.1 0.2 0.3 0.4
0.5 0.6 0.7 0.8 0.90000004 1.0 1.1 1.2
1.3000001 -0.3 -0.2 -0.1 0.0 0.1 0.2 0.3
0.4 0.5 0.6 0.7 0.8 0.90000004 1.0 1.1
1.2 1.3000001 -0.3 -0.2 -0.1 0.0 0.1 0.2
0.3 0.4 0.5 0.6 0.7 0.8 0.90000004 1.0
1.1 1.2 1.3000001 -0.3 -0.2 -0.1 0.0 0.1
0.2 0.3 0.4 0.5 0.6 0.7 0.8 0.90000004
1.0 1.1 1.2 1.3000001 -0.3 -0.2 -0.1 0.0
0.1 0.2 0.3 0.4 0.5 0.6 0.7 0.8
0.90000004 1.0 1.1 1.2 1.3000001
00000000: 9a99 99be cdcc 4cbe cdcc ccbd 0000 0000
00000010: cdcc cc3d cdcc 4c3e 9a99 993e cdcc cc3e
00000020: 0000 003f 9a99 193f 3333 333f cdcc 4c3f
00000030: 6766 663f 0000 803f cdcc 8c3f 9a99 993f
00000040: 6766 a63f 9a99 99be cdcc 4cbe cdcc ccbd
00000050: 0000 0000 cdcc cc3d cdcc 4c3e 9a99 993e
00000060: cdcc cc3e 0000 003f 9a99 193f 3333 333f
00000070: cdcc 4c3f 6766 663f 0000 803f cdcc 8c3f
00000080: 9a99 993f 6766 a63f 9a99 99be cdcc 4cbe
00000090: cdcc ccbd 0000 0000 cdcc cc3d cdcc 4c3e
000000a0: 9a99 993e cdcc cc3e 0000 003f 9a99 193f
000000b0: 3333 333f cdcc 4c3f 6766 663f 0000 803f
000000c0: cdcc 8c3f 9a99 993f 6766 a63f 9a99 99be
000000d0: cdcc 4cbe cdcc ccbd 0000 0000 cdcc cc3d
000000e0: cdcc 4c3e 9a99 993e cdcc cc3e 0000 003f
000000f0: 9a99 193f 3333 333f cdcc 4c3f 6766 663f
00000100: 0000 803f cdcc 8c3f 9a99 993f 6766 a63f
00000110: 9a99 99be cdcc 4cbe cdcc ccbd 0000 0000
00000120: cdcc cc3d cdcc 4c3e 9a99 993e cdcc cc3e
00000130: 0000 003f 9a99 193f 3333 333f cdcc 4c3f
00000140: 6766 663f 0000 803f cdcc 8c3f 9a99 993f
00000150: 6766 a63f
