KINN/Plate_hole/PINNs/model/model1_mlp.pth (torch, 15138 bytes, 9 tensors)

linear1.weight f4 [30, 2]
00000000: cc51 0b3e 19d2 3bbd b361 67be a071 103f
00000010: 4387 823d 3fdd 0d3f 771a f83e 55b6 08be
00000020: 5615 363d 2c6f 6a3d 6a64 cf3e 38e8 853e
00000030: 29ea 373c 08b3 af3d 1124 bfbe c81e 93be
00000040: 57df b0be ae79 aa3f 4efd 04bf 1f3b 353e
00000050: 3b45 403e a1c6 0b3e 73f8 703e 2b2e 8f3d
00000060: 19f6 c5ba 03b0 0f3e 4392 2a3e b438 453f
00000070: be0b 013d 59b8 d4be cab9 863e 87b7 47be
00000080: e986 633e 6123 70be 1eae 60be 0ec5 8ebe
00000090: cbe4 13be 7365 99bd 7c91 18be df14 0cbf
000000a0: 7a6a debd d18d 54bd 9d2c 03be c6fb 07be
000000b0: b9f5 dcbe 77bb 123f 292f 7b3e 9507 c53d
000000c0: 929b 423e a1ef 3dbe cb28 aa3c 743c 123e
000000d0: ea05 2dbf 58bd afbb 3588 19bf 1544 c13e
000000e0: d81a fe3d 3e84 58be cbc8 c9be 58c8 b6be
0.13605422 -0.04585466 -0.22595863 0.5642338 0.063734554 0.5541572 0.4845769 -0.13350804
0.04445394 0.057234928 0.40506297 0.2615373 0.011225262 0.085790694 -0.37332204 -0.28734422
-0.34545395 1.3318384 -0.5194901 0.17698334 0.1877641 0.1364999 0.23532276 0.06991228
-0.001510325 0.14031987 0.16657357 0.7703965 0.03150534 -0.41546896 0.2631362 -0.19503604
0.22219433 -0.23450996 -0.2194142 -0.27884716 -0.14442746 -0.07490053 -0.14899248 -0.54719347
-0.108601525 -0.05189306 -0.12809987 -0.13279638 -0.43156222 0.573173 0.24529709 0.09620587
0.19004658 -0.18548442 0.020771405 0.14280874 -0.6758715 -0.0053631477 -0.5997346 0.37747255
0.12407464 -0.21144196 -0.39411005 -0.35699725

linear1.bias f4 [30]
00000000: 0be4 89bf b548 bebe 2646 d93f ca78 a33e
00000010: 5196 583f ce85 0e3f 05c2 153f 01a2 963e
00000020: 8701 26bd 7a2c 06bf 21c8 87bf 7151 a9bf
00000030: 3a66 b7be f70a c8be 87b4 8c3d 31b4 ce3f
00000040: 20f2 9a3f bce9 2cbf 0f25 86bf 3f45 0440
00000050: eb6b 933f 4879 0cbe 29f9 f4bd 39e0 fdbd
00000060: e280 c0be 35c6 9d3c 9dcb f73e 35ef 4dbf
00000070: 9b00 3040 c2ca 7c3e
-1.0772718 -0.37164846 1.6974533 0.31928092 0.84604365 0.5567292 0.58499175 0.29420474
-0.0405288 -0.52411616 -1.060795 -1.3227979 -0.3582018 -0.39070866 0.0687037 1.614874
1.2105141 -0.6754415 -1.0480059 2.0667264 1.1517309 -0.1371814 -0.11961586 -0.12396283
-0.3759833 0.019259552 0.48397532 -0.80443126 2.750037 0.24686721

linear2.weight f4 [30, 30]
00000000: 21cf a33c 6504 9fbe 8af9 323d 0794 7ebe
00000010: 4313 9cbd 2e33 253e edcc 0b3e c508 f2bd
00000020: 662a e43c c4cd 393e ca0a a7bd e26d 0f3e
00000030: 232d 6abd 39b6 cbbc cb6e f9bd 958a e53d
00000040: 4bdc 3c3e b9dc 5e3e 3ab9 03be 8567 463e
00000050: becc 95bd 9162 1dbe b597 523e 1e89 5ebe
00000060: 3506 c93d 10be 10be 4ecd 853d e0de 20bd
00000070: 6c1a 61be d2c9 eabd 3727 6ebb ebb3 30be
00000080: b50e 843d 842f f2bd 1b76 5bbe 062b 2fbe
00000090: 05a9 2a3d b39c 7fbe 5b33 cd3e c6b2 a1bd
000000a0: 3696 eabd 3fa6 a9bd 7415 20bd 0244 fbbb
000000b0: f074 63bd e17c 263e 78be 893e 9f20 c0bb
000000c0: a34e 3f3d 9773 a2be 94d0 9abd b70b 27be
000000d0: 552c 2e3d 6b15 babd 10f4 50be f38a 103e
000000e0: f837 1e3d 80be 223e 5440 64be e39b 46be
000000f0: 5eb4 1d3e 73a0 80be ba60 423e bae0 233e
00000100: ab80 823e ae6d be3d 0ba3 febd de38 50be
00000110: e387 be3c 33d0 10bf 09a1 bc3d a1d9 ad3b
00000120: 460b 12be 660d ff3e cef9 c9bd 3ffe 47bd
00000130: 9056 173e 4179 4abe 85c4 35be e7a0 0a3d
00000140: 8d5a 2fbd 27d4 923e 21eb b2bd 6520 083f
00000150: ff1c b33d 43c0 853b 0239 8abe adb3 f4be
00000160: 59e4 d23d 49d6 d6be 6f6d 1a3d 4940 5abe
00000170: 4c47 97bc adea e4bd 649c 1d3e 0b40 693d
00000180: 8d0f b63d bf55 08bf 5485 cb3d 69ca 6a3e
00000190: 1fd3 dbbd 6cb5 6dbd 3fcb 85be 5ea0 d1bd
000001a0: 3e7f 2f3e 1dcc 81be 6de6 573e e5d1 593e
000001b0: 5c93 04be 65be 70be 1e58 5f3c 669c cdbd
000001c0: d8f4 743e 1d03 9e3e f627 36bd 6009 a43d
000001d0: 061e 8bbe ea58 80be 1d41 a53d 3c4f 463e
000001e0: 78bd 16be 386e b9be 6f61 bbbd e921 f63c
000001f0: 6992 943d 6ce0 e43d 1b9c 7abe 7b83 e83c
00000200: b332 9bbe 1bcc 23bd 89cf bb3c ce11 a33d
00000210: 9818 2a3d 1eff f33c a616 b73d 35f9 cf3d
00000220: aaa8 6bbe 4067 7bbd 47f5 283e 9d8b 28bd
00000230: 68be 783e 7351 35be 645e cabe f1c3 3a3e
00000240: 5ce0 ddbd a3f1 cebe 8eab af3d 123d 89be
00000250: e94e d33b 1eec 83bd 52dd 0d3e 10b3 d1bd
00000260: d750 9bbe e780 92be c0bf c03d 3ac3 91be
00000270: 723d 0abe 8bea a03e 33fb 90be feef d23e
00000280: 5821 393d 5086 d93d fce1 42bd 263b d2be
00000290: 4fd8 e83e a4c3 6ebe 8cca 0abd 3bfd 6dbe
000002a0: 6441 b43c 54ea 6fbe 6fda ba3d 0020 d73b
000002b0: a2b6 cdbe 97bf 2f3e 9c10 743e c4d1 38be
000002c0: 6944 d73b 1524 14be 4d4e 86bd f82e 383d
000002d0: 5184 aebd ea4e 893e 4a4d febd 242d ad3a
000002e0: 2db7 30bd 56d5 41bd fa4d 8cbd 20c3 2f3e
000002f0: eca5 fe3d 43d5 463e 509c fbbe 1394 bf3e
00000300: 8872 b4bc 1e14 eebd dd3d 333e 277b d93d
00000310: e1f1 fdbe b537 11be 7628 50be 7509 b1be
00000320: 5119 72be 56ce 1fbe 3a3f 343e 6a25 91bd
00000330: 53ce 4d3e c580 19bd 89b5 573d 1f69 ec3d
00000340: 366f 833c cc0a 45be 616c 6dbd 714c 9cbe
00000350: ae1f 183f 54ca 033e 9bc3 5eba 234d b3bd
00000360: a2be c1be fdfb 213e ebfc 36bd ad16 ba3e
00000370: 9737 023e c98f d6bc 71ff 823e 90c6 9abe
00000380: 4147 8cbd 07bb 4d3e a916 49be aaea 0a3d
00000390: faa0 b23d 124b 6b3d 6d72 d0bd e083 c83c
000003a0: 4730 a93d c48a b53d e4b8 303d e39c 8b3e
000003b0: 8774 da3d ad11 b33e 6052 8e3e 25c3 853c
000003c0: f6fe 66be ea33 363e 3aec a3be dcee 24be
000003d0: 834e 8dbc 375f 8a3d 5aa4 073e b3cb 85be
000003e0: ad2f b3bd bc1b a0be 2e12 a6bd 3c11 e73c
000003f0: 8523 ad3e 0dab 0ebf 0c5c 143e ce8f 14bd
0.019996228 -0.3105804 0.04369501 -0.24861155 -0.076208614 0.16132805 0.13652392 -0.11818079
0.027852248 0.181449 -0.08156355 0.1400676 -0.057171952 -0.024867164 -0.12179335 0.11208073
0.1844341 0.21763887 -0.12863627 0.19375427 -0.07314442 -0.15369631 0.20565684 -0.21731994
0.09815637 -0.14135003 0.065332994 -0.03927505 -0.21982735 -0.114642754 -0.0036339292 -0.17256133
0.06448118 -0.11825469 -0.21431772 -0.17106256 0.041665096 -0.2496212 0.40078244 -0.078954265
-0.11454432 -0.08283662 -0.03908296 -0.0076680193 -0.055531442 0.16258575 0.2690313 -0.0058632637
0.046705853 -0.31728813 -0.07559314 -0.16313063 0.042522747 -0.090861164 -0.20405602 0.14115505
0.038627595 0.15892982 -0.22290164 -0.19395404 0.15400836 -0.25122413 0.18982211 0.16003695
0.2548879 0.092982635 -0.12433442 -0.20334193 0.023258155 -0.56567687 0.092104025 0.0053054844
-0.14262113 0.4981491 -0.098620996 -0.048826452 0.14779115 -0.19772817 -0.17750748 0.033844855
-0.042810965 0.28677484 -0.087362535 0.5317443 0.08745765 0.0040817573 -0.26996619 -0.47793332
0.1029746 -0.41960362 0.03770202 -0.21313585 -0.018466614 -0.11177573 0.1539169 0.05694584
0.08889685 -0.5325584 0.0993754 0.22928776 -0.107336275 -0.058034346 -0.26131627 -0.10235666
0.17138383 -0.2535104 0.21083994 0.21271475 -0.12946838 -0.2351013 0.013631849 -0.10039596
0.23921525 0.3086175 -0.044471703 0.08009601 -0.27171344 -0.25067836 0.0806906 0.19366163
-0.14720714 -0.36216903 -0.09149443 0.030045466 0.07254488 0.111756176 -0.24473612 0.028383007
-0.30312118 -0.039989572 0.022926109 0.0796238 0.04152736 0.029784735 0.08939867 0.10154954
-0.23013559 -0.061377764 0.16499816 -0.04114877 0.24291384 -0.17706852 -0.3952514 0.18238808
-0.10833809 -0.4041873 0.08577643 -0.26804405 0.006448616 -0.0644152 0.13853958 -0.102392316
-0.30335113 -0.2861397 0.094115734 -0.2846926 -0.13500002 0.31428942 -0.2831665 0.41198725
0.045197815 0.10621321 -0.047578797 -0.41060752 0.4547753 -0.23316818 -0.03388457 -0.23241131
0.022003837 -0.23429233 0.09123694 0.006565094 -0.401784 0.1716293 0.23834461 -0.18048769
0.0065694344 -0.14466889 -0.065579034 0.044966668 -0.08521331 0.2681802 -0.124170855 0.0013212305
-0.04314344 -0.047322594 -0.0685081 0.17164278 0.12433991 0.1941729 -0.49142694 0.3741766
-0.022027269 -0.11624931 0.17504068 0.106191926 -0.495986 -0.14181407 -0.20327935 -0.34577528
-0.2364247 -0.15606055 0.17602244 -0.07087214 0.20098238 -0.03747632 0.05266336 0.11543488
0.01604424 -0.192424 -0.057964686 -0.3052707 0.5942334 0.12870151 -0.00084977754 -0.08754947
-0.37840754 0.15818782 -0.044674795 0.36345425 0.12716518 -0.026191609 0.2558551 -0.30229616
-0.06849528 0.20090877 -0.1963755 0.0339152 0.0872211 0.05744464 -0.10178075 0.024476945
0.08261161 0.08864358 0.043145075 0.27268133 0.10666757 0.34974423 0.27797222 0.016328404
-0.22558197 0.17793241 -0.32016164 -0.16106743 -0.017249351 0.06756442 0.13246289 -0.26131973
-0.08749328 -0.3127116 -0.08108936 0.02820646 0.33816162 -0.5572975 0.14488238 -0.036269955

linear2.bias f4 [30]
00000000: a685 98bf aba5 01c0 f0a8 8abe 1d81 903e
00000010: 6441 15be 6392 9d3f 27f4 ab3f d636 64bf
00000020: f35e 003e 6f97 e63f 7d3b 6f3d 05f5 04bf
00000030: a661 89bf 8bc2 babe 19ea 6a3e 77df 89be
00000040: d04d 80be 6d70 063f 9ac1 a53e b60d 2a3e
00000050: bb77 973e 8fce eb3d f192 743f b5f1 c3bd
00000060: ac5a 55bf 458b ad3f 2347 7fbf 75ed 9b3f
00000070: 6db0 1abe 8bc6 d5bf
-1.1915786 -2.0257366 -0.27082014 0.28223506 -0.14575726 1.2310299 1.3433884 -0.89146173
0.1253622 1.8014964 0.05840634 -0.5193637 -1.0732925 -0.3647655 0.22940864 -0.26928303
-0.25059366 0.525153 0.3237427 0.16606793 0.29583535 0.11514007 0.95536715 -0.09567586
-0.8334148 1.3558127 -0.9971792 1.2181841 -0.15106364 -1.6701216

linear3.weight f4 [30, 30]
00000000: 2b2a 8b3d 2f5c 07be e3b2 9c3e 78e4 7cbe
00000010: 7318 2bbe d98f dd3d f8b1 733e 6fd5 31bd
00000020: a79b 0cbe 1358 41be d2fb 4bbe 09eb 80be
00000030: 38d7 3fbe 2a21 ff3d ee4f 51be 6085 193e
00000040: ce27 953d c932 563e 1082 61be feca fabc
00000050: e6d6 d13d 3ebd 5abe 9f38 e63d fdcf b5bd
00000060: 88d9 9dbd c641 88be 46c5 8b3d 6ff4 4d3d
00000070: c5c6 04bd 0b68 4ebd 151c c93d b339 6e3c
00000080: 9e76 143d 3264 a7bd 8931 943c 2820 98be
00000090: 2856 bb3d 32c4 333e e3cc 0dbe 13e1 533d
000000a0: a88c 333d 8805 043e b74e b63e a3ca cc3e
000000b0: efb9 863b aef1 8ebe bc7f d23d 29fa 61bd
000000c0: 524a 5dbe cc02 283c 670c 97bd b3ad 14bc
000000d0: 712f edbd f115 993d 86b8 f6bd 0eaf 1fbe
000000e0: f0ac 993b 1b95 4a3e 09de 94bd 0337 1f3e
000000f0: cd40 65be 1e1d 9b3e 31cd 17be 87b7 50be
00000100: 4188 7b3e d6d4 55bd e9ef f13b a57f 39be
00000110: ed34 86bd 6b8c 25be 2ed8 37be bd75 033f
00000120: dbda 3bbd 2a21 823d 3bfa c03c e450 293e
00000130: 2b2c bd3c 4741 33bd cb4c c4be b1eb 203e
00000140: 1179 e7be 7ea0 39be 5c26 823e b42b f0bd
00000150: 3665 aa3d 5f4d 16bd 6a21 10bd 08de 2bbe
00000160: 0d5c 00be 6467 5d3d 706d 863d 675d f73d
00000170: 4190 13be f55f eb3c 26e1 e83e 634b 94be
00000180: 094d 37be f15d ca3e a776 51be df7a 183e
00000190: a288 ae3d 48ec 513e 1f1e cc3e 2da8 313e
000001a0: b446 fcbe 2054 023e 2333 073f 3ee1 e8bd
000001b0: 0177 0b3f 0df0 2e3d 3669 80bf 3976 c53d
000001c0: f5f1 6dbd bf63 ee3d f697 0d3f 165a 2fbd
000001d0: efe5 cf3e 654a c5be 50bb 92bd 3405 623e
000001e0: f8d9 943a a6ba 3b3e 97b2 b83e 8d0d d03d
000001f0: dd88 493f 9435 e5bd 9745 733d 60c9 9fbe
00000200: ff03 d83d deaa b43e 15e7 c53d 92a8 8bbd
00000210: 6177 8f3b 86d2 583d 27ad 2ebe ac01 c4bb
00000220: a7f3 40be 1e52 2dbe baf0 0f3e cbe6 9bbe
00000230: 2b1c 20bf 27d1 6dbe 09be d43e fddd 74bd
00000240: a5e3 b23e 52a4 2dbe 22ca 1e3e 0e60 05bd
00000250: e5f5 313e df8a fc3d 7beb bb3d e268 073e
00000260: 5c5e 1b3e 113a 86be 9be2 323e f081 713d
00000270: 62ec 343e fc5a 20be abb8 993d 738c a23d
00000280: 52a7 febd 2a1b 253e bab6 88bd 97aa 58be
00000290: 2b1b 8abe 6fc7 643d 20c6 93bd 9668 f23d
000002a0: dc30 143e 6dc7 36be faa0 1abd af82 b3be
000002b0: 5cbe 4e3e 5e7d 59bd d972 403e 9d79 e2bc
000002c0: 62a7 be3d 32fd 6d3e 9b5d 85bc 0d34 3bbe
000002d0: a08c 523d 8fd1 01be e858 193e a60e e7bd
000002e0: bfd6 ebbe 602b f4be cb23 5b3e e17d 613e
000002f0: 3247 c7be 1400 debd 3677 0cbd 9ee4 c5be
00000300: b90a 2b3e d67b 33be 3f0c 813e f678 27be
00000310: 9b12 bb3d 2124 713e 6c38 56be 114a cd3c
00000320: 020f 64be 2a31 48be b1ac d83c cb27 d4bd
00000330: cacc c03e 72fb 44be 4e84 95bd b4dd 29bd
00000340: fb1f 5b3e 9df3 17bc ca59 373e bf1c 21be
00000350: f59c 3abd 9075 8a3e ee21 f93c 740b 1d3e
00000360: 21e7 5dbd bf9a 4cbc 604d 2f3e f4fb f2bd
00000370: 0a39 98be 82c3 243e b297 be3d 6898 193e
00000380: dc39 e5bd 7ab6 6d3e 3191 1f3e 177c 1cbc
00000390: e650 87be 4cda 3fbe 3e1b 1bbe 1e74 33bc
000003a0: 16e4 e2bd ea9a 52be bb6a 983c 05c9 ff3d
000003b0: 9f6c 58bc af7d 2ebe 0180 28be 8e4c 333d
000003c0: d7fc 89be 3137 0abe c68c 75be 3227 e0bc
000003d0: 9e0e a5be 870a 9abe 58f7 eabd 1cc2 0c3e
000003e0: 71be b7bd da20 9bbe 04ca 1cbe 05d7 0b3e
000003f0: c641 59be fc64 323e f73c 263d 5ac7 d3bd
0.06795152 -0.13218759 0.3060523 -0.24696529 -0.16708545 0.108184524 0.23798358 -0.043416437
-0.13731252 -0.18881254 -0.1992028 -0.25179318 -0.18734443 0.124574974 -0.20440647 0.14992285
0.07282983 0.2091781 -0.22022271 -0.030614372 0.10246067 -0.21361253 0.11241268 -0.08877561
-0.077075064 -0.2661268 0.06824736 0.05028194 -0.032416124 -0.05039219 0.09819809 0.014540124
0.036245935 -0.081734076 0.018090026 -0.29712033 0.091472924 0.17555311 -0.1384769 0.05172832
0.043835312 0.12892735 0.3560693 0.3999835 0.0041115205 -0.27918762 0.1027827 -0.055170212
-0.21610382 0.010254573 -0.073754124 -0.009074616 -0.11581314 0.07474888 -0.12046914 -0.15594122
0.004689805 0.19783442 -0.07268912 0.15548329 -0.22388001 0.30295652 -0.14824368 -0.2038251
0.24563695 -0.05220493 0.007383336 -0.18115099 -0.065530635 -0.16166846 -0.1795356 0.5135153
-0.045863014 0.06353982 0.02355682 0.16534764 0.02309235 -0.043763425 -0.38339838 0.15714909
-0.45209554 -0.18127629 0.2541989 -0.11727086 0.08320086 -0.03669488 -0.035188116 -0.16783917
-0.12535115 0.05405368 0.06563842 0.12078362 -0.14410497 0.02873228 0.45484275 -0.28963766
-0.1790048 0.39524797 -0.20455419 0.14890622 0.085221544 0.2050029 0.3986673 0.1734931
-0.49272692 0.12727404 0.52812403 -0.113710865 0.5447846 0.0427094 -1.0032108 0.0964169
-0.058092076 0.11640119 0.5531 -0.042810522 0.40605113 -0.3853332 -0.07164633 0.22072297
0.0011356464 0.1833292 0.36073753 0.101588346 0.7872446 -0.1119186 0.059392538 -0.31208324
0.10547637 0.3528661 0.09663216 -0.068192616 0.0043782447 0.052935146 -0.1705824 -0.0059816446
-0.18842946 -0.16925856 0.14056674 -0.3044952 -0.6254298 -0.23224317 0.41551235 -0.059782017
0.34939304 -0.16957214 0.15506795 -0.032562308 0.17378958 0.12331175 0.09175774 0.13223603
0.15172714 -0.26216176 0.17469256 0.05896181 0.17668298 -0.15659708 0.07505926 0.07936945
-0.124342576 0.16123644 -0.06675477 -0.21158825 -0.26973853 0.055854257 -0.07215524 0.118363544
0.14471763 -0.17849512 -0.037751175 -0.3506064 0.20189804 -0.053098075 0.18793811 -0.02764588
0.093092695 0.23241118 -0.016279986 -0.18281575 0.05140364 -0.12677597 0.14975321 -0.11282091
-0.46062276 -0.47689342 0.21400373 0.22020675 -0.38921505 -0.10839859 -0.034293376 -0.38650984
0.16703309 -0.17527708 0.25204656 -0.16354737 0.09134408 0.23548938 -0.2091996 0.025059732
-0.2227135 -0.19550005 0.026449533 -0.103591524 0.37656242 -0.19236544 -0.07300626 -0.0414712
0.21398918 -0.0092743905 0.17905346 -0.15733622 -0.045559842 0.27042818 0.030411687 0.153364
-0.0541755 -0.012488066 0.1711936 -0.118644625 -0.29731017 0.16090205 0.09306277 0.14999545
-0.111926764 0.2321414 0.1558273 -0.00955107 -0.26428908 -0.18735617 -0.15147111 -0.010952977
-0.1107866 -0.20566908 0.01860558 0.12489513 -0.013209491 -0.17040132 -0.1645508 0.04377418
-0.26950714 -0.13497616 -0.23979482 -0.02736244 -0.32237715 -0.30086157 -0.11472958 0.13745922
-0.08971871 -0.302985 -0.15311438 0.13656242 -0.21216497 0.17421335 0.040585484 -0.10340758

linear3.bias f4 [30]
00000000: aaf4 213e 4880 68bf 6630 ff3e a9c7 a33f
00000010: 5429 d93d c553 cc3e 84a2 cc3e a8c9 2f3f
00000020: ebb8 a7be 17ab ddbf 73f6 00bf b7d6 a2bf
00000030: 415a b4bf efde fcbe 4ab8 cd3f 4ec8 2f3e
00000040: 0a78 4440 b7aa 2ebf be30 243e b3bf ee3e
00000050: f93e 743e 5aa2 98bf 847a 35bf 41ee 8d3f
00000060: 5ffe b6be 47eb 553f 5609 313e 5101 c9be
00000070: 6b5b c13e ce19 c8be
0.15815988 -0.9082074 0.49841613 1.2795306 0.10603586 0.3990766 0.3996774 0.6866708
-0.3275827 -1.7317837 -0.5037605 -1.2721776 -1.4090043 -0.49388835 1.6071866 0.17166254
3.0698266 -0.6822924 0.16034219 0.4663063 0.23852147 -1.1924546 -0.7089007 1.1088334
-0.35740945 0.8356213 0.17288718 -0.39258817 0.3776506 -0.39082187

linear4.weight f4 [30, 30]
00000000: 0f47 d53d 5f18 81be 8b77 0bbe 2d72 a73d
00000010: 49f4 1f3e 5a2b 573d 9fd4 c8be 60cc 113d
00000020: 6d5c c5be a563 bb3c 9d7d 6f3e 39eb 4b3e
00000030: e163 a6be 0698 ef3e 3c5f 323e 503f d43e
00000040: 7288 16bc 2541 05be 0f4c 76bd 93a9 3a3e
00000050: ba0f 0dbd 6724 16bd 0a2d 09be 10d4 343f
00000060: 599a 533f 65db 703e 9824 c5be c938 9cbe
00000070: 78d7 283e 3940 3d3d 18fe 863d d914 893e
00000080: d145 c9bd 9be8 98be 6be8 213c d361 e33d
00000090: 9962 10be 17bd 3abe a70e 5c3d 0846 f3bd
000000a0: 6d4a 5a3e c3b9 8cbc 880d a2bd 58fc 763d
000000b0: 1d9d a13d 2d6a 39bd 946d 853e 9b5b 0a3d
000000c0: c709 f7bd 8633 d33e 08f9 163e fe25 8ebe
000000d0: 0785 8cbe 889c 243e c7fd c8bc bc12 50bd
000000e0: c43f d6be a9ff 893e f2c0 153e 16c9 383d
000000f0: b21e 1c3d d85b 93bc 082c 83be 1696 903d
00000100: 0641 7cbd f5f2 253e 841f 3d3d 09b8 2dbe
00000110: 0ac9 e73c 1251 2fbd ce38 b4bd b02a f73c
00000120: 7c6d bbbd bf5d 7b3c f850 1b3d 9be3 91bd
00000130: 4db4 8a3d 7fd2 383e 6bf4 0f3d ddb2 fe3d
00000140: f2ce 84bc fc3f 1ebe 9cfd 73bc 8594 3e3e
00000150: f989 ac3e 8ad5 e9bb 6bd1 cbbd 2815 e53e
00000160: d49e d8be b7f9 00bd 370e 603d dfa4 afbd
00000170: 36ee 013e cdcd 93bd db98 e03d 4987 23bd
00000180: 2065 d53d ee47 17be 1056 86be 47ff 92bd
00000190: 91be 16be beb3 253c 6563 163d 9ab6 813e
000001a0: 85b3 2b3e 0663 5abb 47ab 72bd 5578 acbc
000001b0: a066 663e d7b8 4e3d fbfc 763d b4ce 1ebe
000001c0: 6512 4e3e 2bcf a13d 81c5 5dbd 98b3 c33e
000001d0: 06cb 0b3d c1c3 853d 5d93 aa3d 1374 3f3c
000001e0: 4485 2cbe ffdf a13d d5e6 093d 5ac2 613e
000001f0: 0aa7 18be 9f1e 6cbd 0482 843e 8f67 e8be
00000200: ffba b5bd 3d7c 23bd 70b8 38bd f708 bfbc
00000210: 14e6 c13e 1314 903e 212a e23d 9380 8d3d
00000220: ab06 073e fb04 b4bd 1697 18be c5cb b5be
00000230: 3c21 833e ad28 f1bd 920c b03d 3784 ac3d
00000240: 4b72 6dbe e3cb e73d 0646 3e3e bbcd a9bc
00000250: 1d43 e3bc ad46 48be 4fcf 8b3d f7a6 383d
00000260: 71f4 8c3d bd3e e03c e1a8 52ba 2bc0 1d3e
00000270: d470 afbd dbf5 e83c e9b5 133e bc8f 2b3d
00000280: fc66 a4bd a925 4b3e 9748 163e 896c 27be
00000290: c7c9 d73e 4afe 4fbe 3a92 83be 683d 8abe
000002a0: 9b00 d0bc e614 eebd 3c07 10bd 0208 893e
000002b0: dc3f e1bc d3dd 31be 5692 25be 743d a1bb
000002c0: ae3d 033d d595 a9bd d94e b43d 6f15 06be
000002d0: e8bb bbbd 4367 94be 2e1d f73d 0e00 303e
000002e0: 13dd 08bd a76d 613d 6c4e 673d 8401 983e
000002f0: 93d6 3c3e 21e3 2d3d f537 c53e 742d 95be
00000300: 75d9 843d d596 44be acd1 b9bc b540 8dbe
00000310: 8427 3dbd 8d69 0d3d 6fbb e6bd 2711 bfbd
00000320: 2408 32be 9246 d1bd 6cb2 0fbe cfa5 e43d
00000330: e84f 9e3e 80d5 453d 345d 21be 4101 243e
00000340: 5054 a5bd c6d0 193e 07fa acbe e87e 76be
00000350: d51d 50be 50c3 bd3d 1c74 90bc 1994 dc3d
00000360: 5385 2c3e eacc 353e b42d ddbb 1692 25be
00000370: a963 423d 4d96 3bbd 36c8 34bd fb86 88bd
00000380: 6658 56be 5aff 043d 5782 3a3d 7036 0e3d
00000390: 2ffa 1ebe b9a7 f0bd 1518 9f3d baa6 80be
000003a0: 495c a5be f16f 293e eef2 823d ee3a 8abe
000003b0: 97f4 74bd 55ec 483d ca49 00be 49e6 a73e
000003c0: 5351 8d3d 0f9c b53d c0a1 323c 0b9a 37bd
000003d0: b0e2 9dbb e964 a63d c7ce b6bd 30db 22be
000003e0: 1b13 ba3d 2116 233e 2e41 a23d 7dc9 ff3d
000003f0: 07e5 e5bc 4f47 9abe d348 86bb d159 563e
0.10413944 -0.25213906 -0.13619821 0.08176074 0.15620531 0.052531578 -0.39224717 0.035595298
-0.38547078 0.022874663 0.23387761 0.19913949 -0.32498077 0.46795672 0.17419142 0.41454554
-0.009187805 -0.13013132 -0.06013113 0.1822875 -0.034438826 -0.03665581 -0.13396087 0.7063608
0.8265739 0.23521192 -0.3850448 -0.30512074 0.16488445 0.046203826 0.06591433 0.26773718
-0.098277695 -0.29864964 0.009882073 0.11102643 -0.14100112 -0.18236195 0.05372491 -0.11878592
0.21317454 -0.017178422 -0.07912737 0.060299248 0.07891295 -0.045267273 0.26060164 0.033778768
-0.12062412 0.41250247 0.14743435 -0.2776336 -0.27445242 0.16075337 -0.024535073 -0.050799116
-0.41845524 0.26952866 0.14624384 0.045113645 0.03811521 -0.01798813 -0.2561953 0.070598766
-0.06158545 0.16205962 0.046172634 -0.16964735 0.028294105 -0.042801924 -0.08799897 0.030171722
-0.09151742 0.015342175 0.037919015 -0.071234904 0.06772671 0.18049048 0.035145205 0.12436459
-0.01621196 -0.15454096 -0.014892008 0.18611343 0.33699015 -0.0071360515 -0.09952053 0.44742703
-0.42308676 -0.031488147 0.054701056 -0.085763685 0.12688527 -0.07216988 0.10966655 -0.03992394
0.10419679 -0.14773533 -0.26237535 -0.071775965 -0.14721133 0.010113655 0.036715884 0.25334626
0.167677 -0.0033323183 -0.059245374 -0.021053473 0.22500086 0.050469246 0.060299855 -0.15508538
0.20124204 0.07900842 -0.054143433 0.38222957 0.034129165 0.06531478 0.083288886 0.011685389
-0.16847712 0.07904052 0.033667404 0.22046795 -0.1490747 -0.05764639 0.25880444 -0.4539151
-0.08873557 -0.039913405 -0.04509777 -0.023319704 0.37870848 0.28140315 0.11043192 0.06909289
0.13186137 -0.087900124 -0.14901385 -0.35507026 0.25611293 -0.117753364 0.085961476 0.084236555
-0.2318813 0.11318185 0.185814 -0.020727983 -0.027741963 -0.1955821 0.0682665 0.045081105
0.06882561 0.027373666 -0.0008036029 0.15405338 -0.08566442 0.028437546 0.14424862 0.041885123
-0.08027455 0.19838585 0.14676128 -0.16349997 0.4214613 -0.20311847 -0.256975 -0.26999974
-0.025390914 -0.1162508 -0.03516315 0.26763922 -0.02749627 -0.17369775 -0.16169104 -0.004920656
0.032041244 -0.08280531 0.088041015 -0.13094114 -0.091667 -0.28985032 0.120661125 0.17187521
-0.033413958 0.055036213 0.056471273 0.29688656 0.18441229 0.042452935 0.38519254 -0.2913624
0.06486789 -0.19198163 -0.022682987 -0.2758843 -0.046180263 0.03452449 -0.11266219 -0.093294434
-0.17385918 -0.10218538 -0.14032906 0.11164438 0.3092034 0.048299313 -0.1575821 0.16016103
-0.08072722 0.15021047 -0.33784506 -0.24071848 -0.2032388 0.092657685 -0.01763349 0.10770435
0.16847734 0.1775395 -0.006749833 -0.16169009 0.047458325 -0.045797635 -0.04413625 -0.066663705
-0.20932159 0.032470085 0.045534458 0.034719884 -0.15525125 -0.117507406 0.07768265 -0.25127202
-0.3229697 0.16546609 0.063939914 -0.26998085 -0.05980357 0.04905351 -0.12528148 0.3279288
0.06900277 0.088676564 0.010902822 -0.04482464 -0.004818283 0.08124716 -0.089261584 -0.15903926
0.09085675 0.1592641 0.07922588 0.12489603 -0.02806331 -0.3013253 -0.004098037 0.209327

linear4.bias f4 [30]
00000000: 9102 8fbf 961b b9be 136b 99be 1101 aa3e
00000010: 43f6 0bc0 1f8d 50bf 08e7 ea3f e645 52bd
00000020: 82d9 3dbe e535 143a 0389 373f e9e2 3d3f
00000030: 84f7 fe3c 5a21 853f d865 953f 44ff 9ebf
00000040: 81df c93e 5420 233d 608d 32bf 3670 8fbf
00000050: 357e a7bf f2fc a53e 528d 76bf a200 343e
00000060: 4087 45be b789 ee3e 94e0 8fbf ab2f 013f
00000070: 7b81 5c3f b8e1 b23e
-1.1172658 -0.3615386 -0.29964504 0.3320394 -2.1869056 -0.81465334 1.8351755 -0.05133619
-0.18540004 0.0005653783 0.7169344 0.7417436 0.031123884 1.0400803 1.1671705 -1.2421651
0.39428332 0.039825752 -0.6974697 -1.1206119 -1.308539 0.32419544 -0.9630939 0.17578366
-0.19289875 0.46589443 -1.1240411 0.5046336 0.8613507 0.34937835

linear5.weight f4 [1, 30]
00000000: eb57 553e 2b0b 5a3e 1d03 b3be 5b9c 043f
00000010: 167c 633e 1bfc 2fbe 7fb8 bb3c 4bff 343e
00000020: 8cb7 2e3e cef9 babd fbb0 fbbd 1acc 47be
00000030: 348e 2d3e 2f4d 6dbe c262 6ebe 875e 93be
00000040: 769f 7dbe 960f 82be 0472 6c3d 07d5 8abe
00000050: 0366 80be 4136 02bd 48dd 033f cd13 20be
00000060: 3d4a c13d 0087 823e 0d07 0c3f fd34 493e
00000070: 847c 7abe 883e abbe
0.2083432 0.21293323 -0.34963313 0.5180108 0.22215304 -0.17186014 0.022915123 0.17675512
0.17062205 -0.09129678 -0.12289616 -0.19511452 0.16948777 -0.23173974 -0.2327986 -0.28783056
-0.24767861 -0.25402516 0.05772592 -0.27115652 -0.2507783 -0.03179002 0.51509523 -0.15632553
0.09437988 0.25493622 0.5469826 0.1964912 -0.24461561 -0.33446145
