KINN/Plate_hole/PINNs/model/model1_kan.pth (torch, 7522 bytes, 12 tensors)

layers.0.base_weight f4 [5, 2]
0	0xbd861f92	-0.0654899
1	0x3e99825f	0.29982278
2	0x3f090656	0.5352529
3	0xbf17587f	-0.5911941
4	0xbeb91e5b	-0.36155972
5	0xbce1637e	-0.027513262
6	0xbee23cdf	-0.44187066
7	0x3e73d367	0.23811112
8	0xbda6573c	-0.081221074
9	0x3ea29762	0.3175612

layers.0.spline_weight f4 [5, 2, 13]
0	0xbf0ec280	-0.55765533
1	0xbe8ba1af	-0.27271792
2	0xbe0ea75c	-0.1393103
3	0xbd78c541	-0.06073499
4	0xbdca98c7	-0.09892421
5	0xbde5b878	-0.11216825
6	0xbddf3bd7	-0.109000854
7	0xbe06842e	-0.1313636
8	0xbe2424e1	-0.16029693
9	0xbe06c401	-0.13160707
10	0xbe225535	-0.15852816
11	0xbd814ef0	-0.06313884
12	0x3da76c78	0.08174986
13	0x3b783ea4	0.0037879134
14	0xbcf11cff	-0.029432772
15	0x3c7d2908	0.015451677
16	0x3dd01aa7	0.101613335
17	0x3db55ec6	0.08855967
18	0x3de798e3	0.11308458
19	0x3e0b1068	0.13580477
20	0x3e27e953	0.163976
21	0x3e3e17b0	0.18563724
22	0x3e4e5dab	0.20152919
23	0x3e584199	0.21118774
24	0x3e652580	0.22377586
25	0x3e85e964	0.26154625
26	0x3e8def69	0.27721718
27	0x3e076674	0.13222677
28	0x3b0d29f1	0.0021539892
29	0x3aed2e5b	0.001809548
30	0x3c82749a	0.01592474
31	0x3d5f5c8e	0.054531626
32	0x3dc998a6	0.098435685
33	0x3df97525	0.12180547
34	0x3dfd035b	0.12354156
35	0x3deaf801	0.11473084
36	0x3df1f430	0.11814153
37	0x3df286a1	0.11842085
38	0x3d9e05c5	0.07715944
39	0x3e8e1a9e	0.27754682
40	0x3e6fce92	0.23418644
41	0x3e57b7db	0.21066229
42	0x3e31fbad	0.17381163
43	0x3e10388d	0.14084072
44	0x3dffd000	0.12490845
45	0x3dcf1463	0.1011131
46	0x3da0caf6	0.07851212
47	0x3d3fba95	0.046808798
48	0x3b25baa1	0.0025288241
49	0xbd343a3b	-0.044000845
50	0xbdb43a4c	-0.08800182
51	0xbe230397	-0.15919338
52	0x3ee42ad9	0.4456394
53	0x3e73d714	0.23812515
54	0x3e1e208e	0.15442106
55	0x3e1dbb2f	0.15403436
56	0x3dffc2ef	0.124883525
57	0x3dee1f40	0.11627054
58	0x3df8bf6e	0.12145887
59	0x3df8f2a5	0.12155656
60	0x3dfef5af	0.12449204
61	0x3de4ffa3	0.11181571
62	0x3dd93e1c	0.106075495
63	0x3dc36485	0.09540657
64	0x3e1229b7	0.14273725
65	0xbc54a8d3	-0.012979704
66	0x3cbe0cfa	0.023199547
67	0xbd1ddd1a	-0.038540937
68	0x3d8f9698	0.07011145
69	0x3def4809	0.116836615
70	0x3e19a00e	0.15002462
71	0x3e331c4e	0.17491266
72	0x3e493c06	0.19651803
73	0x3e5aa27f	0.2135105
74	0x3e6bf5ef	0.23043035
75	0x3e8073fb	0.25088486
76	0x3e8c0f05	0.2735521
77	0x3e990950	0.29889917
78	0xbe9cf2da	-0.3065403
79	0xbe802e9b	-0.25035557
80	0xbde55a8b	-0.1119891
81	0xbe061e7b	-0.13097565
82	0xbe1944e8	-0.14967692
83	0xbdb488bc	-0.088151425
84	0xbd52f07b	-0.05149887
85	0xbd2418f1	-0.04006285
86	0xbcd90b3e	-0.026494619
87	0x3cbdb71e	0.023158606
88	0x3d6fd0c3	0.0585487
89	0x3e4fd888	0.20297444
90	0x3e5e12b3	0.2168682
91	0xbd70d030	-0.058792293
92	0xbe33fe3a	-0.17577448
93	0xbe0bf8bc	-0.13669103
94	0xbc59d850	-0.013296202
95	0x3d146e00	0.036237717
96	0x3d7883e8	0.06067267
97	0x3d8be5a7	0.06830912
98	0x3db007c2	0.0859523
99	0x3db8f00c	0.0903016
100	0x3da7dfd4	0.08196989
101	0x3d998d8c	0.07497701
102	0x3d8febe1	0.07027412
103	0x3d4fcab4	0.050730422
104	0xbe8dddda	-0.27708322
105	0xbe5242b9	-0.20533265
106	0xbacd5c47	-0.001566776
107	0xbd08a417	-0.033359613
108	0xbcb2890b	-0.021793863
109	0xbd970906	-0.07374768
110	0xbd7e8d33	-0.062146377
111	0xbc86808e	-0.016418722
112	0x3d2d9ac3	0.04238392
113	0x3db51494	0.088418156
114	0x3ddee8af	0.108842246
115	0x3e0ebcf6	0.1393927
116	0x3e1dd3b1	0.15412785
117	0x3d26ffd5	0.040771324
118	0xbb39a732	-0.0028328416
119	0x3d364714	0.04450138
120	0xbcd8ed61	-0.026480379
121	0xbd92fb6b	-0.071768604
122	0xbd68aee3	-0.05680741
123	0xbd09892a	-0.033578075
124	0xbcf83d4e	-0.03030267
125	0xbcd62058	-0.02613847
126	0xbce69cad	-0.02815088
127	0xbd310691	-0.043219153
128	0xbd45fdf3	-0.048337888
129	0xbd3807af	-0.044929203

layers.0.spline_scaler f4 [5, 2]
0	0x3f2d2053	0.6762745
1	0xbf6871d8	-0.9079871
2	0xbf2b48a2	-0.66907704
3	0xbf3876d6	-0.7205633
4	0x3f368cd2	0.71308625
5	0x3f104ac8	0.5636411
6	0xbef4aa74	-0.47786295
7	0x3f166626	0.58749616
8	0xbf0eb52f	-0.55745214
9	0x3ec6b55d	0.38810244

layers.0.grid f4 [2, 17]
0	0xbe99999a	-0.3
1	0xbe4ccccd	-0.2
2	0xbdcccccd	-0.1
3	0x00000000	0.0
4	0x3dcccccd	0.1
5	0x3e4ccccd	0.2
6	0x3e99999a	0.3
7	0x3ecccccd	0.4
8	0x3f000000	0.5
9	0x3f19999a	0.6
10	0x3f333333	0.7
11	0x3f4ccccd	0.8
12	0x3f666667	0.90000004
13	0x3f800000	1.0
14	0x3f8ccccd	1.1
15	0x3f99999a	1.2
16	0x3fa66667	1.3000001
17	0xbe99999a	-0.3
18	0xbe4ccccd	-0.2
19	0xbdcccccd	-0.1
20	0x00000000	0.0
21	0x3dcccccd	0.1
22	0x3e4ccccd	0.2
23	0x3e99999a	0.3
24	0x3ecccccd	0.4
25	0x3f000000	0.5
26	0x3f19999a	0.6
27	0x3f333333	0.7
28	0x3f4ccccd	0.8
29	0x3f666667	0.90000004
30	0x3f800000	1.0
31	0x3f8ccccd	1.1
32	0x3f99999a	1.2
33	0x3fa66667	1.3000001

layers.1.base_weight f4 [5, 5]
0	0x3e0f0e83	0.1397038
1	0x3d535b16	0.05160054
2	0xbe74e1ca	-0.23914257
3	0x3edffd42	0.43747908
4	0x3e536658	0.2064451
5	0xbe45913b	-0.19293682
6	0x3e8a772d	0.2704405
7	0xbe066f1e	-0.13128325
8	0x3eb65af6	0.35616273
9	0x3eb15865	0.34637752
10	0xbe9206c3	-0.28520784
11	0xbeb54a9e	-0.3540849
12	0xbdef11c8	-0.116733134
13	0xbec5a219	-0.38600233
14	0xbeec18c4	-0.46112645
15	0xbe23357d	-0.15938373
16	0xbe286754	-0.16445667
17	0xbda46d76	-0.080286905
18	0x3e835171	0.25648072
19	0x3e9121f9	0.28346232
20	0xbd2e2738	-0.04251787
21	0xbdfb0604	-0.12257007
22	0x3e368c33	0.1782692
23	0x3a84d9c8	0.0010135705
24	0x3cc7f140	0.02440703

layers.1.spline_weight f4 [5, 5, 13]
0	0xbd77f943	-0.06054045
1	0x3d0f140f	0.03493124
2	0x3d871487	0.06595712
3	0x3da85b41	0.0822053
4	0x3d78e1f8	0.060762376
5	0x3d41162e	0.047140293
6	0x3c34a625	0.01102594
7	0x3bb66a0a	0.00556684
8	0x3b52b522	0.003215142
9	0x3b250f47	0.0025186108
10	0x3a1de234	0.00060227816
11	0x00000000	0.0
12	0x00000000	0.0
13	0x3d64d20b	0.055864375
14	0xbceb9045	-0.028755317
15	0xbddb168f	-0.10697662
16	0xbd53ced2	-0.05171091
17	0xbd6815e3	-0.056661498
18	0xbdadaf53	-0.08480706
19	0xbdbc22c5	-0.09186319
20	0xbda71943	-0.08159115
21	0xbbf9fcdf	-0.0076290215
22	0x3b579f7e	0.0032901461
23	0x3a96a691	0.0011493732
24	0x00000000	0.0
25	0x00000000	0.0
26	0xbcdc13dc	-0.026864938
27	0x3cf47992	0.029843125
28	0x3ddb9b67	0.10723
29	0x3ebd511a	0.36975938
30	0x3edb2b39	0.42806414
31	0xbd933e41	-0.07189608
32	0xbc53772f	-0.012906834
33	0x3b6e2726	0.0036339252
34	0x39049b70	0.00012646406
35	0x3a1dcec7	0.0006019887
36	0x3991e6bd	0.0002782847
37	0x00000000	0.0
38	0x00000000	0.0
39	0xbd48ca54	-0.04902108
40	0xbc824230	-0.015900701
41	0x3daaf5f0	0.0834769
42	0x3dd857c1	0.10563613
43	0x3e491d23	0.19640021
44	0xbd83f0ed	-0.06442437
45	0xbc0095f6	-0.0078482535
46	0xbac6112e	-0.0015111321
47	0xbb095367	-0.0020954253
48	0xbac70a8a	-0.0015185636
49	0xb994ddf0	-0.00028394116
50	0x00000000	0.0
51	0x00000000	0.0
52	0xbcbce8e6	-0.023060273
53	0xbd702e11	-0.058637682
54	0xbd8149c4	-0.06312898
55	0xbd3cbd9a	-0.046079256
56	0xbd119bd4	-0.035549
57	0xbd8ff85a	-0.07029791
58	0x3de3580b	0.11100777
59	0x395a5e60	0.00020825258
60	0xbbd580b8	-0.0065155886
61	0x3bceac1e	0.006307139
62	0x3b0f831b	0.0021898213
63	0x00000000	0.0
64	0x00000000	0.0
65	0xbe660fa5	-0.22466905
66	0x3d3217f7	0.043479886
67	0x3e18dded	0.14928408
68	0x3df7c69d	0.12098429
69	0x3da38090	0.07983506
70	0x3d241f65	0.040069003
71	0x3c9f333b	0.019433608
72	0x3b71dda3	0.0036905787
73	0xbb7d92d5	-0.0038692255
74	0x3a3a9987	0.0007118214
75	0x3a0ae264	0.0005298017
76	0x00000000	0.0
77	0x00000000	0.0
78	0xbe8e5b2e	-0.2780394
79	0xbe6995cb	-0.22811048
80	0xbdcbd5d4	-0.09952894
81	0x3e5f1cdb	0.21788351
82	0x3e012c11	0.12614466
83	0x3e12fd22	0.14354375
84	0x3e4847c1	0.19558622
85	0x3e5bc75f	0.21462773
86	0x3ddb380f	0.10704052
87	0x3bedd421	0.0072579538
88	0x3b41a3bd	0.0029547059
89	0x00000000	0.0
90	0x00000000	0.0
91	0x3ddb0cf6	0.106958315
92	0x3e0403ad	0.12892027
93	0x3df9b540	0.12192774
94	0x3ea6171a	0.324395
95	0x3f0d3e84	0.55173516
96	0x3e5d21aa	0.21594873
97	0x3bfc47c7	0.007698986
98	0xba13e000	-0.00056409836
99	0xbbf686d6	-0.007523398
100	0x3c0e044e	0.0086680185
101	0x3b395578	0.0028279703
102	0x00000000	0.0
103	0x00000000	0.0
104	0x3dab6007	0.08367925
105	0x3e7a7b49	0.24461092
106	0x3dc61fe3	0.09674051
107	0x3e28aea5	0.16472872
108	0x3dc58158	0.09643811
109	0xbf150608	-0.5821233
110	0x3d16a646	0.036779664
111	0xbb02eab6	-0.0019976324
112	0x3b8d9418	0.0043206327
113	0x3badc77f	0.005303323
114	0x3a8664f2	0.0010253473
115	0x00000000	0.0
116	0x00000000	0.0
117	0xbde75f6b	-0.112974964
118	0xbd071bf2	-0.032985635
119	0x3d5cf56d	0.053944994
120	0x3c59b117	0.01328685
121	0xbd4e62dd	-0.050387252
122	0xbe20f97e	-0.15720174
123	0x3dd181f9	0.102298684
124	0x3c012129	0.007881441
125	0xbb0a77d8	-0.0021128561
126	0xbb880e97	-0.00415213
127	0xba4b9af2	-0.0007766924
128	0x00000000	0.0
129	0x00000000	0.0
130	0x3e837dc8	0.256819
131	0xbcbaf8af	-0.02282366
132	0xbd269dca	-0.040677823
133	0xbdb0f5c5	-0.08640627
134	0xbd972646	-0.07380347
135	0xbd61c60c	-0.055120513
136	0xbc526a28	-0.012842692
137	0x3b681ca4	0.0035417462
138	0x3b945a79	0.0045273867
139	0xbab4bcd9	-0.0013789191
140	0xba2f6335	-0.0006690503
141	0x00000000	0.0
142	0x00000000	0.0
143	0xbdbf152b	-0.09330209
144	0x3d831013	0.0639955
145	0xbd7ed03c	-0.062210307
146	0x3ab419b2	0.0013740568
147	0x3cc4e6be	0.024035808
148	0xbcd9c442	-0.02658284
149	0x3cf3450e	0.029696014
150	0x3dad3569	0.08457453
151	0x3d570ae9	0.05250064
152	0x3c0189dc	0.007906403
153	0x3b2efbc6	0.0026700362
154	0x00000000	0.0
155	0x00000000	0.0
156	0xbd357c8c	-0.04430823
157	0xbc91f32f	-0.017816154
158	0xbe228dad	-0.15874358
159	0xbec9aab5	-0.39388052
160	0xbeb9f68b	-0.3632091
161	0xbf57ebb0	-0.84344006
162	0xbb547c26	-0.003242263
163	0x3a6baa8c	0.0008989952
164	0x3b3ec55a	0.002910933
165	0xb6f3dfdc	-7.268025e-06
166	0xb98201cb	-0.00024796868
167	0x00000000	0.0
168	0x00000000	0.0
169	0xbd7c5c08	-0.061611205
170	0x3ccaea98	0.024770066
171	0x3e3de903	0.18545918
172	0x3c20ccd1	0.009814457
173	0x3e0f0ddc	0.1397013
174	0xbdb28ca5	-0.08718232
175	0x3d25c643	0.04047228
176	0xbba0bbab	-0.0049051843
177	0xbb078cbb	-0.0020683247
178	0x3b081089	0.002076181
179	0x3a28334d	0.0006416336
180	0x00000000	0.0
181	0x00000000	0.0
182	0x3dababa3	0.083823465
183	0xbc687822	-0.014188798
184	0xbd13342f	-0.035938438
185	0xbcea7a57	-0.02862279
186	0xbd8414b1	-0.06449259
187	0x3e90add8	0.28257632
188	0x3d6fa652	0.058508225
189	0x3ab9e584	0.0014182781
190	0x3b4e6126	0.003149101
191	0xba95a2de	-0.0011416336
192	0xba00d27c	-0.0004914177
193	0x00000000	0.0
194	0x00000000	0.0
195	0x3e344d4f	0.17607616
196	0xbc92cb4a	-0.017919201
197	0xbd4943cc	-0.04913692
198	0xbdb6079e	-0.088881716
199	0xbda3d41b	-0.0799944
200	0xbcf24e84	-0.029578455
201	0xbcd6ff61	-0.026244821
202	0x3c08a74d	0.008340669
203	0x3ae3896f	0.0017359684
204	0xbb65c9bb	-0.0035062868
205	0xba5d27f5	-0.0008436435
206	0x00000000	0.0
207	0x00000000	0.0
208	0xbd1eb853	-0.038750004
209	0x3b1aefc2	0.0023641442
210	0x3e2d3177	0.169134
211	0x3ddd114e	0.10794316
212	0x3d75f815	0.060051043
213	0xbd66f4bb	-0.056385737
214	0xbdbe96a2	-0.09306075
215	0xbc9b8910	-0.018986255
216	0xbd324f68	-0.04353276
217	0xb9b552d7	-0.0003458473
218	0x38d770bc	0.00010272997
219	0x00000000	0.0
220	0x00000000	0.0
221	0x3d93273c	0.07185218
222	0xbcf7adb8	-0.030234203
223	0xbdeff258	-0.11716145
224	0xbe908c80	-0.28232193
225	0xbe9b01f3	-0.30274925
226	0xbe41b6fc	-0.18917459
227	0xbbec8fc5	-0.007219287
228	0x3b7bcc44	0.0038421312
229	0x3bb28832	0.0054483647
230	0x3b124710	0.0022320189
231	0x39ad612b	0.00033069527
232	0x00000000	0.0
233	0x00000000	0.0
234	0xbd818931	-0.06324995
235	0x3b6162a7	0.0034391077
236	0x3de0389d	0.10948298
237	0x3de734e4	0.11289385
238	0xbd99fd5e	-0.07519029
239	0xbdb7cc1b	-0.08974477
240	0xba57e122	-0.00082351465
241	0x3b12c0c8	0.0022392739
242	0xbb0958dc	-0.0020957505
243	0x3bd27cee	0.006423584
244	0x3afb43b7	0.0019169961
245	0x00000000	0.0
246	0x00000000	0.0
247	0x3d22ca9a	0.039743997
248	0xbd9a774c	-0.07542285
249	0xbd6f4045	-0.0584109
250	0xbd318c97	-0.043346968
251	0xbd2e30dc	-0.042527065
252	0x3b0b96b3	0.002129954
253	0x3c92f5f4	0.017939545
254	0x3bc9e4ca	0.006161307
255	0xbc17deeb	-0.009269456

layers.1.spline_scaler f4 [5, 5]
0	0xbee5cd78	-0.44883323
1	0x3dbaa54a	0.09113558
2	0x3eb08908	0.34479547
3	0x3ec410b7	0.38294002
4	0x3ed44e61	0.41466048
5	0xbe3822ea	-0.17982069
6	0xbf0687ba	-0.5255085
7	0x3f0c0474	0.54694295
8	0x3e9af497	0.30264732
9	0x3ef7681c	0.48321617
10	0x3e106fd5	0.1410516
11	0xbe12b51b	-0.14326899
12	0xbeea7357	-0.45791122
13	0x3e9f1090	0.31067324
14	0x3e909952	0.28241974
15	0x3e4da013	0.20080595
16	0xbe1f6685	-0.15566452
17	0xbeb15011	-0.34631398
18	0x3ef492aa	0.47768146
19	0x3e857abe	0.26070207
20	0xbe09379e	-0.13400123
21	0xbe6e1f0c	-0.23254031
22	0x3eb82ef3	0.3597332
23	0xbed6cd0a	-0.41953307
24	0x3eec5f31	0.46166375

layers.1.grid f4 [5, 17]
0	0xbe99999a	-0.3
1	0xbe4ccccd	-0.2
2	0xbdcccccd	-0.1
3	0x00000000	0.0
4	0x3dcccccd	0.1
5	0x3e4ccccd	0.2
6	0x3e99999a	0.3
7	0x3ecccccd	0.4
8	0x3f000000	0.5
9	0x3f19999a	0.6
10	0x3f333333	0.7
11	0x3f4ccccd	0.8
12	0x3f666667	0.90000004
13	0x3f800000	1.0
14	0x3f8ccccd	1.1
15	0x3f99999a	1.2
16	0x3fa66667	1.3000001
17	0xbe99999a	-0.3
18	0xbe4ccccd	-0.2
19	0xbdcccccd	-0.1
20	0x00000000	0.0
21	0x3dcccccd	0.1
22	0x3e4ccccd	0.2
23	0x3e99999a	0.3
24	0x3ecccccd	0.4
25	0x3f000000	0.5
26	0x3f19999a	0.6
27	0x3f333333	0.7
28	0x3f4ccccd	0.8
29	0x3f666667	0.90000004
30	0x3f800000	1.0
31	0x3f8ccccd	1.1
32	0x3f99999a	1.2
33	0x3fa66667	1.3000001
34	0xbe99999a	-0.3
35	0xbe4ccccd	-0.2
36	0xbdcccccd	-0.1
37	0x00000000	0.0
38	0x3dcccccd	0.1
39	0x3e4ccccd	0.2
40	0x3e99999a	0.3
41	0x3ecccccd	0.4
42	0x3f000000	0.5
43	0x3f19999a	0.6
44	0x3f333333	0.7
45	0x3f4ccccd	0.8
46	0x3f666667	0.90000004
47	0x3f800000	1.0
48	0x3f8ccccd	1.1
49	0x3f99999a	1.2
50	0x3fa66667	1.3000001
51	0xbe99999a	-0.3
52	0xbe4ccccd	-0.2
53	0xbdcccccd	-0.1
54	0x00000000	0.0
55	0x3dcccccd	0.1
56	0x3e4ccccd	0.2
57	0x3e99999a	0.3
58	0x3ecccccd	0.4
59	0x3f000000	0.5
60	0x3f19999a	0.6
61	0x3f333333	0.7
62	0x3f4ccccd	0.8
63	0x3f666667	0.90000004
64	0x3f800000	1.0
65	0x3f8ccccd	1.1
66	0x3f99999a	1.2
67	0x3fa66667	1.3000001
68	0xbe99999a	-0.3
69	0xbe4ccccd	-0.2
70	0xbdcccccd	-0.1
71	0x00000000	0.0
72	0x3dcccccd	0.1
73	0x3e4ccccd	0.2
74	0x3e99999a	0.3
75	0x3ecccccd	0.4
76	0x3f000000	0.5
77	0x3f19999a	0.6
78	0x3f333333	0.7
79	0x3f4ccccd	0.8
80	0x3f666667	0.90000004
81	0x3f800000	1.0
82	0x3f8ccccd	1.1
83	0x3f99999a	1.2
84	0x3fa66667	1.3000001

layers.2.base_weight f4 [1, 5]
0	0xbf2da7a0	-0.678339
1	0xbebb3853	-0.3656641
2	0xbeb038ee	-0.34418434
3	0xbf1d5861	-0.6146298
4	0xbf022cfc	-0.5084989

layers.2.spline_weight f4 [1, 5, 13]
0	0xbf0b7004	-0.544678
1	0xbecc956a	-0.39957744
2	0xbd41bfef	-0.047302183
3	0xbce29581	-0.02765918
4	0xbee7d6c8	-0.45281053
5	0x3ef0ae50	0.4700799
6	0x3abcfce2	0.0014418627
7	0xbae77ae6	-0.0017660528
8	0xba939e08	-0.0011262307
9	0xbb9c9069	-0.004777957
10	0xbaa42df2	-0.00125259
11	0x00000000	0.0
12	0x00000000	0.0
13	0x3f1698ac	0.5882671
14	0x3ed5e4ca	0.41776115
15	0x3da26866	0.07930069
16	0xbc89f880	-0.016842127
17	0xbea7b46e	-0.32754844
18	0x3e1cefe3	0.15325885
19	0xbe10dc96	-0.14146647
20	0xbadac5f4	-0.0016691075
21	0xbab28cc4	-0.0013622274
22	0xbb911673	-0.004427725
23	0xba9afc39	-0.0011824436
24	0x00000000	0.0
25	0x00000000	0.0
26	0x3f06c3f3	0.52642745
27	0x3f41efd4	0.75756574
28	0x3fab4b9a	1.3382447
29	0x3fa9a931	1.3254758
30	0xbf88a2b6	-1.0674655
31	0x3b8cd796	0.004298161
32	0xbbbf5bc6	-0.0058397977
33	0xbb877ebd	-0.0041349814
34	0x3ba174b2	0.0049272412
35	0xbb531c1d	-0.0032212802
36	0xbaa51580	-0.0012594908
37	0x00000000	0.0
38	0x00000000	0.0
39	0xbf0d9445	-0.55304366
40	0xbf00ed4f	-0.50362104
41	0xbd7c1f3a	-0.061553217
42	0x3d892e9e	0.06698345
43	0xbdbceb95	-0.09224621
44	0xbe37ed49	-0.17961611
45	0x3c981cdf	0.018568454
46	0xbbeee2d5	-0.007290224
47	0x3bc9d8b4	0.006159866
48	0xbbfe245a	-0.0077557983
49	0xbb2ec17d	-0.002666562
50	0x00000000	0.0
51	0x00000000	0.0
52	0x3efbabfa	0.49154645
53	0x3edfafc6	0.43688792
54	0x3d946af4	0.07246962
55	0xbe8d9a14	-0.27656615
56	0xbf3a3f42	-0.72752774
57	0xbebb5a69	-0.36592415
58	0x3f316cad	0.6930645
59	0xb9532160	-0.00020134961
60	0x3ba7b610	0.005118139
61	0x3b0dceea	0.0021638223
62	0x396905a0	0.00022222707
63	0x00000000	0.0
64	0x00000000	0.0

layers.2.spline_scaler f4 [1, 5]
0	0xbf685d27	-0.9076714
1	0x3f636f16	0.8884138
2	0x3f42fbe5	0.7616561
3	0xbf59d293	-0.85086936
4	0x3f73c976	0.9522928

layers.2.grid f4 [5, 17]
0	0xbe99999a	-0.3
1	0xbe4ccccd	-0.2
2	0xbdcccccd	-0.1
3	0x00000000	0.0
4	0x3dcccccd	0.1
5	0x3e4ccccd	0.2
6	0x3e99999a	0.3
7	0x3ecccccd	0.4
8	0x3f000000	0.5
9	0x3f19999a	0.6
10	0x3f333333	0.7
11	0x3f4ccccd	0.8
12	0x3f666667	0.90000004
13	0x3f800000	1.0
14	0x3f8ccccd	1.1
15	0x3f99999a	1.2
16	0x3fa66667	1.3000001
17	0xbe99999a	-0.3
18	0xbe4ccccd	-0.2
19	0xbdcccccd	-0.1
20	0x00000000	0.0
21	0x3dcccccd	0.1
22	0x3e4ccccd	0.2
23	0x3e99999a	0.3
24	0x3ecccccd	0.4
25	0x3f000000	0.5
26	0x3f19999a	0.6
27	0x3f333333	0.7
28	0x3f4ccccd	0.8
29	0x3f666667	0.90000004
30	0x3f800000	1.0
31	0x3f8ccccd	1.1
32	0x3f99999a	1.2
33	0x3fa66667	1.3000001
34	0xbe99999a	-0.3
35	0xbe4ccccd	-0.2
36	0xbdcccccd	-0.1
37	0x00000000	0.0
38	0x3dcccccd	0.1
39	0x3e4ccccd	0.2
40	0x3e99999a	0.3
41	0x3ecccccd	0.4
42	0x3f000000	0.5
43	0x3f19999a	0.6
44	0x3f333333	0.7
45	0x3f4ccccd	0.8
46	0x3f666667	0.90000004
47	0x3f800000	1.0
48	0x3f8ccccd	1.1
49	0x3f99999a	1.2
50	0x3fa66667	1.3000001
51	0xbe99999a	-0.3
52	0xbe4ccccd	-0.2
53	0xbdcccccd	-0.1
54	0x00000000	0.0
55	0x3dcccccd	0.1
56	0x3e4ccccd	0.2
57	0x3e99999a	0.3
58	0x3ecccccd	0.4
59	0x3f000000	0.5
60	0x3f19999a	0.6
61	0x3f333333	0.7
62	0x3f4ccccd	0.8
63	0x3f666667	0.90000004
64	0x3f800000	1.0
65	0x3f8ccccd	1.1
66	0x3f99999a	1.2
67	0x3fa66667	1.3000001
68	0xbe99999a	-0.3
69	0xbe4ccccd	-0.2
70	0xbdcccccd	-0.1
71	0x00000000	0.0
72	0x3dcccccd	0.1
73	0x3e4ccccd	0.2
74	0x3e99999a	0.3
75	0x3ecccccd	0.4
76	0x3f000000	0.5
77	0x3f19999a	0.6
78	0x3f333333	0.7
79	0x3f4ccccd	0.8
80	0x3f666667	0.90000004
81	0x3f800000	1.0
82	0x3f8ccccd	1.1
83	0x3f99999a	1.2
84	0x3fa66667	1.3000001
