KINN/Plate_hole/PINNs/model/model_kan.pth (torch, 10702 bytes, 16 tensors)

layers.0.base_weight f4 [5, 2]
00000000: e473 053c 7f62 da3e 2132 5d3f be40 ddbe
00000010: 28e0 03bf 5598 d4bd 73ba 86be fa05 883e
00000020: 3de4 6abd a19c 993e
0.008145306 0.42653272 0.86404616 -0.43213457 -0.5151391 -0.103806175 -0.26314124 0.2656706
-0.05734657 0.3000231

layers.0.spline_weight f4 [5, 2, 13]
00000000: feaa 553e 6fe5 e1bc 93eb f93d b6fe 773e
00000010: a693 583d dde3 89bd 5cff ecbd 3de6 babd
00000020: 9c82 5cbd 69fb 92bb 6f38 633b 48da 65bd
00000030: cb09 983d c081 8c3e 6f97 733d a339 1d3d
00000040: 3756 25bd d6af fabc 7925 623b bc1e 343c
00000050: ebb7 fa3c 035c 293d ff05 843d 81cd 893d
00000060: b269 7c3d b01f 9ebd 1611 da3e eff3 153e
00000070: eade 213e 26a0 fd3c 0280 babd 1676 ecbd
00000080: 6eb1 e4bd 711a 08be 4b85 11be 359f 27be
00000090: 331c 83be 8f4a dfbe 43b8 0dbf 97cb 03bf
000000a0: b6a2 69be 9bf2 47be c1ad 86be 1e28 2cbe
000000b0: 023f ecbd f041 acbd 7a04 8bbd 24fb 5bbd
000000c0: e507 54bd a5c8 6dbd 8a5d 94bd cd8f edbd
000000d0: 8c07 703e dfea 0d3e 2c93 a23d 8dfb 1f3e
000000e0: 6388 263e 80ce 053e 8336 7e3d 0173 c33c
000000f0: 8bc5 49bb b776 67bc 4d5d 2ebe 6ef8 8cbe
00000100: 3d53 c4be 8d34 ddbe e820 69be c744 69be
00000110: 3619 ea3c f8c0 0f3e 094a 1f3e 87e0 1b3e
00000120: ac83 093e 977d f33d 001d cb3d 88c7 bc3d
00000130: d045 cf3d d1fd 0e3e c084 383e c688 66be
00000140: 0e95 653d b53d b4bc 03c9 25bc 8e2b 5cbd
00000150: 6c67 a9bd ea29 b0bd bc35 a1bd 87e8 a4bd
00000160: 7514 9cbd 41a7 12bb a076 0d3e 6ad5 373d
00000170: be61 f93b 7041 813d 7cf2 c73d 839d cd3d
00000180: 61e1 da3d 2213 ea3d acff f63d 7e73 fc3d
00000190: 592c dd3d d635 a13d 59cb 403d 607e ae3c
000001a0: b4a2 21bf ec00 02be fa90 9e3c 9fcd df3d
000001b0: 2135 d73d 9acd 313d 4a6b 13bc d0f6 813b
000001c0: a15f 083d 5026 933d ae4f cb3d f1d8 d53d
000001d0: 2e6b 98bc 3ff7 07bf d458 cd3d 9abc 733d
000001e0: 554d 70bd 2ca2 82bc 14b2 61bc a395 02bd
000001f0: b6de 2ebd 66ba 4ebd 0697 72bd dae4 a1bd
00000200: d010 d2bd 4f78 05be
0.2086601 -0.027575223 0.12203135 0.24218258 0.052875184 -0.067329146 -0.115721434 -0.09125946
-0.053835496 -0.004485537 0.0034671088 -0.056116372 0.07423743 0.2744274 0.05947059 0.038385045
-0.040365424 -0.030601423 0.0034507199 0.010993656 0.030605277 0.041347515 0.06446456 0.0672865
0.061624236 -0.07720888 0.4259116 0.14643835 0.15807691 0.030960154 -0.09106447 -0.115459606
-0.111666545 -0.13291337 -0.14211003 -0.16369326 -0.25607452 -0.4361157 -0.55359286 -0.5148253
-0.22815976 -0.1952614 -0.2630444 -0.16812178 -0.11535455 -0.08411014 -0.06787963 -0.053706303
-0.05176534 -0.058052678 -0.07244404 -0.115996934 0.23440379 0.13859127 0.07938227 0.15623303
0.16262965 0.13067055 0.062063705 0.02385855 -0.003078791 -0.014127425 -0.17027779 -0.27533287
-0.38344756 -0.43204156 -0.22766459 -0.22780143 0.028576475 0.14038455 0.15555586 0.15222369
0.13429135 0.11889189 0.09917641 0.09217745 0.101207376 0.13964011 0.1801939 -0.22513112
0.056050353 -0.02200208 -0.010118726 -0.053752474 -0.08271679 -0.086017445 -0.07871577 -0.080521636
-0.07621089 -0.0022377523 0.13814783 0.044881262 0.0076105287 0.06311309 0.09763047 0.100398086
0.10687519 0.114294305 0.12060484 0.12326716 0.10799474 0.078715965 0.047068927 0.021300495
-0.6313889 -0.12695664 0.01935624 0.10927891 0.105081804 0.043408968 -0.008997748 0.00396619
0.033294324 0.07185042 0.09927307 0.10441769 -0.018605795 -0.5311164 0.10026708 0.059506036
-0.0586675 -0.01594647 -0.013775367 -0.031880986 -0.042692862 -0.050470732 -0.05922606 -0.07904978
-0.10257113 -0.13034175

layers.0.spline_scaler f4 [5, 2]
00000000: 6ea1 083f c7e8 09bf 1cd2 56bf cc65 4dbf
00000010: 98a2 473f e37a 0e3f 1fa2 86be 4a31 313f
00000020: d586 02bf c0dd d23e
0.5337132 -0.53870815 -0.8391435 -0.80233455 0.77982473 0.5565626 -0.26295564 0.69215834
-0.5098699 0.41184807

layers.0.grid f4 [2, 17]
00000000: 9a99 99be cdcc 4cbe cdcc ccbd 0000 0000
00000010: cdcc cc3d cdcc 4c3e 9a99 993e cdcc cc3e
00000020: 0000 003f 9a99 193f 3333 333f cdcc 4c3f
00000030: 6766 663f 0000 803f cdcc 8c3f 9a99 993f
00000040: 6766 a63f 9a99 99be cdcc 4cbe cdcc ccbd
00000050: 0000 0000 cdcc cc3d cdcc 4c3e 9a99 993e
00000060: cdcc cc3e 0000 003f 9a99 193f 3333 333f
00000070: cdcc 4c3f 6766 663f 0000 803f cdcc 8c3f
00000080: 9a99 993f 6766 a63f
-0.3 -0.2 -0.1 0.0 0.1 0.2 0.3 0.4
0.5 0.6 0.7 0.8 0.90000004 1.0 1.1 1.2
1.3000001 -0.3 -0.2 -0.1 0.0 0.1 0.2 0.3
0.4 0.5 0.6 0.7 0.8 0.90000004 1.0 1.1
1.2 1.3000001

layers.1.base_weight f4 [5, 5]
00000000: cfe4 233e 207d a13e de0e c8be 622b 3d3e
00000010: 069c 093e 9a42 0d3a fe6a 2b3f 9358 02bf
00000020: 15fe 8d3c 4c34 153e f1f1 b63c bb50 1bbe
00000030: dfdf a5be 5098 06bf f14a 02bf 1e56 04be
00000040: dd03 e9bd 69c4 bebd 7588 8e3e 50b2 ba3e
00000050: a117 d03d 8eab 473e 64db d6bc 3829 57be
00000060: 1d4b c93a
0.16005252 0.31540775 -0.39073843 0.1847358 0.13438424 0.00053886476 0.6696013 -0.50916404
0.01733307 0.14570731 0.022332164 -0.15167515 -0.32397363 -0.5257616 -0.508956 -0.12923476
-0.1137769 -0.09314806 0.27838483 0.36464167 0.10160757 0.19499037 -0.02622766 -0.21011817
0.0015357469

layers.1.spline_weight f4 [5, 5, 13]
00000000: 8133 debe 0be3 75be 4098 1fbc 81f5 6e3b
00000010: eaa6 143d 2bf0 0c3c 4449 913d 6ca8 b23d
00000020: 22b5 523b 470f 253b 34e2 1d3a 0000 0000
00000030: 0000 0000 e1a0 dcbd 5c1e 6dbc b35a 8f3b
00000040: 7f98 993a ebc8 8b3e 0708 8a3e dd7b dd3d
00000050: b3fd 0abd 4541 f73c 8d99 423e abf2 1b3f
00000060: 2a92 3b3e 0000 0000 61dc 6bbd 5ea2 a33c
00000070: 6a80 86be c2c2 a7be 96d4 003e 528e 71bd
00000080: 5daa 10bc 2627 6e3b 709b 0439 c7ce 1d3a
00000090: bde6 9139 0000 0000 0000 0000 57f8 0f3e
000000a0: 1df2 c9bd e446 03be 060c 703c 3f56 b13d
000000b0: fd60 3f3f 465f 5eba 2e11 c6ba 6753 09bb
000000c0: 8a0a c7ba f0dd 94b9 0000 0000 0000 0000
000000d0: 9a63 963e 03a9 2f3e 5356 1bbe 793c debd
000000e0: c964 82bc b59d 2bbd 84cc 5ebb 605e 5a39
000000f0: b880 d5bb 1eac ce3b 1b83 0f3b 0000 0000
00000100: 0000 0000 77ce 09bf 7da6 d9be 919b 8fbe
00000110: 0574 70be 6a9d 84bd 50e6 9cbd ed94 8bbd
00000120: 5437 7dbd d592 7dbb 8799 3a3a 64e2 0a3a
00000130: 0000 0000 0000 0000 ec34 3a3d fb7f dd3d
00000140: 1740 333c 5cb0 2dbe 66ab 8fbe 9382 80be
00000150: 04a7 91be 81a1 a7be fc3b 98be 5f09 1dbf
00000160: d398 b6bf 6f17 963e 0000 0000 ae1c 23bd
00000170: 88a8 0dbe 13d0 15be 52eb 58bc d5ea ccbe
00000180: 8d06 fe3b 506d 933b 00e0 13ba d686 f6bb
00000190: 4e04 0e3c 7855 393b 0000 0000 0000 0000
000001a0: e84b 9a3e b46a aabd 68da c8bb ea91 80bd
000001b0: 0056 523e ddc1 a33f fd97 e43b b6ea 02bb
000001c0: 1894 8d3b 7fc7 ad3b f264 863a 0000 0000
000001d0: 0000 0000 2734 5e3e 0b40 783e 556b c03b
000001e0: fe09 1fbd 0278 a33c b1fd a63e caf8 bcbb
000001f0: 2921 013c d877 0abb 970e 88bb f29a 4bba
00000200: 0000 0000 0000 0000 7cda a63e 365f 8e3e
00000210: 04ba 5e3e 4e88 883e 7215 4f3e 10da 19bc
00000220: 9927 3fbd 1305 4b3d 795a 943b d9bc b4ba
00000230: 3563 2fba 0000 0000 0000 0000 9c3f 223e
00000240: 32fe b7bc 462d 28bd 651c 4fbd 1308 36be
00000250: af56 82be 3967 8abe 031e 95be 4972 cdbe
00000260: 6bb1 12bf d87d cabe ebd3 eebb 0000 0000
00000270: 7022 32bc deec d93d 897a abbd 845b f9be
00000280: b2f3 b83e 9875 87be 89f0 f83b 8caa 6b3a
00000290: 5ac5 3e3b dcdf f3b6 cb01 82b9 0000 0000
000002a0: 0000 0000 a47a 503e acd5 f2bd eea6 43be
000002b0: c958 8dbb 48f6 d33e 9057 62bf bcf5 bdbb
000002c0: abbb a0bb bb8c 07bb 8910 083b 4d33 283a
000002d0: 0000 0000 0000 0000 9a8d 7c3e 42fc 3f3e
000002e0: d4b0 d3bb 3f7e f5bd bb12 74be f329 01be
000002f0: 0c9b 8cbb 84e5 b93a 2661 4e3b dea2 95ba
00000300: 7cd2 00ba 0000 0000 0000 0000 a953 f0bd
00000310: d91b e93d 5ecd 713d 4cb4 41bd 76ef a1bd
00000320: 8c53 58bd e03b cabd e5c2 6dbd 6f89 e33a
00000330: bbc9 65bb f527 5dba 0000 0000 0000 0000
00000340: 8a2b 143e 209e 81bd c62e 263d f132 3b3d
00000350: bb73 07bc 2b47 3b3b e99c 91bd a07c 6dbe
00000360: 164d 8bbe b7dc f5be 4985 37bf eb9a 38be
00000370: 0000 0000 02a8 c6bb 6e34 bcbd 5ba4 bcbe
00000380: 3492 10bf 81b0 6f3f d240 67bc 58ec f0bb
00000390: 44cc 7b3b 3288 b23b 1047 123b 2b61 ad39
000003a0: 0000 0000 0000 0000 8d9e 9dbd 1b48 4d3e
000003b0: 64a9 923e 2bbb 0b3e c08d b63d 3031 89bf
000003c0: 535e 76bb c8c0 123b dc58 09bb ee7c d23b
000003d0: b743 fb3a 0000 0000 0000 0000 74bc 8b3d
000003e0: 54c0 8cbd b268 413b 2cf5 4a3d b089 54bd
000003f0: 88b2 6fbe 3bdf 7abb cae4 c93b ebde 17bc
-0.4339867 -0.24012391 -0.009740889 0.003646225 0.036291994 0.008602182 0.070940524 0.0872353
0.003215142 0.0025186108 0.00060227816 0.0 0.0 -0.10772873 -0.01447257 0.004374826
0.0011718421 0.27301726 0.2695925 0.10814641 -0.033933353 0.03018249 0.19003887 0.60917157
0.18317476 0.0 -0.057583217 0.019974884 -0.26269847 -0.32765776 0.12581095 -0.058973618
-0.00882968 0.0036339252 0.00012646406 0.0006019887 0.0002782847 0.0 0.0 0.14059578
-0.098606326 -0.12820011 0.014651304 0.08659028 0.7475737 -0.0008482825 -0.0015111321 -0.0020954253
-0.0015185636 -0.00028394116 0.0 0.0 0.29372865 0.17154317 -0.15169649 -0.10851378
-0.015917199 -0.041898448 -0.0033996413 0.00020825258 -0.0065155886 0.006307139 0.0021898213 0.0
0.0 -0.53830665 -0.42509833 -0.28048375 -0.23481758 -0.06475337 -0.07661116 -0.06815515
-0.061820343 -0.0038692255 0.0007118214 0.0005298017 0.0 0.0 0.045460626 0.10815426
0.010940573 -0.16961807 -0.28060454 -0.2509962 -0.28447735 -0.32740405 -0.29733264 -0.61342424
-1.4265388 0.29314753 0.0 -0.039822273 -0.13833821 -0.14630155 -0.0132396985 -0.40022913
0.0077522458 0.004499115 -0.00056409836 -0.007523398 0.0086680185 0.0028279703 0.0 0.0
0.30136037 -0.08321133 -0.0061295517 -0.06277831 0.20540619 1.2793537 0.006976126 -0.0019976324
0.0043206327 0.005303323 0.0010253473 0.0 0.0 0.21699582 0.2424318 0.00587217
-0.03882789 0.019954685 0.32615426 -0.0057669627 0.007881441 -0.0021128561 -0.00415213 -0.0007766924
0.0 0.0 0.32588565 0.27807015 0.21750647 0.26666492 0.20223024 -0.009390369
-0.046668623 0.049565386 0.0045273867 -0.0013789191 -0.0006690503 0.0 0.0 0.15844578
-0.022460077 -0.0410588 -0.05056419 -0.17776518 -0.2545676 -0.27031878 -0.2912446 -0.40126255
-0.5730197 -0.39549136 -0.007288446 0.0 -0.010872468 0.10640882 -0.08372981 -0.48702633
0.36123425 -0.26456904 0.0075970334 0.0008989952 0.002910933 -7.268025e-06 -0.00024796868 0.0
0.0 0.20359284 -0.11857161 -0.19106647 -0.0043135625 0.41398835 -0.8841486 -0.005797116
-0.0049051843 -0.0020683247 0.002076181 0.0006416336 0.0 0.0 0.24663392 0.18748572
-0.0064602885 -0.1198697 -0.2383527 -0.12613659 -0.004290944 0.0014182781 0.003149101 -0.0011416336
-0.0004914177 0.0 0.0 -0.11734707 0.11382265 0.059033744 -0.047291085 -0.07907002
-0.05281405 -0.098747015 -0.058047194 0.0017359684 -0.0035062868 -0.0008436435 0.0 0.0
0.14469734 -0.06328988 0.04057195 0.04570288 -0.008267338 0.0028576355 -0.07110006 -0.23192072
-0.2720725 -0.48019955 -0.7168775 -0.18027847 0.0 -0.0060625086 -0.09189688 -0.36844143
-0.5647309 0.936287 -0.014114575 -0.007352393 0.0038421312 0.0054483647 0.0022320189 0.00033069527
0.0 0.0 -0.07696257 0.20047037 0.2864486 0.13645618 0.089137554 -1.0718136
-0.0037592843 0.0022392739 -0.0020957505 0.006423584 0.0019169961 0.0 0.0 0.06823054
-0.06872621 0.0029511866 0.04955022 -0.05188912 -0.23407948 -0.0038280028 0.006161307 -0.009269456

layers.1.spline_scaler f4 [5, 5]
00000000: 03d2 28bf 04e4 5f3e 9069 db3e b44e 1a3f
00000010: af9b 343f f06d e2be 5210 f0be 171d ff3e
00000020: 18b6 d43e 6ed9 333f cd80 a33e 31d7 b4be
00000030: 1eea 03bf e2ae 013f 5886 013f 7b9b 463e
00000040: 0ba5 04be b44a 00bf c3ed 3a3f 638f 803e
00000050: f1cd bebe 1539 e1be ecbc c03e c069 16bf
00000060: 1cd3 2f3f
-0.6594545 0.21864325 0.42853975 0.6027634 0.70550054 -0.442245 -0.4688745 0.4982688
0.41545177 0.70253646 0.31934205 -0.35320428 -0.5152911 0.50657475 0.5059562 0.19395249
-0.12953584 -0.5011399 0.73019046 0.25109395 -0.37266496 -0.43988863 0.37644136 -0.5875511
0.686815

layers.1.grid f4 [5, 17]
00000000: 9a99 99be cdcc 4cbe cdcc ccbd 0000 0000
00000010: cdcc cc3d cdcc 4c3e 9a99 993e cdcc cc3e
00000020: 0000 003f 9a99 193f 3333 333f cdcc 4c3f
00000030: 6766 663f 0000 803f cdcc 8c3f 9a99 993f
00000040: 6766 a63f 9a99 99be cdcc 4cbe cdcc ccbd
00000050: 0000 0000 cdcc cc3d cdcc 4c3e 9a99 993e
00000060: cdcc cc3e 0000 003f 9a99 193f 3333 333f
00000070: cdcc 4c3f 6766 663f 0000 803f cdcc 8c3f
00000080: 9a99 993f 6766 a63f 9a99 99be cdcc 4cbe
00000090: cdcc ccbd 0000 0000 cdcc cc3d cdcc 4c3e
000000a0: 9a99 993e cdcc cc3e 0000 003f 9a99 193f
000000b0: 3333 333f cdcc 4c3f 6766 663f 0000 803f
000000c0: cdcc 8c3f 9a99 993f 6766 a63f 9a99 99be
000000d0: cdcc 4cbe cdcc ccbd 0000 0000 cdcc cc3d
000000e0: cdcc 4c3e 9a99 993e cdcc cc3e 0000 003f
000000f0: 9a99 193f 3333 333f cdcc 4c3f 6766 663f
00000100: 0000 803f cdcc 8c3f 9a99 993f 6766 a63f
00000110: 9a99 99be cdcc 4cbe cdcc ccbd 0000 0000
00000120: cdcc cc3d cdcc 4c3e 9a99 993e cdcc cc3e
00000130: 0000 003f 9a99 193f 3333 333f cdcc 4c3f
00000140: 6766 663f 0000 803f cdcc 8c3f 9a99 993f
00000150: 6766 a63f
-0.3 -0.2 -0.1 0.0 0.1 0.2 0.3 0.4
0.5 0.6 0.7 0.8 0.90000004 1.0 1.1 1.2
1.3000001 -0.3 -0.2 -0.1 0.0 0.1 0.2 0.3
0.4 0.5 0.6 0.7 0.8 0.90000004 1.0 1.1
1.2 1.3000001 -0.3 -0.2 -0.1 0.0 0.1 0.2
0.3 0.4 0.5 0.6 0.7 0.8 0.90000004 1.0
1.1 1.2 1.3000001 -0.3 -0.2 -0.1 0.0 0.1
0.2 0.3 0.4 0.5 0.6 0.7 0.8 0.90000004
1.0 1.1 1.2 1.3000001 -0.3 -0.2 -0.1 0.0
0.1 0.2 0.3 0.4 0.5 0.6 0.7 0.8
0.90000004 1.0 1.1 1.2 1.3000001

layers.2.base_weight f4 [5, 5]
00000000: 3a54 203e 3e21 cc3e c36a ac3e 56e4 05bf
00000010: 0e03 923e 56ca b6be 5314 cdbe d47d 58be
00000020: 9691 113d cd91 ed3d 8ade 15bf 7ba2 1bbf
00000030: 4156 89be 1a4f d13d fe25 2dbf c229 0dbf
00000040: b7cd 0bbf 18ce adbe 147e 283f ef45 d4be
00000050: e935 9c3e 2027 6d3e 18f1 ecbd 2e47 2b3e
00000060: bd4e a1be
0.1565713 0.39869112 0.33675203 -0.5230154 0.28517956 -0.35701245 -0.4005457 -0.2114175
0.035539232 0.11600075 -0.5854269 -0.607948 -0.2682362 0.102201656 -0.67636096 -0.5514184
-0.5461077 -0.339463 0.6581738 -0.41459605 0.3050988 0.23159456 -0.115694225 0.16726372
-0.31505385

layers.2.spline_weight f4 [5, 5, 13]
00000000: 170b 4a3e 83f8 e33d 5bb4 ca3d 5075 c43e
00000010: 746e d83e d2ae 323f ebbd 313f b80b fa3f
00000020: 8269 b43f 823d 823c d822 82ba 0000 0000
00000030: 0000 0000 b375 753d 3e79 d3bd 3a38 ddbd
00000040: 9d92 c3bd 4a73 3abe 2d03 97be 6df1 ddbe
00000050: 5030 05bf 3277 4abf 7a1c 67bf d03c d7bf
00000060: 14d1 a3bf 0000 0000 d186 49be 6e75 d2bd
00000070: ec11 febd 55f9 d9be f6b1 f1be 5efc 57bf
00000080: 6750 19bf fe52 94bf fc65 ce3b 004b 75bb
00000090: 409c b6ba 0000 0000 0000 0000 1b0b c3be
000000a0: 67b8 b3be dbff 493e 0b91 4d3b 08d8 c3bd
000000b0: 6bea dfbe a30d 773f 89df 213e 75d6 e8bb
000000c0: 67c7 3ab9 c14e 0f3a 0000 0000 0000 0000
000000d0: 963c 1dbd b7d2 ebbd bbdb 1abe c513 27be
000000e0: 71df d7be 7aad 04bf 525c 60bf 0459 6fbf
000000f0: 6b13 fdbf 5b62 edbf 4424 48bb 0000 0000
00000100: 0000 0000 a4a7 a2be 3d9c 40be 4baa 1ebe
00000110: 20a7 44be 8fc2 7cbe 1d74 a8be 0c52 f7be
00000120: e972 21bf 952d febe 83dc 1dbd 7286 30b8
00000130: 0000 0000 0000 0000 e88a 913e cb02 223e
00000140: de5a a73d 729c 313d 3025 873d 3f33 2e3e
00000150: 0d96 083e ac85 313e 6562 2a3e 7925 803e
00000160: c377 bcbd 37bb c4bf 0000 0000 73d6 acbe
00000170: e885 3cbe 21d4 48be d737 a5be c68e 61be
00000180: ad03 93bd 62a2 3fba c957 653e eece 15bb
00000190: e648 4dba e3d8 0939 0000 0000 0000 0000
000001a0: 97a6 36be 4a4a 7cbe 1905 7fbe 7661 efbe
000001b0: 7485 02bf 42b7 ebbe 5476 45bf d50e 38be
000001c0: 6826 1b3c 2971 abba 9311 99ba 0000 0000
000001d0: 0000 0000 a2be a3bd f604 15be 207a 87be
000001e0: 4a15 95be 5c0b adbe baea c9be c225 1abf
000001f0: bdd3 0cbf c7c0 24bf cb4e 6abf 377c 57be
00000200: 0000 0000 0000 0000 7cb8 34bd c71a e43d
00000210: 7ab8 243e 9eb3 8d3e 6f33 b23e c952 183f
00000220: 3491 003f 868d df3f 63d0 9b3f 7219 a8bb
00000230: 6505 49bb 0000 0000 0000 0000 905c 713d
00000240: 7f9d 8bbd 5fcf bdbd 9aea 3cbe 6ee0 80be
00000250: d07e 91be 8425 c2be ec1a e2be 6ff3 35bf
00000260: dc04 52bf 3ba6 d3bf 824c 29bf 0000 0000
00000270: f4d7 eabc 5c98 9f3d 2c97 403e 8fb9 ae3e
00000280: e387 b53e 2ebc 3c3f 5464 f13e 37bb 3f3f
00000290: 26ec 01bc a3c3 333b 70f4 c13a 0000 0000
000002a0: 0000 0000 5776 58be 5e44 e0bd 74b4 ae3b
000002b0: 0a5e 6d3e 1dea b53e d078 e03e a1f6 ed3d
000002c0: 0b0a 2cbe a0e2 98ba d248 c6bb f1ce e3ba
000002d0: 0000 0000 0000 0000 f071 0ebd 299e 8abd
000002e0: 923e 1abe 4201 97be dc1c c4be 8fa6 d6be
000002f0: 5b7f 46bf 88ad 53bf 06b5 e4bf 8238 7fbf
00000300: 6f36 453a 0000 0000 0000 0000 7f61 edbb
00000310: b168 cabd 310e 21be 7fbf 93be 3913 b2be
00000320: 0beb 1bbf 468e 03bf eb25 e6bf 88a8 a8bf
00000330: 7c67 c8bb 5429 58b9 0000 0000 0000 0000
00000340: 5807 323d b2bf 18bd 12cf 03be 4485 76be
00000350: 3792 8fbe c276 9abe 134e cbbe a37f e6be
00000360: 3f33 39bf e2f8 55bf 1477 cfbf d2de 11bf
00000370: 0000 0000 d42a 72bd 10b5 853d 7175 5b3e
00000380: a86e bc3e 9430 bf3e a8d4 3b3f d980 fe3e
00000390: 17b5 473f eb40 cebb 002a 91bb 8410 50ba
000003a0: 0000 0000 0000 0000 1bcd 8ebe 207d 3abe
000003b0: 1783 2a3d c4dc cd3e 7a83 d03e 96e8 563f
000003c0: a9d2 d53f 8144 153e 5eb5 fd3b 8087 7b3b
000003d0: 4cfd 8f39 0000 0000 0000 0000 a7f7 213d
000003e0: 9b9c 803d 693c fa3d 9151 983e c758 bc3e
000003f0: 65e4 db3e 3bad 4b3f 21c1 583f f2c0 f23f
0.19730793 0.11131384 0.09897681 0.38370752 0.4227177 0.69798005 0.69430417 1.9534826
1.4094698 0.01589847 -0.0009928597 0.0 0.0 0.0599267 -0.103258595 -0.1080174
-0.09549449 -0.18208042 -0.2949461 -0.43348256 -0.52026844 -0.7908813 -0.90277827 -1.6815434
-1.279818 0.0 -0.19680335 -0.10276304 -0.12405762 -0.42573038 -0.47206086 -0.84369457
-0.5988831 -1.1587827 0.0062987786 -0.0037428737 -0.0013932064 0.0 0.0 -0.3809441
-0.35101625 0.19726507 0.003136697 -0.09562689 -0.43733534 0.96505183 0.15807928 -0.0071056434
-0.00017812625 0.00054667523 0.0 0.0 -0.038387857 -0.115148 -0.15122883 -0.16316135
-0.4216266 -0.51827204 -0.8764087 -0.934952 -1.9771551 -1.8545641 -0.0030539194 0.0
0.0 -0.31768525 -0.188096 -0.15494649 -0.19204378 -0.24683593 -0.32901087 -0.48304784
-0.63065964 -0.4964415 -0.038540374 -4.2086882e-05 0.0 0.0 0.2842629 0.15821378
0.081716284 0.04336209 0.0659889 0.17011736 0.1333849 0.17336148 0.16639097 0.2502859
-0.0920253 -1.5369633 0.0 -0.33757362 -0.18410456 -0.19612171 -0.32269165 -0.2202712
-0.071784355 -0.00073102687 0.22396769 -0.0022858935 -0.0007830992 0.00013146135 0.0 0.0
-0.17836986 -0.24637714 -0.24904288 -0.46754044 -0.50984883 -0.46038252 -0.7713368 -0.17974408
0.009469606 -0.0013079989 -0.0011678211 0.0 0.0 -0.07995345 -0.14552674 -0.2646036
-0.29117805 -0.3379773 -0.39436895 -0.60213864 -0.55010587 -0.64356655 -0.9152648 -0.21043478
0.0 0.0 -0.04412125 0.1113792 0.16085997 0.276761 0.34804866 0.5950132
0.5022156 1.7465065 1.217297 -0.0051299864 -0.0030673381 0.0 0.0 0.058926165
-0.06817149 -0.092680685 -0.18448868 -0.25171226 -0.28417063 -0.37919247 -0.44161165 -0.71074575
-0.82038665 -1.6535105 -0.66132367 0.0 -0.028667428 0.07792732 0.18807667 0.34125945
0.35455236 0.7372464 0.47146857 0.7489504 -0.007929837 0.002742984 0.001479758 0.0
0.0 -0.21138893 -0.1095054 0.0053315703 0.23180404 0.35530177 0.43842173 0.11619306
-0.16800706 -0.0011664219 -0.0060511613 -0.0017380399 0.0 0.0 -0.034776628 -0.06768448
-0.15062931 -0.29493147 -0.38303268 -0.4192395 -0.7753808 -0.8268666 -1.7867744 -0.996956
0.0007523065 0.0 0.0 -0.0072442885 -0.098832496 -0.1572807 -0.28857037 -0.3478029
-0.6090552 -0.5138897 -1.7980322 -1.3176432 -0.006115852 -0.00020614761 0.0 0.0
0.043464035 -0.03729219 -0.1287196 -0.24074274 -0.2804124 -0.3016873 -0.39708003 -0.45019254
-0.7234382 -0.8358289 -1.6208215 -0.5698062 0.0 -0.059122875 0.065286756 0.21431519
0.36803174 0.3734175 0.7337136 0.49707678 0.78010696 -0.00629436 -0.0044300556 -0.00079370313
0.0 0.0 -0.27890858 -0.18211794 0.041628923 0.40207493 0.4072531 0.8394865
1.6704913 0.14576913 0.007742568 0.0038380325 0.00027463806 0.0 0.0 0.03954282
0.0627987 0.122185536 0.2974973 0.36786482 0.4294769 0.79561204 0.8466969 1.8965132

layers.2.spline_scaler f4 [5, 5]
00000000: db46 3b3f 9648 38bf 25e9 2ebf bd5f 0abf
00000010: 5aa5 61bf 0809 16bf 12d0 143f d235 31bf
00000020: 61f0 1abf 453f 10bf 53b1 04bf 8f5a 303f
00000030: eeb5 26bf 658d 243f 51e0 d13e e502 0d3f
00000040: db5c c93e fa6f 06bf eee1 e33e ae37 0ebf
00000050: 1a48 b83e d4a7 603e 7218 f3be d4cd fabe
00000060: 8958 b23d
0.7315499 -0.7198576 -0.683245 -0.54052335 -0.8814293 -0.5860753 0.5812999 -0.6922275
-0.6052304 -0.5634654 -0.51833075 0.6888818 -0.6512135 0.6427825 0.40991452 0.5508254
0.39328656 -0.5251461 0.44508308 -0.5555371 0.3599251 0.21939021 -0.47479588 -0.4898516
0.08708293

layers.2.grid f4 [5, 17]
00000000: 9a99 99be cdcc 4cbe cdcc ccbd 0000 0000
00000010: cdcc cc3d cdcc 4c3e 9a99 993e cdcc cc3e
00000020: 0000 003f 9a99 193f 3333 333f cdcc 4c3f
00000030: 6766 663f 0000 803f cdcc 8c3f 9a99 993f
00000040: 6766 a63f 9a99 99be cdcc 4cbe cdcc ccbd
00000050: 0000 0000 cdcc cc3d cdcc 4c3e 9a99 993e
00000060: cdcc cc3e 0000 003f 9a99 193f 3333 333f
00000070: cdcc 4c3f 6766 663f 0000 803f cdcc 8c3f
00000080: 9a99 993f 6766 a63f 9a99 99be cdcc 4cbe
00000090: cdcc ccbd 0000 0000 cdcc cc3d cdcc 4c3e
000000a0: 9a99 993e cdcc cc3e 0000 003f 9a99 193f
000000b0: 3333 333f cdcc 4c3f 6766 663f 0000 803f
000000c0: cdcc 8c3f 9a99 993f 6766 a63f 9a99 99be
000000d0: cdcc 4cbe cdcc ccbd 0000 0000 cdcc cc3d
000000e0: cdcc 4c3e 9a99 993e cdcc cc3e 0000 003f
000000f0: 9a99 193f 3333 333f cdcc 4c3f 6766 663f
00000100: 0000 803f cdcc 8c3f 9a99 993f 6766 a63f
00000110: 9a99 99be cdcc 4cbe cdcc ccbd 0000 0000
00000120: cdcc cc3d cdcc 4c3e 9a99 993e cdcc cc3e
00000130: 0000 003f 9a99 193f 3333 333f cdcc 4c3f
00000140: 6766 663f 0000 803f cdcc 8c3f 9a99 993f
00000150: 6766 a63f
-0.3 -0.2 -0.1 0.0 0.1 0.2 0.3 0.4
0.5 0.6 0.7 0.8 0.90000004 1.0 1.1 1.2
1.3000001 -0.3 -0.2 -0.1 0.0 0.1 0.2 0.3
0.4 0.5 0.6 0.7 0.8 0.90000004 1.0 1.1
1.2 1.3000001 -0.3 -0.2 -0.1 0.0 0.1 0.2
0.3 0.4 0.5 0.6 0.7 0.8 0.90000004 1.0
1.1 1.2 1.3000001 -0.3 -0.2 -0.1 0.0 0.1
0.2 0.3 0.4 0.5 0.6 0.7 0.8 0.90000004
1.0 1.1 1.2 1.3000001 -0.3 -0.2 -0.1 0.0
0.1 0.2 0.3 0.4 0.5 0.6 0.7 0.8
0.90000004 1.0 1.1 1.2 1.3000001

layers.3.base_weight f4 [2, 5]
00000000: d0ab 4a3f 3de8 073f 58d8 6abf 8a3e 4abf
00000010: 2c54 2fbf 88fd 2f3e bd64 3fbf 597f c43d
00000020: 985c 103e be7c 113f
0.79168415 0.5308874 -0.91736364 -0.7900168 -0.6848781 0.17186558 -0.7476309 0.09594602
0.14097822 0.56830966

layers.3.spline_weight f4 [2, 5, 13]
00000000: bc9e 183d 4107 833d 5cec e03d 7169 403e
00000010: 5d8c 453e bc2e 513e 4339 433e 380b 443e
00000020: 5a36 6c3e 6979 993e a650 043f 9076 643f
00000030: 33ac 953f bd9f f93d 1ce2 1a3e c273 693e
00000040: da40 b13e 96a0 ff3e c77d 4b3f 8d44 813f
00000050: 6e22 d2bd 9032 e5be 06d5 e5bd 694c 363f
00000060: 0000 0000 0000 0000 9c2c ca3d 7c42 273d
00000070: 4627 253b 236b 8fbe 56fa c8be 59e6 35be
00000080: b703 9ebb c88e 6b3b 73c9 a03b 9bd2 89ba
00000090: 1d9f 0dba 0000 0000 0000 0000 f187 ef3d
000000a0: 6ccc 553d 2633 36bc 3981 77be 4f02 2fbf
000000b0: ca8b 48bf d88a 2abf 6509 973d 164d d8bb
000000c0: d0f8 6a3b 6ca7 c33a 0000 0000 0000 0000
000000d0: 4ce9 ed3e 2ef4 9c3e cc4b 163d 7090 af3c
000000e0: 6e60 a7bb c4a8 d4bb 8f78 1b3c 34d2 ceba
000000f0: 2ee2 c63b b5e2 70bb b06b c5ba 0000 0000
00000100: 0000 0000 5b90 20bd aa75 8bbd 3182 1cbe
00000110: 6994 a2be fe33 9bbe 846e 69be bc04 dfbd
00000120: 5d6e 09bb 94f7 d73d 029a 573e a398 c63e
00000130: 71d5 153f b58b 293f 5b43 eb3c 23f0 8e3d
00000140: e4ea fc3d 90c5 1b3e 5930 c63d 12d5 613e
00000150: 255a de3e c41d 983e d363 b93e 186b 3d3f
00000160: 1e41 f83f 0000 0000 0000 0000 0738 32be
00000170: 46b1 debd 3e83 11be 31cd e1be 5e67 2bbf
00000180: 215d 17bf 6c63 0d3c f70e 1abb 66c8 283b
00000190: 222e c03b 13aa a83a 0000 0000 0000 0000
000001a0: 8ef0 5f3e 44c8 1d3e 7bfd 383e 4aa8 a53e
000001b0: b28f 9a3e 825a 233e cb9b 00bf 3282 553f
000001c0: 50b7 d3bb 7c15 77b9 84f6 cd39 0000 0000
000001d0: 0000 0000 9c46 743e 5e0e 8b3d 52f4 013d
000001e0: 19c5 3b3c 2ba3 cabb 8a67 c23b 5a73 8ebb
000001f0: 43b9 e53b 1a03 58bb 2b2a 43bb bb74 ceb9
00000200: 0000 0000 0000 0000
0.037260756 0.06397868 0.10982582 0.18790223 0.19291826 0.20427984 0.19064812 0.19144905
0.23067608 0.2997544 0.5168556 0.8924341 1.1693176 0.12188671 0.15125316 0.22798064
0.3461979 0.49927205 0.79488796 1.0099045 -0.10260473 -0.4476514 -0.112222716 0.7121034
0.0 0.0 0.0987179 0.04083489 0.002520041 -0.28011426 -0.3925349 -0.17763652
-0.00482222 0.0035943259 0.004906827 -0.0010515036 -0.0005402433 0.0 0.0 0.11695851
0.052196905 -0.011120593 -0.24170388 -0.683629 -0.783383 -0.6661811 0.07374839 -0.0066009862
0.003585387 0.0014927215 0.0 0.0 0.46467054 0.30655044 0.03669338 0.021431178
-0.005107931 -0.006489845 0.009489193 -0.0015779198 0.006069443 -0.0036756222 -0.0015062001 0.0
0.0 -0.039200168 -0.06809552 -0.15284039 -0.31753853 -0.30313104 -0.22796065 -0.10889575
-0.0020970323 0.10545269 0.21054843 0.38788328 0.5852881 0.662288 0.028718641 0.06979396
0.12349489 0.15212083 0.0967719 0.22053936 0.4342815 0.2971021 0.36208972 0.7399154
1.9394872 0.0 0.0 -0.17404185 -0.10873656 -0.14210221 -0.4410186 -0.669546
-0.5912648 0.008629661 -0.0023507455 0.0025754212 0.0058648745 0.0012868069 0.0 0.0
0.21869108 0.15408427 0.18065445 0.32354957 0.30187756 0.15952495 -0.5023772 0.8340179
-0.0064610615 -0.00023563759 0.00039284315 0.0 0.0 0.2385506 0.0678985 0.031727143
0.011460566 -0.006184002 0.005932753 -0.004347247 0.0070106103 -0.0032960833 -0.0029779773 -0.00039378353
0.0 0.0

layers.3.spline_scaler f4 [2, 5]
00000000: 8fb9 393f eb80 273f ec41 153e 9f1f 533e
00000010: f105 563f 0c88 403f 4545 abbe d0bb 033f
00000020: 8103 9ebe c407 07bf
0.72548765 0.6543109 0.14575928 0.20617531 0.83602816 0.7520759 -0.33451286 0.51458454
-0.30862048 -0.52746224

layers.3.grid f4 [5, 17]
00000000: 9a99 99be cdcc 4cbe cdcc ccbd 0000 0000
00000010: cdcc cc3d cdcc 4c3e 9a99 993e cdcc cc3e
00000020: 0000 003f 9a99 193f 3333 333f cdcc 4c3f
00000030: 6766 663f 0000 803f cdcc 8c3f 9a99 993f
00000040: 6766 a63f 9a99 99be cdcc 4cbe cdcc ccbd
00000050: 0000 0000 cdcc cc3d cdcc 4c3e 9a99 993e
00000060: cdcc cc3e 0000 003f 9a99 193f 3333 333f
00000070: cdcc 4c3f 6766 663f 0000 803f cdcc 8c3f
00000080: 9a99 993f 6766 a63f 9a99 99be cdcc 4cbe
00000090: cdcc ccbd 0000 0000 cdcc cc3d cdcc 4c3e
000000a0: 9a99 993e cdcc cc3e 0000 003f 9a99 193f
000000b0: 3333 333f cdcc 4c3f 6766 663f 0000 803f
000000c0: cdcc 8c3f 9a99 993f 6766 a63f 9a99 99be
000000d0: cdcc 4cbe cdcc ccbd 0000 0000 cdcc cc3d
000000e0: cdcc 4c3e 9a99 993e cdcc cc3e 0000 003f
000000f0: 9a99 193f 3333 333f cdcc 4c3f 6766 663f
00000100: 0000 803f cdcc 8c3f 9a99 993f 6766 a63f
00000110: 9a99 99be cdcc 4cbe cdcc ccbd 0000 0000
00000120: cdcc cc3d cdcc 4c3e 9a99 993e cdcc cc3e
00000130: 0000 003f 9a99 193f 3333 333f cdcc 4c3f
00000140: 6766 663f 0000 803f cdcc 8c3f 9a99 993f
00000150: 6766 a63f
-0.3 -0.2 -0.1 0.0 0.1 0.2 0.3 0.4
0.5 0.6 0.7 0.8 0.90000004 1.0 1.1 1.2
1.3000001 -0.3 -0.2 -0.1 0.0 0.1 0.2 0.3
0.4 0.5 0.6 0.7 0.8 0.90000004 1.0 1.1
1.2 1.3000001 -0.3 -0.2 -0.1 0.0 0.1 0.2
0.3 0.4 0.5 0.6 0.7 0.8 0.90000004 1.0
1.1 1.2 1.3000001 -0.3 -0.2 -0.1 0.0 0.1
0.2 0.3 0.4 0.5 0.6 0.7 0.8 0.90000004
1.0 1.1 1.2 1.3000001 -0.3 -0.2 -0.1 0.0
0.1 0.2 0.3 0.4 0.5 0.6 0.7 0.8
0.90000004 1.0 1.1 1.2 1.3000001
