KINN/Plate_hole/PINNs/model/model2_mlp.pth (torch, 15138 bytes, 9 tensors)

linear1.weight f4 [30, 2]
0	0x3f31fd6a	0.69527304
1	0xbe59b807	-0.21261607
2	0x3e78acfd	0.2428474
3	0xbe3d24cb	-0.18471067
4	0x3de7c356	0.11316554
5	0xbe553b3f	-0.20823382
6	0xbee984c2	-0.456091
7	0x3ebe915b	0.37220272
8	0xbe71081b	-0.23538248
9	0x3e9dc22d	0.30812207
10	0x3e7501ea	0.23926511
11	0xbe9d5a4d	-0.30732957
12	0x3deed635	0.116619505
13	0x3c44e3df	0.012017219
14	0xbe5658c2	-0.20932296
15	0xbe581aee	-0.21104023
16	0xbe197f52	-0.14989975
17	0xbf198a9a	-0.59977114
18	0xbe71082c	-0.23538274
19	0x3d9e2703	0.07722285
20	0xbebb74ee	-0.36612648
21	0x3eab7ece	0.33495182
22	0x3ebb5be9	0.3659356
23	0xbef3d530	-0.47623587
24	0xbe616c0e	-0.22013876
25	0xbe0e3236	-0.13886341
26	0x3a7e6a82	0.0009705202
27	0xbd8afb58	-0.06786221
28	0x3dc74905	0.09730724
29	0xbceae18b	-0.028672
30	0x3ebcc48b	0.368687
31	0xbeac83e5	-0.33694378
32	0xbe50ffa4	-0.20410019
33	0x3dba95e3	0.0911062
34	0x3f0507cb	0.51965016
35	0xbbb3e212	-0.005489596
36	0xbdc38151	-0.095461495
37	0x3f31b662	0.6941892
38	0xbe2c5412	-0.16828945
39	0xbd99b1ac	-0.07504591
40	0x3d20fa0a	0.039300956
41	0x3dc3eca9	0.09566624
42	0x3e6097d5	0.2193292
43	0xbe006393	-0.12537985
44	0xbeb8c6e7	-0.3608925
45	0x3e046d90	0.1293242
46	0x3eb64480	0.35599136
47	0x3d23dbb5	0.04000445
48	0x3d84bffe	0.06481932
49	0x3e06df9f	0.13171242
50	0xbec23c3b	-0.37936577
51	0xbe8cc5de	-0.2749471
52	0x3ea9ea17	0.3318641
53	0x3db9c8e2	0.090715185
54	0x3e05d955	0.13071187
55	0xbce4a4d9	-0.027910637
56	0xbe4c7d25	-0.19969614
57	0xbe82aa12	-0.25520378
58	0xbde6a14e	-0.11261235
59	0x3e435cee	0.19078419

linear1.bias f4 [30]
0	0x3e594cd9	0.21220721
1	0x3e1f1451	0.15535094
2	0xbf11a98a	-0.5689932
3	0xbd41512c	-0.047196552
4	0xbe97b67c	-0.29631412
5	0xbf92cb2b	-1.1468252
6	0x3fe1db2f	1.7645015
7	0xbe5d791e	-0.21628234
8	0xbf048d74	-0.5177834
9	0xbf04f2e5	-0.5193313
10	0xbf4d03ae	-0.8008374
11	0x3f0262ba	0.50931895
12	0x3f2093e8	0.6272569
13	0x3f354f01	0.70823675
14	0xbfa056bc	-1.2526469
15	0xbee59ea0	-0.44847584
16	0xbfffe922	-1.9993021
17	0x3e596721	0.21230747
18	0x3f60320a	0.87576354
19	0xbe4bcaa5	-0.19901522
20	0xbedd90c8	-0.43274522
21	0xbf92a847	-1.1457604
22	0xbee9387e	-0.45550913
23	0x3e6537e5	0.22384603
24	0xbf9158d2	-1.1355231
25	0xbe35e5eb	-0.17763488
26	0xbf5d4125	-0.8642753
27	0x3d7972b9	0.060900424
28	0xbfbd5282	-1.4790804
29	0x3f2ca1cb	0.67434376

linear2.weight f4 [30, 30]
0	0x3db0bc87	0.08629709
1	0xbbcd72c8	-0.0062697865
2	0x3e01235e	0.12611148
3	0xbc6b39a8	-0.014357008
4	0x3e43968c	0.19100398
5	0xbe66593d	-0.22494979
6	0x3e4548cc	0.19266051
7	0xbd382fa5	-0.044967312
8	0x3dc5abd4	0.09651914
9	0x3e83c315	0.25734773
10	0xbdeb3a6f	-0.11485755
11	0x3bb8a3da	0.005634767
12	0x3d4c8a7a	0.04993675
13	0x3d0254c3	0.031819116
14	0xbe088cd9	-0.13334979
15	0x3d07712e	0.03306692
16	0x3e139e59	0.14415874
17	0x3de3a65f	0.11115717
18	0xbdf2877e	-0.11842249
19	0xbd1f03ea	-0.038822092
20	0x3e13b62a	0.14424959
21	0xbdd2d73d	-0.1029496
22	0x3e75b1e9	0.23993649
23	0xbd3225dc	-0.043493137
24	0x3e9b812c	0.30371988
25	0xbdd74456	-0.10511081
26	0x3c801c6f	0.015638558
27	0xbe1fbda9	-0.15599693
28	0x3e40a699	0.18813552
29	0xbe1023b5	-0.14076121
30	0xbeb11c5c	-0.3459195
31	0xbe438dc4	-0.19097048
32	0x3dc8609c	0.09784052
33	0x3eb04de8	0.34434438
34	0x3d08756d	0.03331511
35	0x3f1045c0	0.5635643
36	0x3daf68fa	0.085649446
37	0x3e342304	0.17591482
38	0x3e16b687	0.14718066
39	0xbe826707	-0.2546923
40	0x3c294270	0.010330781
41	0xbdf134b3	-0.1177763
42	0xbd64f950	-0.055901825
43	0xbe781e3a	-0.2423028
44	0xbdb34b65	-0.08754615
45	0xbdd3f4d2	-0.1034943
46	0xbd1dccb1	-0.038525287
47	0xbe036656	-0.12832007
48	0xbe1315ca	-0.1436378
49	0x3e9b43d3	0.30325183
50	0xbcbf3b1c	-0.023343615
51	0xbe09cbf9	-0.13456716
52	0xbc947ebb	-0.018126836
53	0xbed5be6b	-0.4174684
54	0x3d6c8610	0.05774504
55	0x3e3c0cd7	0.18364273
56	0x3d81e381	0.06342221
57	0xbef77037	-0.483278
58	0x3e3b0925	0.18265207
59	0xbdffe820	-0.12495446
60	0x3da3db5e	0.08000825
61	0x3da6d058	0.08145207
62	0xbeac4e0d	-0.33653298
63	0x3df880cc	0.12133941
64	0xbe8f9b4b	-0.28048167
65	0xbe048d5c	-0.1294455
66	0xbd7d7169	-0.061875734
67	0x3d8ef6fe	0.06980704
68	0xbe28e19c	-0.16492313
69	0xbd0abb41	-0.033869985
70	0x3e87977b	0.26482758
71	0x3e1d2b4b	0.15348546
72	0xbe0bf8b3	-0.1366909
73	0xbd35fa65	-0.044428248
74	0x3d711d88	0.058866054
75	0xbeb3a8fb	-0.3508986
76	0x3e65792a	0.22409502
77	0x3d88bac7	0.0667625
78	0x3c25d81a	0.010122323
79	0xbe01abce	-0.12663195
80	0x3e223976	0.15842232
81	0x3e655b2e	0.22398064
82	0x3e9e1931	0.30878595
83	0xbd73da85	-0.05953457
84	0x3e914d50	0.28379297
85	0x3d8297ad	0.06376586
86	0xbe864f48	-0.26232362
87	0xbd89d9ce	-0.06730996
88	0xbcf5c6e9	-0.030002074
89	0xbe1c0cef	-0.15239309
90	0xbe3f9732	-0.1871002
91	0xbc1f5900	-0.009725809
92	0xbe17758d	-0.14790936
93	0xbe029b05	-0.12754448
94	0xbe6a8f05	-0.2290612
95	0xbeb5098a	-0.3535884
96	0xbddaec46	-0.10689597
97	0x3d0ea2da	0.034823276
98	0x3dfd5934	0.1237053
99	0x3e528f02	0.20562366
100	0x3dffed20	0.124964
101	0xba8a2174	-0.0010538534
102	0xbe42c8c0	-0.19021893
103	0x3cada87f	0.02119851
104	0xbcc22f3a	-0.02370416
105	0xbaad1e5b	-0.0013207899
106	0xbe168a96	-0.14701304
107	0x3e97f3e3	0.29678258
108	0x3dd433f9	0.103614755
109	0xbd758de8	-0.059949785
110	0xbdbfee54	-0.09371629
111	0xbec4b065	-0.38415828
112	0x3e163f30	0.14672542
113	0xbe643b68	-0.22288287
114	0xbd32b341	-0.04362798
115	0xbd844ea7	-0.06460314
116	0x3e4481a4	0.19190079
117	0xbc34032f	-0.010987087
118	0xbc21ea75	-0.009882559
119	0x3dadfb4f	0.08495199
120	0xbe42cf17	-0.19024311
121	0x3e4f532c	0.20246571
122	0x3db2479e	0.08705066
123	0xbeac3b6e	-0.3363909
124	0x3e4f0012	0.2021487
125	0xbe326c1f	-0.17424057
126	0x3db35bf4	0.08757773
127	0x3eb8b779	0.3607748
128	0xbd9a798c	-0.075427145
129	0x3e995687	0.29948828
130	0xbc9ec829	-0.019382553
131	0x3dc3788d	0.095444776
132	0xbeb95cf6	-0.36203736
133	0x3e724464	0.23658901
134	0x3d93fd9c	0.072261065
135	0x3b9a9310	0.0047172382
136	0x3e534750	0.20632672
137	0x3dc0f8b6	0.09422438
138	0xbeb59f22	-0.3547297
139	0xbec5d773	-0.38640937
140	0x3ed8b159	0.42322806
141	0xbe019d39	-0.12657632
142	0xbe2d845a	-0.1694502
143	0xbe057c3a	-0.1303567
144	0x3e7742fd	0.24146648
145	0xbc75906c	-0.014988046
146	0xbe5f5c2b	-0.21812503
147	0xbd3b1fa3	-0.045684468
148	0xbec30b7a	-0.38094693
149	0x3d91d7f5	0.07121269
150	0x3e8313d3	0.25601062
151	0x3dae222b	0.08502611
152	0x3db7d42f	0.08976018
153	0x3d4265f1	0.0474605
154	0x3d227bf3	0.03966899
155	0x3e8718eb	0.26386198
156	0x3df03a00	0.117298126
157	0xbe1446ae	-0.14480087
158	0xbe795bbf	-0.24351405
159	0xbd1017b9	-0.035178874
160	0x3d05ec73	0.0326962
161	0x3d9e89bd	0.07741115
162	0xbee38b3b	-0.44442162
163	0xbed139bd	-0.40864363
164	0xbd7fd2c3	-0.062456857
165	0x3d5afbfe	0.053462975
166	0xbcdf47ac	-0.027255856
167	0x3e2fe71f	0.1717801
168	0xbb9c2f2c	-0.0047663655
169	0x3e372988	0.17886937
170	0x3e09535d	0.13410707
171	0xbea35970	-0.31904173
172	0xbcb36a23	-0.021901196
173	0xbea97ffd	-0.3310546
174	0x3e2871e3	0.16449694
175	0xbeb83dc2	-0.35984617
176	0xbe6e1e9f	-0.23253869
177	0xbe29d777	-0.165861
178	0x3e4fd07d	0.20294376
179	0x3dbcb77c	0.09214684
180	0xbe43fb4d	-0.19138832
181	0xbe15a9bf	-0.14615534
182	0x3e2c7645	0.16841991
183	0xbe47adc6	-0.19499883
184	0xbdbc3aaf	-0.091908805
185	0x3e75182c	0.23935002
186	0xbedbec21	-0.4295359
187	0xbdcc7c5a	-0.09984656
188	0x3ddcf849	0.10789544
189	0x3e86aae1	0.26302245
190	0xbca76de5	-0.020438144
191	0xbd7de51a	-0.061986066
192	0xbd544c4e	-0.051830582
193	0xbde0fe72	-0.109860316
194	0xbeb62755	-0.35576883
195	0xbda6707d	-0.08126924
196	0xbe2ad503	-0.1668282
197	0x3de28ffb	0.11062618
198	0x3d7fa389	0.06241182
199	0xbe8ef0cb	-0.27918085
200	0xbc397629	-0.0113196755
201	0x3df4650c	0.11933336
202	0x3e699b24	0.22813088
203	0x3ec8cab9	0.39217165
204	0x3e12457c	0.14284319
205	0x3dda7bc2	0.10668136
206	0x3c607146	0.0136988815
207	0xbd523d5e	-0.051328056
208	0xbeadfc1d	-0.3398141
209	0x3d54f524	0.051991597
210	0xbe4de18e	-0.20105574
211	0xbe013ddd	-0.12621255
212	0xbddf324d	-0.10898266
213	0xbde65304	-0.11246303
214	0xbdb2f056	-0.08737247
215	0x3c030f05	0.007999186
216	0xbe564a41	-0.20926763
217	0x3db0940d	0.086219884
218	0xbeaa47fe	-0.3325805
219	0xbddd415c	-0.10803482
220	0xbd75a3df	-0.059970733
221	0x3dc8be31	0.09801901
222	0x3c311363	0.010807845
223	0x3d22287a	0.039589383
224	0x3ecf1d7e	0.40452188
225	0x3c478dbc	0.012179788
226	0xbd216541	-0.039403204
227	0xbcaa6c80	-0.02080369
228	0xbe2ff4cf	-0.17183231
229	0x3d71a6a3	0.058996808
230	0xbeae831d	-0.34084406
231	0x3e66d6f2	0.22542933
232	0x3da9703e	0.082733616
233	0x3da8a592	0.08234705
234	0x3d56a748	0.052405626
235	0xbd135126	-0.03596606
236	0xbd102e54	-0.035200432
237	0x3e51b40e	0.20478842
238	0x3e011eda	0.12609425
239	0x3d8c1291	0.06839479
240	0x3dd7f0d6	0.10543983
241	0xbe4c2b39	-0.19938363
242	0x3d913783	0.07090666
243	0x3ea98530	0.33109426
244	0xbe8a0525	-0.2695705
245	0x3d387c2a	0.045040287
246	0x3cc7890b	0.02435734
247	0x3e7c18c5	0.24618824
248	0xbd92aef1	-0.07162274
249	0xbe64bf2b	-0.2233855
250	0x3e297eac	0.16552228
251	0xbd27240d	-0.040805865
252	0xbdd5d048	-0.10440117
253	0x3c9974fc	0.01873254
254	0x3ed9938c	0.42495382
255	0xbd02c38e	-0.031924777

linear2.bias f4 [30]
0	0x3fc9421f	1.5723304
1	0x3f96927a	1.1763451
2	0xbf6895be	-0.9085349
3	0xbd71f44a	-0.059070863
4	0x40474f50	3.1142159
5	0x3f2ca8e6	0.6744522
6	0xbee12ccb	-0.43979487
7	0xbe4ab2c0	-0.1979475
8	0xbf811729	-1.0085193
9	0xbe9774bc	-0.2958125
10	0xbf843785	-1.0329443
11	0xbdd87644	-0.105694324
12	0xbc970f30	-0.01843986
13	0xbf90b0a4	-1.1303906
14	0xbf1a625d	-0.6030634
15	0x3ef35c41	0.47531322
16	0x3f8ed38f	1.1158313
17	0xbef7696c	-0.48322618
18	0x3f882245	1.0635458
19	0xbdf2cc15	-0.11855332
20	0xc037c19c	-2.871192
21	0xbf0c9ec7	-0.54929775
22	0xbe89f757	-0.26946518
23	0xbcab81d6	-0.020935934
24	0x3e8cc436	0.27493447
25	0xbefc186c	-0.49237382
26	0xbeae0652	-0.33989197
27	0x3ef92171	0.48658326
28	0xbfb64bc4	-1.4241872
29	0x3f3efa4e	0.74600685

linear3.weight f4 [30, 30]
0	0xbcc3842c	-0.023866735
1	0xbe03b8c7	-0.12863456
2	0xbd3476a4	-0.044058457
3	0x3dc6ebf7	0.097129755
4	0x3e8a2824	0.2698375
5	0xbe175223	-0.14777426
6	0xbe0f1e4c	-0.13976401
7	0xbe288e17	-0.16460453
8	0x3ea12eb5	0.31480947
9	0xbdbdcc3c	-0.0926747
10	0xbd9dd4a1	-0.07706571
11	0x3dacfa03	0.084461235
12	0x3d73fe09	0.05956844
13	0x3c80906f	0.015693871
14	0x3e81fb6b	0.2538713
15	0xbd8b2a68	-0.06795198
16	0x3e09a1bf	0.13440607
17	0xbc9fbb7e	-0.019498583
18	0xbe3b3972	-0.18283632
19	0xbd1c65c0	-0.038182974
20	0x3db463a0	0.088080645
21	0xbd5a96b6	-0.053366385
22	0xbda2dae9	-0.0795191
23	0x3e1939d5	0.14963467
24	0x3ef15490	0.4713483
25	0x3edcf4cf	0.43155524
26	0x3ddcd68d	0.1078311
27	0xbe84fa2f	-0.25972125
28	0xbe48abb1	-0.19596745
29	0xbda87e67	-0.08227234
30	0xbe3c7a0b	-0.1840593
31	0x3deab74c	0.11460742
32	0xbd737224	-0.059435025
33	0x3da472eb	0.08029731
34	0x3e91a405	0.2844545
35	0xbe14475a	-0.14480343
36	0x3e2c9924	0.16855294
37	0xbd7bc17b	-0.061463814
38	0x3e7ea89b	0.24869005
39	0x3d7e3a19	0.062067125
40	0xbe2f41e9	-0.17114986
41	0xbc9b7c0a	-0.018980045
42	0x3e00b121	0.1256757
43	0x3b779f7c	0.003778427
44	0x3d602f94	0.054732874
45	0x3e4c6730	0.19961238
46	0x3ddcc0c9	0.10778958
47	0xbdad4422	-0.08460261
48	0xbc2d4779	-0.010576122
49	0xbe935f98	-0.2878387
50	0xbe9eddb4	-0.3102852
51	0x3d884e99	0.06655616
52	0xbd998245	-0.0749555
53	0x3e004216	0.1252521
54	0x3e46e94b	0.19424932
55	0xbe10e890	-0.14151216
56	0x3de1e4d3	0.11029973
57	0x3e6b8bb8	0.23002517
58	0x3d95bf7a	0.07311912
59	0xbae57445	-0.0017505964
60	0x3cdf2377	0.02723859
61	0xbd5f8a22	-0.054575093
62	0xbdb57a01	-0.08861161
63	0xbe34e577	-0.17665659
64	0x3b56bc94	0.003276621
65	0x3e8c7483	0.2743264
66	0xbeaa4d75	-0.3326222
67	0x3dbb1f20	0.09136796
68	0x3e167aea	0.14695325
69	0xbdc76fcc	-0.097381204
70	0xbebf6797	-0.3738372
71	0xbe36fd90	-0.17870164
72	0x395e9ec7	0.00021230719
73	0xbe84a61e	-0.25907987
74	0xbe8293cd	-0.25503388
75	0x3ea2046f	0.31644008
76	0xbea851f6	-0.3287503
77	0xbe3fd94f	-0.1873524
78	0xbe4125ff	-0.1886215
79	0xbd7ecbf3	-0.06220622
80	0xbe0008be	-0.12503335
81	0xbd95e033	-0.07318153
82	0xbd440acd	-0.047861863
83	0x3e75fe15	0.24022706
84	0xbeae0759	-0.3398998
85	0x3e8f43a6	0.279813
86	0x3e9d9100	0.3077469
87	0x3ca04220	0.01956278
88	0xbe041d52	-0.1290181
89	0xbe0ca832	-0.13736036
90	0xbd429b00	-0.0475111
91	0x3e81158a	0.25211746
92	0xbe7bdac2	-0.24595168
93	0xbcfaa63e	-0.030596849
94	0xbe0e670c	-0.13906497
95	0x3daea510	0.08527577
96	0x3e521ddd	0.20519204
97	0xbe969904	-0.29413617
98	0x3c34f16f	0.01104389
99	0x3d3a40d9	0.045472
100	0x3ea775b0	0.32706976
101	0x3dbae909	0.09126479
102	0x3d86c398	0.06580275
103	0x3e4ae9dc	0.19815773
104	0x3ebf5d5a	0.3737591
105	0xbbf6ecf6	-0.007535572
106	0xbe3c9385	-0.18415649
107	0xbe56837c	-0.20948595
108	0x3c82e986	0.015980493
109	0x3cf6040e	0.03003123
110	0x3ddc7cb7	0.10765975
111	0x3e6e6be1	0.2328334
112	0x3e521836	0.20517048
113	0x3eb42d44	0.35190785
114	0x3e8aecd6	0.27133816
115	0x3e5998a5	0.21249636
116	0xbdadaf57	-0.08480709
117	0xbe1f7457	-0.15571724
118	0x3e411ae4	0.18857914
119	0x3e84c9c6	0.2593519
120	0x3e32a3df	0.17445324
121	0x3c004cec	0.00783084
122	0xbcd92470	-0.026506633
123	0x3dcf254c	0.10114536
124	0x3e19cf60	0.15020514
125	0xbe27a677	-0.16372095
126	0xbdbb5095	-0.09146229
127	0xbe90194a	-0.28144294
128	0xbe4abe98	-0.19799268
129	0xbe52a10a	-0.20569244
130	0xbe69e3c7	-0.22840796
131	0x3e4b4cb2	0.19853476
132	0x3d8d05ee	0.068858966
133	0x3e86a9ab	0.2630132
134	0xbc3db54d	-0.01157887
135	0xbdbd60f6	-0.092470095
136	0xbd82d94c	-0.06389102
137	0xbe1127a5	-0.1417528
138	0xbe0cee76	-0.1376284
139	0xbe034a86	-0.12821397
140	0xbe57398d	-0.21018048
141	0x3d6f0c22	0.05836118
142	0xbdc82e3f	-0.09774446
143	0xbe2a6729	-0.16640915
144	0xbe6ca2a5	-0.23108919
145	0x3ec11cc3	0.37717256
146	0xbea855da	-0.32878
147	0xbd129571	-0.03578705
148	0x3d93a181	0.07208539
149	0x3b46b867	0.0030322315
150	0xbeeea797	-0.46612236
151	0xbda11064	-0.078644544
152	0x3cb70032	0.02233896
153	0xbe574b5d	-0.21024843
154	0x3e5f5d58	0.21812952
155	0xbcda7396	-0.026666444
156	0xbd5cef90	-0.053939402
157	0xbf0fcc2a	-0.56170905
158	0xbd712c90	-0.05888039
159	0x3e212375	0.15736182
160	0xbe561d7f	-0.2090969
161	0xbefb4969	-0.49079445
162	0xbe99efd5	-0.3006579
163	0x3d15285a	0.036415435
164	0x3e48a7ce	0.19595262
165	0x3e584db6	0.21123394
166	0x3e696055	0.22790654
167	0xbe6f0d60	-0.23344946
168	0xbe1080d1	-0.1411164
169	0x3e02cfac	0.12774533
170	0xbe894778	-0.2681234
171	0x3e131f78	0.14367473
172	0x3d13236a	0.035922445
173	0x3d160301	0.03662396
174	0xbe444f71	-0.1917093
175	0xbdc0dcb3	-0.09417095
176	0x3e034901	0.12820818
177	0x3eb3eb5f	0.3514051
178	0xbe12fe81	-0.14354898
179	0xbd29cd8d	-0.041455794
180	0xbbcecd54	-0.006311098
181	0xbd2a0720	-0.0415107
182	0x3e91f879	0.28509882
183	0xbd0eeed4	-0.034895733
184	0x3da50ebb	0.0805945
185	0xbc770830	-0.015077636
186	0x3e10ff8e	0.14159986
187	0x3e957881	0.291935
188	0xbf01f7f1	-0.50768954
189	0xbdd00eba	-0.10159059
190	0x3e6c6bde	0.23088023
191	0xbda1f9f1	-0.07909001
192	0x3d5ea802	0.054359443
193	0x3dd4d3b5	0.103919424
194	0x3e92e8a5	0.2869312
195	0xbe0011d9	-0.12506808
196	0x3e13ae47	0.1442195
197	0xbdffbc8f	-0.124871366
198	0x3db337e2	0.08750893
199	0xbe6a7b8a	-0.22898689
200	0xbec471d4	-0.38368094
201	0x3eb1bde1	0.3471518
202	0x3dc003a5	0.09375695
203	0xbd7ee0e6	-0.0622262
204	0x3d232963	0.03983439
205	0x3de86d13	0.11348929
206	0x3d50df1e	0.05099403
207	0x3d9bc1ad	0.076053
208	0xbd8c8f04	-0.068632156
209	0xbc867944	-0.016415246
210	0x3db48c13	0.088157795
211	0x3e167f5e	0.14697024
212	0xbdb1f61e	-0.08689521
213	0x3d2ce1cc	0.042207524
214	0x3e82ce59	0.25548056
215	0xbd0d39c0	-0.034478903
216	0xbc097d2c	-0.00839166
217	0x3e3e5468	0.18586886
218	0x3d9b6601	0.07587815
219	0xbc98b6f1	-0.01864192
220	0xbe250435	-0.16114886
221	0x3e834a62	0.25642687
222	0xbea9eb0a	-0.33187133
223	0xbec41621	-0.38298133
224	0x3ebb4a08	0.3657992
225	0xbc8a544c	-0.016885899
226	0xbebc1ea3	-0.36742124
227	0xbe3a1e34	-0.18175584
228	0xbe8e13fc	-0.27749622
229	0xbe4588b9	-0.19290437
230	0x3d01025b	0.031496387
231	0xbe91c299	-0.2846878
232	0x3df7ec56	0.121056244
233	0xbe00ea56	-0.12589392
234	0xbe824f67	-0.25451204
235	0x3e5b81be	0.21436211
236	0x3e89da4d	0.26924363
237	0x3ce2f9ff	0.027707098
238	0xbdf0d1b0	-0.11758745
239	0x3e46641f	0.1937413
240	0xbd3c5c84	-0.045986667
241	0x3e31eab2	0.17374685
242	0x3c985564	0.018595405
243	0x3cb25516	0.021769088
244	0xbeb947bc	-0.3618754
245	0xbe73b236	-0.23798451
246	0x3e63d685	0.22249801
247	0x3d90e4af	0.07074868
248	0xbd4aba1d	-0.049493898
249	0xbe44ef75	-0.1923197
250	0xbe66cb7f	-0.22538565
251	0xbe78dad3	-0.24302225
252	0xbddedae3	-0.10881593
253	0x3c9940ca	0.018707652
254	0x3e6bb7ea	0.23019376
255	0xbd9d0886	-0.07667641

linear3.bias f4 [30]
0	0x3f60761f	0.8768024
1	0x3d88ec9a	0.06685753
2	0xbf227b58	-0.6346946
3	0xbe1b206c	-0.15149087
4	0x3f632011	0.88720804
5	0xbfd74eb8	-1.6820898
6	0x3f4d5138	0.80202055
7	0x3f410952	0.75404847
8	0x3f3d6831	0.7398711
9	0xbf19fc17	-0.60150284
10	0x402ea0c4	2.7285624
11	0xc01c4648	-2.4417896
12	0xbfcd2c1d	-1.6029087
13	0x3f0afc48	0.542912
14	0xbf1ea52a	-0.6197077
15	0xbeb080ab	-0.34473166
16	0x3f75dc47	0.9603924
17	0x3fe1b42a	1.7633107
18	0xbf3ef5e3	-0.74593943
19	0xbfe6a88a	-1.8020184
20	0xbf90d9a2	-1.1316416
21	0x3ef77b7a	0.48336393
22	0xbf553b76	-0.83293855
23	0xbe82e03d	-0.25561705
24	0x3f4b1f54	0.7934468
25	0xbfc8ede3	-1.5697597
26	0xbf803ece	-1.0019166
27	0x3f936880	1.1516266
28	0x3f3699ad	0.7132824
29	0xbfd574cb	-1.6676267

linear4.weight f4 [30, 30]
0	0xbe0432ec	-0.1291005
1	0x3ddf4493	0.10901751
2	0x3eacb4e8	0.3373177
3	0xbe327cbc	-0.17430395
4	0xbe29a8c7	-0.1656829
5	0x3e05ffc1	0.13085844
6	0xbe4d50a4	-0.20050293
7	0x3d763d9c	0.06011735
8	0xbe1b2c98	-0.1515373
9	0x3c67d52a	0.014149943
10	0x3e9545c0	0.29154778
11	0x3e345550	0.17610669
12	0xba8eb1cf	-0.0010886731
13	0xbc20a640	-0.009805262
14	0x3e87bd27	0.265115
15	0xbc2157dc	-0.009847607
16	0x3e031b74	0.12803441
17	0xbe8f9d75	-0.28049818
18	0x3d88b6a1	0.06675459
19	0xbe297af6	-0.16550812
20	0xbdd6506d	-0.10464559
21	0x3ebbd6df	0.3668737
22	0x3dde5764	0.10856512
23	0xbde9554c	-0.11393222
24	0x3e1af6ca	0.15133205
25	0xbc6a1fbb	-0.014289792
26	0x3e7ff443	0.24995522
27	0x3c43de50	0.011954859
28	0x3e12eaae	0.14347336
29	0x3bb770ae	0.0055981493
30	0xbd0f2b2c	-0.03495328
31	0xbdcebdd7	-0.10094803
32	0xbe6ff3f3	-0.23432903
33	0xbe8c702e	-0.27429336
34	0x3dd94954	0.10609689
35	0x3d23dc63	0.0400051
36	0x3d9791fd	0.07400892
37	0xbedd3747	-0.43206236
38	0xbd1b7220	-0.037950635
39	0xbf05ec0a	-0.5231329
40	0xbe67c0e9	-0.22632183
41	0xbe059fb7	-0.13049208
42	0xbdb6d84f	-0.08927976
43	0x3dc6b69d	0.097027995
44	0xbe9c2fdf	-0.30505273
45	0x3dae6b67	0.08516579
46	0x3e6865dd	0.22695108
47	0x3d93ab98	0.07210463
48	0x3d5db570	0.05412811
49	0x3c42f9d0	0.01190038
50	0x3dc97cf7	0.09838288
51	0x3e10d11d	0.1414227
52	0x3e420bac	0.18949765
53	0xbe3acfbd	-0.18243308
54	0xbe204def	-0.1565473
55	0x3df41396	0.11917798
56	0x3d05c1e2	0.032655604
57	0x3e30706b	0.17230384
58	0x3d9f4358	0.07776517
59	0xbe131862	-0.1436477
60	0xbd68143d	-0.056659926
61	0x3e1c2434	0.15248185
62	0xbdc2de49	-0.09515054
63	0x3e71e667	0.23623048
64	0xbea84af1	-0.32869676
65	0x3dce9bf8	0.100883424
66	0x3e4c2177	0.19934641
67	0xbda91dd8	-0.08257645
68	0xbc7bcc93	-0.0153685985
69	0x3d84b422	0.0647967
70	0x3dccd307	0.10001188
71	0xbd9884d7	-0.07447212
72	0x3e694ec5	0.22783954
73	0xbdd11874	-0.10209742
74	0x3dd10eab	0.10207876
75	0xbe81bc9f	-0.2533922
76	0xbcccca1d	-0.024998719
77	0x3e87050e	0.26371044
78	0xbe841388	-0.2579615
79	0x3b907a33	0.0044090985
80	0x3ee04c0c	0.4380802
81	0xbd9230a8	-0.07138187
82	0x3e546824	0.20742851
83	0xbce9dc4b	-0.028547427
84	0x3e1bee3e	0.15227601
85	0xbe4ba81e	-0.1988835
86	0xbd26e7df	-0.040748473
87	0x3d100751	0.035163227
88	0x3e1acd41	0.1511736
89	0x3e271d50	0.16319776
90	0x3db81b93	0.08989634
91	0xbe13bbbf	-0.14427088
92	0xbe2f230c	-0.17103213
93	0xbde891c8	-0.113559306
94	0x3e95adf6	0.29234284
95	0xbe48c1ee	-0.19605228
96	0x3ea2bb61	0.31783584
97	0xbe31e266	-0.1737152
98	0x3d942a48	0.07234627
99	0x3d8b4dae	0.068019256
100	0x3d251546	0.04030349
101	0x3e9b2346	0.3030035
102	0x3e0a059e	0.13478705
103	0xbd460470	-0.048344076
104	0x3c7732b3	0.015087771
105	0x3ddd01b1	0.10791338
106	0xbe1f9e3b	-0.15587704
107	0xbc01a520	-0.007912904
108	0x3e9f0327	0.31057093
109	0x3cabcc62	0.02097148
110	0x3e5686c9	0.20949854
111	0xbef0dbe4	-0.47042763
112	0x3d25d79a	0.040488817
113	0x3e1f7a8e	0.15574095
114	0xbdae90b7	-0.08523696
115	0xbe031277	-0.12800013
116	0xbdc1bf07	-0.09460264
117	0x3d582eec	0.052779123
118	0x3c8484d3	0.016176617
119	0x3e300089	0.17187704
120	0x3e4501fb	0.19239037
121	0x3e2f288a	0.17105308
122	0x3e7e57f4	0.24838239
123	0xbd912405	-0.07086948
124	0xbe8e51cf	-0.2779679
125	0x3e592c9f	0.21208428
126	0xbdd91abf	-0.106008045
127	0xbe2c5b28	-0.16831648
128	0x3eb6ccf3	0.3570324
129	0xbecdb911	-0.40180257
130	0xbe3fce36	-0.18731007
131	0xbc407c62	-0.011748405
132	0x3dcc8b64	0.09987524
133	0xbdb7bcb0	-0.08971536
134	0x3e51a9cb	0.20474927
135	0xbef827a9	-0.48467758
136	0x3e93cdd6	0.28867978
137	0x3d639a2a	0.055566944
138	0xbd94809e	-0.07251094
139	0x3dc4f955	0.09617869
140	0xbd0d25a0	-0.03445971
141	0x3ecc6249	0.39918736
142	0x3b51c5ce	0.003200877
143	0x3c6346bf	0.013871848
144	0xbe850bc5	-0.25985542
145	0x3e629da8	0.22130454
146	0xbe3ba909	-0.183262
147	0xbde684b8	-0.11255783
148	0x3d12dc3b	0.03585456
149	0xba1e822f	-0.00060466205
150	0xbc3d84a7	-0.011567271
151	0xbe80fed2	-0.25194412
152	0x3e411842	0.1885691
153	0x3d7d0a49	0.061777387
154	0x3e0d1e16	0.13781008
155	0xbe165b95	-0.14683373
156	0x3e89b837	0.26898357
157	0x3d4e50f8	0.050370187
158	0x3d5438f1	0.051812116
159	0x3e58df4a	0.21178928
160	0xbee9f364	-0.45693505
161	0x3d8528c8	0.06501919
162	0xbd9bb1c9	-0.07602269
163	0x3e41cf4c	0.18926734
164	0x3e0116d2	0.12606362
165	0x3da71926	0.081590936
166	0xbe25aa9f	-0.16178368
167	0xbd9a23bb	-0.07526346
168	0xbe167328	-0.14692366
169	0x3e203838	0.15646446
170	0xbe176416	-0.14784274
171	0xbe876c7f	-0.26449963
172	0x3d24d9ab	0.040246647
173	0x3c3f984d	0.011694026
174	0xbe99f6d0	-0.30071115
175	0x3d4f1dd1	0.050565545
176	0x3e493dae	0.19652435
177	0xbdee7d0c	-0.116449445
178	0x3e076e3d	0.13225646
179	0x3bdb6308	0.006695155
180	0x3e6a584f	0.2288525
181	0x3e029d6a	0.12755361
182	0x3e04fd95	0.12987359
183	0xbd065e52	-0.032804795
184	0xbdc9372a	-0.09824975
185	0x3edaa20f	0.42701766
186	0xbe88efbb	-0.267454
187	0xbda95008	-0.08267218
188	0x3d57feef	0.052733358
189	0x3c30cb01	0.010790587
190	0xbe380b88	-0.17973149
191	0xbeb88ffd	-0.36047354
192	0xbcdd6b1d	-0.027028615
193	0x3dfe4424	0.124153405
194	0x3e3a7e2d	0.18212195
195	0x3c94cd15	0.018164197
196	0xbea8deaa	-0.3298238
197	0xbd2a1a1a	-0.0415288
198	0xbe8afa67	-0.27144167
199	0xbe0c5db4	-0.1370762
200	0xbe564abc	-0.20926946
201	0x3ed55228	0.41664243
202	0x3e3b33e5	0.18281515
203	0xbe0777ac	-0.13229245
204	0xbde473f6	-0.1115493
205	0x3ddefb78	0.108878076
206	0xbe554419	-0.20826758
207	0x3dfe4532	0.12415542
208	0xbc08dd52	-0.008353548
209	0xbd93b372	-0.07211961
210	0x3e69d779	0.22836103
211	0xbe154a07	-0.1457902
212	0x3e94fce5	0.29099193
213	0x3e4c61a1	0.19959117
214	0xbd8e54a6	-0.06949739
215	0x3e4d558a	0.20052162
216	0xbd9659b3	-0.073413275
217	0xbf06db37	-0.52678245
218	0x3de2d34c	0.11075458
219	0xbb303869	-0.0026889092
220	0xbc93c3e4	-0.018037744
221	0x3d1953fd	0.037433613
222	0xbd0fa7dc	-0.035072193
223	0xbe4b45a3	-0.19850783
224	0x3cec039d	0.028810317
225	0x3d89682c	0.06709322
226	0x3de40b01	0.11134911
227	0x3e22b3b8	0.1588887
228	0xbdccf1a6	-0.10007028
229	0xbe331520	-0.17488527
230	0xbc3f7815	-0.011686345
231	0x3ecd319e	0.40076917
232	0x3db72ea6	0.08944444
233	0xbd42826e	-0.04748767
234	0x3e7d573a	0.24740306
235	0xbc936d90	-0.01799658
236	0x3dea8634	0.114513785
237	0xbe01056b	-0.12599723
238	0xbe5c36cc	-0.21505278
239	0x3e870191	0.26368383
240	0xbcdee17f	-0.027207134
241	0x3e7b2774	0.24526769
242	0x3e642ab4	0.22281915
243	0xbe115e86	-0.14196214
244	0x3e36ed25	0.17863901
245	0x3e5636a7	0.20919286
246	0x3e0fe8e9	0.14053692
247	0xbe33be91	-0.17553164
248	0xbc802d6d	-0.01564666
249	0xbeaff958	-0.34369922
250	0x3ea9f706	0.33196276
251	0xbdb16da3	-0.0866349
252	0xbd251160	-0.040299773
253	0x3e4788a6	0.19485721
254	0xbd6be41e	-0.057590596
255	0xbc73a106	-0.014869934

linear4.bias f4 [30]
0	0x3ede0b77	0.43368122
1	0x3f8d3402	1.1031497
2	0xbfe6f429	-1.8043262
3	0xbc0d2712	-0.008615272
4	0xbf92c623	-1.1466717
5	0x3f43d0fd	0.76490766
6	0xbe215613	-0.15755491
7	0xbf2d6be8	-0.67742777
8	0xbec074de	-0.37589163
9	0x3ed670bb	0.41882882
10	0xbfbb0576	-1.4611042
11	0xbf14e577	-0.58162636
12	0xbf3ea083	-0.7446367
13	0x3dd5785a	0.10423346
14	0xc048f0cd	-3.1396973
15	0x3f9c0366	1.2188537
16	0x3fabbb93	1.3416618
17	0x3ea31506	0.31851977
18	0x3e3392d0	0.17536473
19	0x3f84c783	1.0373386
20	0x3ed8b135	0.42322698
21	0xbf9f070e	-1.2424028
22	0x3fb69658	1.4264631
23	0x3e2fa587	0.17152987
24	0x3ec5ab26	0.38607138
25	0x3eb0f2b9	0.34560183
26	0x3f035047	0.5129437
27	0x3e21e4fb	0.15810005
28	0xbee70116	-0.45118016
29	0x3d59d5e0	0.053182483

linear5.weight f4 [1, 30]
0	0xbcae3f24	-0.021270342
1	0x3de3c3f3	0.11121359
2	0xbe4fea90	-0.20304322
3	0xbed4bcd7	-0.41550323
4	0x3c741966	0.014898634
5	0xbea717d8	-0.3263538
6	0x3de7fa33	0.113270186
7	0x3eccc0d2	0.3999086
8	0xbee98594	-0.45609725
9	0x3e8f92da	0.28041726
10	0x3f74e6df	0.9566478
11	0xbea34a31	-0.3189254
12	0x3f041630	0.51596355
13	0x3e169da4	0.14708573
14	0xbe807a3f	-0.25093266
15	0xbc4accb3	-0.012377906
16	0xbdad7f46	-0.08471541
17	0xbe080d09	-0.13286223
18	0xbe8eb08a	-0.27869064
19	0x3e9c2eaa	0.30504352
20	0xbeac8d7e	-0.337017
21	0x3ceb4374	0.028718688
22	0x3da94762	0.08265568
23	0xbebe6072	-0.37182957
24	0x3e527e10	0.20555902
25	0x3e3717c3	0.17880158
26	0x3cd5a59d	0.026079947
27	0x3e6eec24	0.23332268
28	0xbe68507d	-0.22686954
29	0xbe1453cf	-0.14485095
