KINN/Plate_hole/model/PINNs_MLP/PINNs_MLP.pth (torch, 16596 bytes, 10 tensors)

weight f4 [30, 2]
00000000: 9fab 563f 056f a3bf 116e 12bf 59c3 48be
00000010: 288a ebbe da32 bfbe 1658 53be 0660 cf3e
00000020: fc59 37bf f807 b1bd a57a 033e a0d7 1bbe
00000030: e85a 23bf 3533 a43d c6e8 1abf 1174 e8be
00000040: a286 373f 0e14 703f a967 9cbf acda 0abf
00000050: e030 303f bdf7 383f 2203 06bf 4ca0 713e
00000060: 959e 6abf 3721 4e3f f135 dd3e 8034 89be
00000070: 6e2e 923e be82 84bf 127f 7dbe ae98 dc3c
00000080: 0b83 203f 9120 ae3f 5b57 e5be e4d4 1fbf
00000090: b9f8 123d 4255 093f 117d 223f 0952 233f
000000a0: 3ce3 00bd 8d52 5d3d 46ce 063f fd0d 29bf
000000b0: 7d16 27be d59b 213f af60 a63f 24a6 1bbf
000000c0: fe53 ca3f 06a6 e3be e4e7 08bf 851f 623f
000000d0: f00d 9ebe b5f5 81be bb36 7dbe 0974 6a3e
000000e0: b4e1 85be fde5 9ebd fc6f a7be b085 7dbe
0.83855623 -1.2768255 -0.571992 -0.19605769 -0.46003842 -0.37343484 -0.20639071 0.40502948
-0.7162168 -0.08644098 0.12839754 -0.15218973 -0.63810587 0.080175795 -0.60511434 -0.45401052
0.7168981 0.937806 -1.2219135 -0.54239917 0.6882458 0.7225302 -0.5234853 0.23596305
-0.91648227 0.8051943 0.43205217 -0.26797867 0.28551048 -1.0352399 -0.24755505 0.026928272
0.62699956 1.3603688 -0.4479321 -0.6243422 0.03588173 0.5364572 0.63472086 0.6379705
-0.031466708 0.054033805 0.526585 -0.6603697 -0.16317172 0.63128406 1.2998255 -0.60800385
1.5806882 -0.44462603 -0.53478837 0.88329345 -0.30870008 -0.25382772 -0.2472791 0.22895826
-0.2614876 -0.077587105 -0.32702625 -0.24758029

bias f4 [30]
00000000: b373 af3f 9dc2 843f ce03 08bf 7751 79bf
00000010: a8d8 fe3f 0f7e 8d3f 0722 0fbd b275 d0bf
00000020: e4f2 10be a091 a1bd 2b9c bcbd 889e 0c3f
00000030: 89b6 40bf 9a8c 2840 3944 5a3d 14b4 d3bf
00000040: 315d ab3e 6f15 513f 70bc adbf a2fb bbbf
00000050: b0c2 d2bf c7f3 91bf c9ae 7c3f 655b e8bf
00000060: 4424 103f e946 873f 5102 8bbf 8ceb 1ebf
00000070: eb30 c0bf 4106 993f
1.3707184 1.0371891 -0.53130805 -0.9738993 1.9909868 1.1054095 -0.03494456 -1.6285918
-0.14155155 -0.07889104 -0.09209474 0.549294 -0.75278527 2.6335816 0.05328772 -1.653933
0.33469537 0.8167333 -1.3573132 -1.4686167 -1.6465664 -1.140252 0.987042 -1.8152891
0.56305337 1.0568515 -1.0860082 -0.62078166 -1.5014929 1.1955034

weight f4 [30, 30]
00000000: 3e87 723e edb3 d33d 0702 dcbd 3715 5ebe
00000010: 99f5 35be f841 2c3d c072 bfbd 67f3 d83e
00000020: 9b6f 36be 1f62 04bd dcd7 fbbe d55f 62bc
00000030: 4e84 8fbd ca74 7cbd 94f6 9d3e 4422 893e
00000040: 6237 a9be df22 8a3d 04a3 acbe fe00 e5bd
00000050: 61cc 1bbe e1c8 cc3d 45c4 84be ef4e 6cbe
00000060: 9540 e6ba 83d5 d33d 5bb6 313e cc29 5fbe
00000070: c494 01be 5b22 0e3e 1129 b4be bce9 963e
00000080: c6f3 493c 99a2 753e 6c8f 283e 217b 93bd
00000090: 3483 143f 8179 46bd dc96 02bf 0bdb e23d
000000a0: 053a 2f3e 110b 94bd 8352 0b3f 06cf 18bb
000000b0: 4050 a2be 776f e13d cee6 22be 1c1b 2cbe
000000c0: e203 f23d e5b3 cbbd f6de 683e 13e0 2cbe
000000d0: f969 9b3e d215 613c 246e 4abe b6ab 24be
000000e0: 691c 51bd aa10 023e 1d0b cdbe 63e4 e73d
000000f0: 995f 87be 8bed c7bd be59 2dbe 2f99 3c3e
00000100: 4d13 c73c e50c ac3c d303 2abf e2b0 083e
00000110: 4d10 b03f 0ec1 ddbe 6abc b33f aaee 97be
00000120: 3937 bf3e 63ce 103e 473d 59bf e611 6c3e
00000130: 8895 bf3e 847d 4fbe 58fe 33be 4847 613d
00000140: add9 18be 72ce 953e 2acf 543e ce4c 413a
00000150: 35c9 bbbd 0554 83be 49f6 38be e89d 0e3e
00000160: 5c3c 14be d851 3fbe 1c14 b6be df06 11be
00000170: 0888 fc3c b5a2 eb3d d0a8 863d 7f56 96be
00000180: 8885 293e c32c 4abe 7d38 c2b9 31ad b73d
00000190: ff2e ca3d bcc3 b13d 7afd 403e 84d3 acbc
000001a0: b299 aebd c786 52be d4b2 5cbd 10c1 763d
000001b0: b902 0d39 f0ef 8f3e b33f 06be f3b0 9abe
000001c0: 6f55 263d 85ff cdbd a2b8 e4be 7000 4b3e
000001d0: 3018 54be 11ad 7a3d 7ad2 6b3b 17a8 873d
000001e0: 8c03 10be d860 dcbe 3af1 c2be 7eac 4b3e
000001f0: 5d91 b5be 4047 56be 0ab0 17bd 0b6d 843d
00000200: d9fc 553e c107 e8bd 3d33 a83e 9999 50be
00000210: 24f6 ed3d 185c d23d cba8 d3be 62fb 883d
00000220: 820b 02bc 2843 52be 73b6 67bd c91d 8d3e
00000230: d914 483d 2331 33be 04df 573e b9b5 953e
00000240: bfd6 8d39 e99c afbd 4a03 4abd 47e5 d13c
00000250: 5bc2 27bb a25f 60be d39d bb3d a4f3 8bbe
00000260: cddd afbe 65b2 a53c 63de ebbd ff72 07be
00000270: 5f4c 85bf da95 273e 7a9b 803f 5630 9dbf
00000280: b3be 6f3f d004 9bbe faac ebbd 5f4f 373e
00000290: 99f3 893d 63b6 ccbe 0151 443b 39b5 c8be
000002a0: e278 af3c bd1d d1bd a91c a6bd 0d6c 663e
000002b0: a20e 38be 7044 9d3e 4eb4 e3bd 59e5 e7bd
000002c0: 09f4 20bd 7130 513d 1fce f0bd cbde 13be
000002d0: e708 11be b417 1f3f 78d8 2f3e d288 fabc
000002e0: 3d3b 2abe 0084 cbbe 6c58 ac3e 76e1 00bd
000002f0: 705a af3e 92a0 8d3e f7f7 9fbd 288b 993e
00000300: b1c7 2b3e 8776 afbd fc16 453e d9d2 56be
00000310: 5210 da3d a897 6b3e 701f f0bc 323e 59be
00000320: c137 2a3d 68c6 bb3d 00c9 023e d761 353d
00000330: f9c2 813d 5541 173e 7e2f c13e 71b1 8e3e
00000340: 0524 32bd c722 49be ebb3 5f3e 19fb cfbe
00000350: 7765 44be ad04 c2bc c55a 9e3c 2c99 e93d
00000360: bb02 65be 869f 29bd 91fd 90be 808c 3cbe
00000370: 9610 673c 0c90 823e 6c9f 29bf 8803 de3d
00000380: 6c9e 5a3e 9256 b33e d158 cdbe 317e 25be
00000390: c35d 4b3e 718f 2e3e 9de3 0f3e 3d34 e43c
000003a0: 7dc9 283e cfc1 13be f3ec ab3e 2575 73be
000003b0: 3eb5 fd3d 10f4 38be d2ab 853e 3cbe 70bc
000003c0: 6416 9bbe 1749 adbd 9be7 793e 666a c53e
000003d0: bcaf be3d 0c70 f7bd 35a7 25be 4b9b 1b3e
000003e0: 19eb 083e 344e a83e f4dc 24be 5745 60be
000003f0: 51e3 debc 951f bdbd 27bf e6bd 4710 36be
0.23684403 0.103370525 -0.10742574 -0.2168778 -0.1776947 0.0420551 -0.09348059 0.423732
-0.17816012 -0.032320138 -0.49188125 -0.013816793 -0.07007657 -0.061634816 0.30852187 0.26783955
-0.33050066 0.067449324 -0.3371812 -0.1118183 -0.15214683 0.09999252 -0.25930992 -0.23076986
-0.0017566854 0.103434585 0.1735472 -0.21793288 -0.12654406 0.13880293 -0.3518758 0.294752
0.0123261865 0.23987807 0.16460961 -0.07201219 0.580127 -0.04845572 -0.51011443 0.110769354
0.17111976 -0.07228673 0.5442278 -0.0023316755 -0.3170185 0.11007588 -0.15908358 -0.16807216
0.11817147 -0.099464215 0.22741303 -0.16882353 0.30354288 0.0137381125 -0.19768578 -0.16081128
-0.051052485 0.1270167 -0.4004754 0.11322858 -0.26440123 -0.097621046 -0.16928765 0.1841781
0.024301196 0.021002242 -0.66412085 0.13348725 1.3754975 -0.43311352 1.4041874 -0.29674274
0.3734682 0.1414123 -0.84859127 0.23053703 0.3741877 -0.20262724 -0.17577493 0.05499962
-0.14926787 0.29259068 0.20782152 0.00073738105 -0.091692366 -0.2565004 -0.180627 0.13927424
-0.1447615 -0.18683565 -0.35562217 -0.14162777 0.030826584 0.11505643 0.06575167 -0.29362866
0.16554844 -0.19743638 -0.0003704465 0.089685805 0.09872245 0.086799115 0.18846694 -0.021096952
-0.08525409 -0.20559226 -0.05388148 0.060242712 0.00013447822 0.28112745 -0.13110237 -0.30213127
0.04060882 -0.10058502 -0.44672114 0.19824386 -0.20712352 0.061200205 0.0035983608 0.066238575
-0.14063853 -0.43042636 -0.38074666 0.1989002 -0.35462466 -0.20925617 -0.03703312 0.06466111
0.20897235 -0.11329604 0.32851592 -0.20371093 0.11619213 0.10271472 -0.41339716 0.066885725
-0.007937314 -0.2053343 -0.05657048 0.27561787 0.048848007 -0.17499213 0.21081167 0.29240206
0.00027053614 -0.0857485 -0.049319543 0.025622023 -0.0025598023 -0.21911481 0.09160962 -0.2733432
-0.34348908 0.020226667 -0.11517026 -0.13227461 -1.0413932 0.16365758 1.0047448 -1.2280376
0.9365036 -0.3027711 -0.11507602 0.17901371 0.06735916 -0.399829 0.0029955509 -0.39200762
0.021419946 -0.1021075 -0.08110935 0.22502156 -0.17974332 0.30716276 -0.11118375 -0.113230415
-0.03929523 0.051071588 -0.117580645 -0.14440458 -0.14163552 0.62145543 0.1717242 -0.03058282
-0.1662416 -0.39749146 0.3366121 -0.031465016 0.34248686 0.27661568 -0.078109674 0.2998898
0.16775395 -0.08567529 0.19247049 -0.2097887 0.10647644 0.23007071 -0.029311866 -0.21215132
0.041557077 0.09168702 0.12771988 0.04428276 0.06336016 0.14771016 0.37731546 0.27869752
-0.043491382 -0.19642173 0.21845977 -0.4062126 -0.19179331 -0.02368387 0.019330392 0.11406168
-0.22364323 -0.0414119 -0.28318456 -0.18412971 0.0141030755 0.25500524 -0.66258883 0.10840517
0.21349496 0.35026985 -0.40106824 -0.1616142 0.19859986 0.17046906 0.14051671 0.02785694
0.16483112 -0.14429401 0.33579215 -0.23775156 0.12388085 -0.18061852 0.2610765 -0.014693793
-0.3029052 -0.084612064 0.24404757 0.38557738 0.093108624 -0.12081918 -0.16177066 0.15195958
0.13370933 0.32872164 -0.16099912 -0.21901451 -0.027208002 -0.092345394 -0.11266928 -0.17779647

bias f4 [30]
00000000: bd76 83be 6c5b 30be 576c ff3e e95e ca3e
00000010: cd8b bb3d 700a 6d3e 389b 033e 8de9 193f
00000020: 2213 54be bc47 89bf aa63 b63f aceb 86bf
00000030: c3b3 a23f 251e 12be f46c 013f 84a6 893f
00000040: def7 193f a35b 853f fe9f 5abf 7f79 843f
00000050: f30c 7b3c 5238 9a3e 686b 19be 4546 a0bf
00000060: 73a1 60bf 070b e53e 00ea 2abe e2e2 e83f
00000070: 440f 9d3f 51ff 6abf
-0.25676528 -0.17222375 0.49887344 0.39525536 0.09157524 0.23148513 0.1285218 0.60121995
-0.20710424 -1.0725017 1.4249165 -1.0540671 1.2711109 -0.14269312 0.50556874 1.0753942
0.6014384 1.041859 -0.8540038 1.0349578 0.015322912 0.30121094 -0.14982378 -1.2521445
-0.8774635 0.44734976 -0.16690826 1.8194239 1.2270284 -0.9179583

weight f4 [30, 30]
00000000: 48a0 de3d 4dfc dd3d d628 cdbd cbf1 a03d
00000010: b390 9cbe 1450 ba3c cae3 9d3e 7ff3 f5be
00000020: 68b2 8f3d 886c 02be 2437 813e 56d1 a43e
00000030: b84f d53e 4c08 81bd a12e 87be 41ea 193e
00000040: 3825 8abd 103c d1be 705b a53d 9060 39bd
00000050: b695 3e3e 81ef 81bd e066 3d3d cd4c 1ebd
00000060: 97c9 86bd f9c1 e93c 8ac3 173e 1a5b 21be
00000070: e74a 673e 5c92 6fbe 70ba 3ebf c139 063e
00000080: fa07 433d fe06 323e e633 093e 2479 18be
00000090: d7dc 063e 1f2f 7dbd 6792 3b3e 315c 05bf
000000a0: df4b 4cbe 104a d83d 642e 5abe 5751 2fbe
000000b0: c441 4bbd 0916 33be 6093 f2be 28f1 87bf
000000c0: 2a4b fcbd 0bf8 14bf d519 793e f48e 433f
000000d0: f053 433e 78bb db3e a211 893e b2db 08bf
000000e0: 9f34 c3be b4e8 db3e d18b 80bf 00c4 9cbe
000000f0: 2e95 afbe 0d13 a63d c0a0 023f 87df 193e
00000100: f653 943e 96f4 bc3e 877b 97be 2be6 db3e
00000110: 29d9 303e e9a8 97bd 4150 f1bd 77dd 143e
00000120: 3a63 4a3e 580d aa3d 6bd4 0ebe 65be 463d
00000130: f97c a1be bfd7 483e de82 0b3d d595 b2bb
00000140: 4251 0fbe b662 963d 99ef 4abd 7995 8f3e
00000150: 51f0 883e d454 febe be15 98bd 1863 e5bb
00000160: 57cd b9be 70e4 0d3e 1326 633e 835f bc3e
00000170: 4ee7 b53d 84b8 e93e f2b0 d9bd 601f a73c
00000180: 8fea c43e 127d 4bbe e94c 9b3e 4c5f 62be
00000190: 368c bebd cd54 45bb a529 b93d 71f8 8dbe
000001a0: 4714 e93c b940 31be 2304 c3be a26f bcbd
000001b0: c675 abbe 5bbc aebe c976 adbd c51f ee3e
000001c0: 8477 20bc 7fe6 4d3e 8261 3fbe 97d3 743e
000001d0: 45ff ac3d ef8b 2a3f e357 a23e b6e9 ef3d
000001e0: 5b07 0e3f 6996 5c3b b557 1fbf 288c 9f3d
000001f0: f64b 9f3e dab6 ad3e 8986 2ebe cf0e 823f
00000200: 0e5a 2dbd 9e71 863f df57 7ebd 1d1a d43d
00000210: aa77 83be 6878 0d3f 0f20 ecbc 0dff 1ebe
00000220: c704 903f 09e8 8d3f fcbe 0bbe 6b08 053d
00000230: 4310 09bf 8bc2 9bbd db0e 4ebe 57fa ce3d
00000240: e870 d2be fa36 8bbe ece9 183e 8cf4 f1bf
00000250: 4165 1cbf 5efc 013e 193b f2be 94be 93ba
00000260: bfa1 313e c3d1 4abe f6ab b4be f40f c43e
00000270: 3ac5 9e3d 2f0a 87be eff4 5ebe 9730 843d
00000280: 6f3f e13d 0dce 8a3d 0890 87bd 09ce 463e
00000290: 47e8 91bd 3c49 6c3e 0032 203f 8020 d0bd
000002a0: a521 f53e ab87 06be f4b5 c5bd 3a51 eb3d
000002b0: 39e1 8abe a6d0 433f 9d7a aabe 7e44 83be
000002c0: cadb 9abe a80c 7d3e 64b8 d4be 9c58 0a3e
000002d0: 5144 aabe 99e3 82bd 8cfc 583e d32c 4e3e
000002e0: 9372 8a3c 38b0 24be 87c8 593c 432e 0bbe
000002f0: a38c 41be e33e 6abf 8361 b33e 6acf bc3c
00000300: 0cc0 203e f3ab 0fbf daf4 a53e 8406 883e
00000310: 8772 5cbe fd14 13bf b247 f0bd 86b2 63bd
00000320: 028a ce3e 078b 0e3e 0155 6fbe b555 0bbd
00000330: d67a 383d de4e 073e c623 3bbe 877e af3e
00000340: 8dba 1e3d 57c8 c4be 87a5 803e 5e67 67be
00000350: 3201 9fbf a1db 05be 7619 99bf 56c2 2ebe
00000360: 8f94 98bc 5900 75be f800 12be 2bab 1e3f
00000370: 15df 3b3f d80f bcbe 3fd4 763e 72eb 44bf
00000380: 361b 853e 0c59 003d 9c87 cabf 8648 99bf
00000390: 5b0e 833e f61d 2abe 613e 56bd 2be4 1d3f
000003a0: 472e 8a3e 2f68 2cbf ce39 32bc 3345 153f
000003b0: 8bce 21bd 7c9b 393e 91e1 663f 4734 ecbe
000003c0: 4b41 18bf 0376 473e 7183 463e 8003 23be
000003d0: a52d 603e 240e 5c3e 6f73 35be 3a88 b1be
000003e0: 1b7e 723b 6f08 e6be c3c3 71be e80c f23d
000003f0: b7de c3be 850d 093e a277 64be 4bd3 923d
0.10870415 0.10839138 -0.100175545 0.07858618 -0.30579147 0.022743262 0.30837852 -0.48037335
0.0701645 -0.12736714 0.2523738 0.3219096 0.41662383 -0.06300411 -0.26402763 0.15030767
-0.0674538 -0.40866137 0.08074081 -0.045258105 0.18611798 -0.0634451 0.046240687 -0.03864746
-0.06581419 0.028534876 0.14820686 -0.15757409 0.22587167 -0.23395675 -0.7450323 0.13107969
0.04761503 0.1738548 0.13398704 -0.14889961 0.13170181 -0.061812516 0.18317567 -0.520938
-0.19950818 0.10561001 -0.21306759 -0.17120872 -0.049623266 -0.17488874 -0.47378063 -1.062047
-0.12319024 -0.58190984 0.2432626 0.76390004 0.19074988 0.42916465 0.26771265 -0.5346023
-0.38126084 0.42950976 -1.0042669 -0.30618286 -0.34293503 0.081091024 0.51026535 0.15026675
0.28970307 0.36905354 -0.2958643 0.42949042 0.1727034 -0.07405264 -0.11782885 0.14537607
0.19764414 0.08303326 -0.13948219 0.048521418 -0.3154066 0.1961355 0.03406035 -0.0054499903
-0.13995841 0.07343046 -0.049544904 0.28043726 0.26745847 -0.49674094 -0.07426022 -0.0070003383
-0.36289474 0.13856673 0.22182493 0.3679162 0.088820085 0.45648587 -0.10629453 0.020400703
0.38460204 -0.1987193 0.30332115 -0.22106665 -0.09304087 -0.003011036 0.09041146 -0.27728608
0.028452052 -0.17309846 -0.38089094 -0.0920098 -0.33488292 -0.3412808 -0.08469922 0.46508613
-0.00979412 0.20107459 -0.1868954 0.2390884 0.08447126 0.6661977 0.31707677 0.11714499
0.55479974 0.0033658987 -0.62243205 0.077904046 0.3111264 0.33928567 -0.17043509 1.0160769
-0.04232221 1.0503423 -0.06209552 0.10356543 -0.25677234 0.5526185 -0.02882388 -0.15526982
1.1251458 1.1086437 -0.13647074 0.03247873 -0.5354044 -0.076054655 -0.20122854 0.10106342
-0.41101766 -0.2719038 0.14932984 -1.8902755 -0.61092 0.12693927 -0.47310713 -0.0011272007
0.17346857 -0.1980658 -0.35287446 0.3829342 0.07752462 -0.26374957 -0.21773122 0.0645458
0.10998427 0.06777582 -0.06619269 0.19414534 -0.071243815 0.23074812 0.62576294 -0.10162449
0.4787723 -0.1313769 -0.096538454 0.11490102 -0.27124956 0.7649025 -0.33296672 -0.25638193
-0.3024581 0.24711859 -0.4154693 0.13510364 -0.33255246 -0.06391067 0.21190089 0.20134287
0.016900336 -0.16082847 0.013292438 -0.13591866 -0.18901305 -0.9150221 0.35035333 0.023048121
0.1569826 -0.5612175 0.3241337 0.2656747 -0.21528064 -0.574539 -0.11732425 -0.055590175
0.40339667 0.13920222 -0.2337227 -0.034017283 0.04503902 0.13213679 -0.18275365 0.3427622
0.038752127 -0.38434097 0.25126287 -0.22598025 -1.242224 -0.13072063 -1.1960895 -0.17066321
-0.018625526 -0.23925914 -0.14258182 0.6197993 0.7338727 -0.36730838 0.24104403 -0.7692176
0.25997323 0.03133492 -1.5822635 -1.1975257 0.2559689 -0.16612992 -0.052305583 0.6167628
0.26988432 -0.6734647 -0.0108780395 0.58308715 -0.039503615 0.18125719 0.9018794 -0.46133634
-0.5947463 0.19478612 0.19386078 -0.15919304 0.21892412 0.21489769 -0.17719816 -0.34674245
0.0037001434 -0.4492831 -0.23609833 0.11818868 -0.38255855 0.13384064 -0.22311261 0.07169207

bias f4 [30]
00000000: 047d 0d3e 0bcd 3240 8e94 30bf d619 1f3e
00000010: cb70 d33e 891d ac3e dd74 8fbf efc1 0fc0
00000020: e320 843f 2825 bbbe da25 3f3f d670 693e
00000030: c1dd aebe f69c a03e 0152 a13e 874d 01c0
00000040: e7dd acbf bce9 d43f 56c3 10be a1c0 fd3e
00000050: a5c3 503e 78ed 3ebf 0ed7 1cbf fed8 4abf
00000060: c020 1ec0 af08 f9bf 27fb 84bf 4fbf 763e
00000070: 98e5 913f 2e5a 00c0
0.13817221 2.7937648 -0.68976676 0.155372 0.41296992 0.33616284 -1.1207539 -2.2462118
1.0322536 -0.36551785 0.7466713 0.2279695 -0.3415356 0.31369752 0.31507877 -2.020357
-1.3505219 1.663383 -0.14137015 0.49561027 0.20387132 -0.745811 -0.6126565 -0.79237354
-2.470749 -1.9455775 -1.0389146 0.24096416 1.1398191 -2.0055041

weight f4 [30, 30]
00000000: 52c4 ec3d 3324 9c3c 0e39 bcbe 39ec e7bd
00000010: 9a38 403f 0650 e7bb e973 28bc f9fc ae3e
00000020: 49eb 31be 86cf a03e 56a0 f6bd f7b0 ef3c
00000030: 2d41 083d 6a61 463e 8faa 3dbd 9129 4d3e
00000040: f138 0c3e bb27 4fbc 6a66 a03e d424 01bd
00000050: c06f 1c3f b82e 92be 9e19 73be 44d2 23be
00000060: c25c 903d c84e a0be dc21 813e 02fe b93e
00000070: 91c5 4e3d f015 33bd 8107 cebd 8765 91be
00000080: 09b4 e4bb f3a2 2a3e 93ac 04bd f05d b3bd
00000090: 36fb 2bbe 7ea0 9dbe 272d aa3c 85e3 9fbe
000000a0: b933 ba3e 2549 46be 6cdb b83d 679c 6f3b
000000b0: c1ba a5bd a593 013e 8f56 bb3d f0f5 2bbd
000000c0: 7036 263e 8132 363e 404d 00bf 685b 1ebc
000000d0: f06d bd3e 1c39 cf3e ff00 963c e434 80be
000000e0: e533 303b 98cb 13bf 0b37 1dbe 23e2 733d
000000f0: 1b19 1bbe 7a15 7d3c 3902 a3bd e576 c1bb
00000100: b422 39bf b407 4d3d 27cb 4dbe d5b5 2dbf
00000110: 5675 143e df9e 03bf 386b 723e 5dec afbc
00000120: 0483 9bbe 74ee 7d3e 6738 14be 233d 11bd
00000130: fbc6 b4bd af89 533e c302 ca3d 2cd2 66bd
00000140: 209b 093f f087 8d3e 8b4e b03e c180 e0bc
00000150: 73b9 983e 4139 c4bd 4560 2b3e f41c 283d
00000160: b91d b1be eae1 70bd bcd7 f23d 34d3 ce3d
00000170: 0086 393e 3ad9 f8bd 396d ddbd e7cc 673e
00000180: bccb 503f 9851 21bd 4572 f6bc d7e3 7cbd
00000190: e463 b1bc 2c74 d63e 7ec0 6e3e 1305 373e
000001a0: aee0 123e 0b0c 48bc 4244 f03b de92 03be
000001b0: 9203 d3be 3e15 cb3e d1e3 93bd 257c 17bd
000001c0: e95f c73d 2493 92be e6fb ec3d ff3f 583e
000001d0: 4f4e 2bbe 69e5 d73d 39eb 7dbe 8960 ecbd
000001e0: c941 333b 8f23 253d fc5f 3d3d 8215 7fbd
000001f0: fba2 2f3f 15ff 303e dbb5 2fbe 61cf 703e
00000200: a2a0 78be 1d15 08be c868 183e ac50 123e
00000210: adb8 0ebe 9765 ee3e 7db7 2bbe a507 5bbe
00000220: 9beb 07be 9910 5dbd c99a dbbc fb1e 9c3c
00000230: 2ced a13e df9f 733d aa48 14bf 73fc d4bd
00000240: e937 7b3d 6f84 733d 2f7a 78bd 5c05 2a3d
00000250: c1d2 ddbd 5c7b e6bd 8a7b e3be 1b50 bb3d
00000260: 0ab3 1bbe c532 253c 8d91 60bd 3a9c 9ebe
00000270: 2dca 853e dde1 6cbe f827 cb3e bc61 0bbe
00000280: 72e2 aabd 7cf3 ac3d e1f4 c7bd a501 b2bc
00000290: 738f febe 6a05 63ba e794 ae3d bfeb a3bd
000002a0: 08b4 3a3e fba5 1dbf ce7e b7be c52c bcbd
000002b0: 054e c43e 074f b13e 6b1c c0bc ebed 543e
000002c0: 5271 f53d fbee d1bd 4a54 863d a9f8 a9be
000002d0: a075 91be 2509 4abe f405 de3d 4750 663d
000002e0: b824 d93e 7315 2a3e 69db 913e df05 a73d
000002f0: 4f82 13be 8c04 063e 46bd 8ebc 0fe4 f0bd
00000300: 60b6 a03e ef3c babe 6558 b7bd 4a20 bb3d
00000310: b420 083d 2e6a 59be ff8a d2bc 2f09 583e
00000320: 4f4a 6bbe 3ec1 81be b548 e23d 3c59 193e
00000330: 9878 76be fbc8 1ebd 2560 b33d 8bda 9cbd
00000340: 1f75 4bbe 67be 4b3e 792a b9bd 47c3 1ebe
00000350: c08a f83c 3594 40be 596a 8a3e c6e6 db3d
00000360: 762e 37be 676a 00bd cc4e 913e 9524 f2bd
00000370: e074 bb3e 0ebf 53be ec64 94be dc60 1c3f
00000380: 015f 563c f0b7 a33d 9352 46be 0937 96be
00000390: 3579 093f a51c b43d 7bd6 ae3e 77f5 573e
000003a0: 11a9 463e 3682 b93c 8d77 293e 4d0b bdbe
000003b0: ad50 d03d 180c bebe 2925 92be c428 7b3e
000003c0: 8b9f c3bc 95fb 10bd 0019 c33e f8a3 fd3e
000003d0: 14fe 8abe db00 81bf f6f8 da3e 0fed 913e
000003e0: d057 803e 2215 b13e 3e04 34bd db08 a13e
000003f0: 4aa3 283e 6693 f4bd cf8b 19bf f239 493e
0.11560883 0.01906023 -0.3676228 -0.11324353 0.7508637 -0.0070591 -0.010281541 0.34177378
-0.1737491 0.31408328 -0.120423004 0.029259188 0.03326528 0.19373098 -0.046305235 0.20035388
0.13693596 -0.01264375 0.31328136 -0.031529263 0.61108017 -0.2855127 -0.23740241 -0.15998179
0.07048942 -0.31310105 0.25221145 0.36326605 0.050481383 -0.043722093 -0.10060025 -0.28397772
-0.0069794697 0.16663723 -0.032391142 -0.087581515 -0.16795048 -0.30786508 0.020773483 -0.3122827
0.36367586 -0.1936384 0.090262264 0.003656173 -0.08092261 0.12653978 0.09147369 -0.04198259
0.16231704 0.17792703 -0.50117874 -0.009665348 0.36997938 0.40473258 0.018311022 -0.25040352
0.00268864 -0.57732534 -0.15353028 0.059541833 -0.15146296 0.015447015 -0.07959408 -0.005904066
-0.7231858 0.050056174 -0.20097028 -0.6785558 0.14497885 -0.51414293 0.23673713 -0.021475011
-0.30373394 0.24797994 -0.14474641 -0.035458695 -0.08827015 0.20657991 0.09863808 -0.05635278
0.53752327 0.27642775 0.34434924 -0.027405145 0.29828987 -0.09581233 0.16735943 0.041043237
-0.3459299 -0.0588092 0.11857554 0.100988775 0.18117523 -0.12150808 -0.10811848 0.22636758
0.81560874 -0.039384454 -0.030083785 -0.061740723 -0.021654077 0.41885507 0.23315617 0.1787303
0.14343521 -0.0122099025 0.0073323557 -0.12848994 -0.4121366 0.39664644 -0.07221187 -0.036983628
0.0973509 -0.28627884 0.11571483 0.21118163 -0.16729091 0.105418034 -0.24796762 -0.1154185
0.0027352443 0.040317114 0.046234116 -0.06227637 0.68608063 0.17284806 -0.17159216 0.23516609
-0.24280027 -0.13289304 0.14883721 0.14288586 -0.13937636 0.46561882 -0.16769214 -0.21389635
-0.1327347 -0.053970907 -0.026807206 0.019057741 0.3162626 0.059478637 -0.57923377 -0.10399713
0.061332617 0.05945247 -0.0606634 0.041509017 -0.10831214 -0.11253998 -0.4443019 0.09146138
-0.15205017 0.010082905 -0.054826308 -0.30978566 0.2613081 -0.23133035 0.3967893 -0.13611501
-0.08343972 0.084448785 -0.09763504 -0.0217293 -0.49718818 -0.00086601696 0.085244946 -0.080039494
0.18232739 -0.6158139 -0.35838932 -0.091882266 0.38340774 0.34630606 -0.02345105 0.20793884
0.11984505 -0.1025066 0.065590456 -0.33197525 -0.28410053 -0.19730051 0.10840979 0.056228902
0.42410827 0.16609745 0.2848771 0.08155417 -0.14405178 0.13087672 -0.017424237 -0.11762249
0.3138914 -0.36374614 -0.08952407 0.09137018 0.033234313 -0.2123191 -0.025701044 0.21097253
-0.22977565 -0.25342745 0.11049024 0.14975446 -0.2406944 -0.03876589 0.087585725 -0.07658871
-0.19868897 0.19896851 -0.09041304 -0.1550418 0.030339599 -0.18806536 0.27034262 0.10737376
-0.17888817 -0.031351473 0.2838043 -0.11823384 0.36612606 -0.2067835 -0.28983247 0.61085296
0.013084174 0.07994068 -0.19367437 -0.29338863 0.5370057 0.08794526 0.3414801 0.21089731
0.19400431 0.022645097 0.16549511 -0.36922684 0.10171638 -0.37118602 -0.28543976 0.2452727
-0.023879787 -0.035396177 0.3810501 0.4953916 -0.2714697 -1.0078386 0.42768067 0.28501174
0.25066996 0.34586436 -0.04394936 0.3145207 0.1646854 -0.119421765 -0.59978956 0.1965101

bias f4 [30]
00000000: e9a1 97bf 729f ba3e 58b2 a3bb 131a 17bf
00000010: de51 94bf ce8f adbf 2967 893e 01fd ef3f
00000020: 7674 c43d a208 6fbe c865 bc3e b9e0 96bf
00000030: 350d e63e 12ec 5f3f 1129 a93e cabd 5d3f
00000040: 0024 4dbe 9d81 0dc0 5bb4 88bf ba1a 06bf
00000050: 609d 1240 bb59 e1bf 9f7b c2bd 1731 3d3e
00000060: 33a3 ce3d 2e9b 033e 7b4f 6e3f 7f26 083e
00000070: 6f03 083f 7289 0c3f
-1.1846286 0.36449772 -0.0049956255 -0.5902416 -1.1587484 -1.3559511 0.26836517 1.8749086
0.09592526 -0.23343137 0.36796403 -1.178733 0.4493195 0.8746959 0.33039144 0.8661772
-0.20033264 -2.211036 -1.068004 -0.5238453 2.2908554 -1.7605509 -0.09496235 0.18475758
0.100897215 0.12852165 0.9309003 0.13295935 0.5313024 0.54897225

weight f4 [2, 30]
00000000: 8a55 9dbe a9ba 49be 315b 8ebe 7cde 8d3e
00000010: bab5 bbbe 1b6e 7fbe 732d aa3e b4d3 dd3d
00000020: e850 6bbe 3274 8c3d 7d0f 2e3e 3f3e 0f3f
00000030: dbb5 953e b6fc 95be f26d 9bbe 45b7 b5bd
00000040: 1aa5 57be 373e 1c3e 0535 62be 8abf 023f
00000050: 86fa d43d 5f09 40be 47e4 86be dfde 8cbe
00000060: a0c0 743e 2c39 2dbf 83f6 1b3e eb64 993e
00000070: 31b2 45be 2b1c fa3d e401 a43e 178c 423e
00000080: 585f 223e 69ab f93e c9a2 56be d955 613e
00000090: 0038 b9be ba96 51be 7d79 cbbe 3f4a bbbe
000000a0: 204a e63e d88e 3fbe 5c9c 0f3e 457c 373d
000000b0: d910 c4be 1142 03bf 7d59 1a3e 8b83 5c3e
000000c0: bfb1 043d 310c f2be 2227 ccbd 7934 833d
000000d0: 2364 bbbe 61bf 97be d9f5 38be 03cf 323d
000000e0: b586 293f cee6 8abe 6d55 363e 3fa3 353f
-0.30729324 -0.19700111 -0.2780395 0.27708805 -0.36662084 -0.24944346 0.332378 0.10831395
-0.22980082 0.068581 0.16998096 0.55954355 0.29240307 -0.29294366 -0.3035732 -0.088728465
-0.21059075 0.15258108 -0.22090538 0.51073515 0.10399346 -0.18753575 -0.26346037 -0.27513787
0.23901606 -0.6766536 0.15230756 0.29959807 -0.19306256 0.12212404 0.32032692 0.18998753
0.15856683 0.48763588 -0.20960535 0.22005405 -0.36175537 -0.20467654 -0.39741126 -0.36580083
0.44978428 -0.18706834 0.1402449 0.044796247 -0.38294104 -0.51272684 0.150732 0.21534555
0.032396074 -0.47274926 -0.099684015 0.06406493 -0.36599836 -0.29638198 -0.18062533 0.043654453
0.6622117 -0.27129215 0.17806025 0.7095222

bias f4 [2]
00000000: a4f5 223f e1c4 88bf
0.6365607 -1.0685083
